{"class_name": "Model", "keras_version": "2.1.2", "config": {"input_layers": [["input_1", 0, 0]], "output_layers": [["dense_1", 0, 0]], "layers": [{"name": "input_1", "inbound_nodes": [], "config": {"batch_input_shape": [null, 32, 32, 3], "dtype": "float32", "sparse": false, "name": "input_1"}, "class_name": "InputLayer"}, {"name": "conv2d_1", "inbound_nodes": [[["input_1", 0, 0, {}]]], "config": {"activity_regularizer": null, "kernel_initializer": {"class_name": "VarianceScaling", "config": {"mode": "fan_in", "distribution": "normal", "seed": null, "scale": 2.0}}, "filters": 16, "data_format": "channels_last", "name": "conv2d_1", "dilation_rate": [1, 1], "kernel_constraint": null, "bias_constraint": null, "activation": "linear", "strides": [1, 1], "kernel_size": [3, 3], "kernel_regularizer": {"class_name": "L1L2", "config": {"l2": 9.999999747378752e-05, "l1": 0.0}}, "bias_regularizer": null, "use_bias": true, "bias_initializer": {"class_name": "Zeros", "config": {}}, "trainable": true, "padding": "same"}, "class_name": "Conv2D"}, {"name": "batch_normalization_1", "inbound_nodes": [[["conv2d_1", 0, 0, {}]]], "config": {"moving_mean_initializer": {"class_name": "Zeros", "config": {}}, "beta_regularizer": null, "name": "batch_normalization_1", "gamma_initializer": {"class_name": "Ones", "config": {}}, "scale": true, "axis": -1, "beta_initializer": {"class_name": "Zeros", "config": {}}, "moving_variance_initializer": {"class_name": "Ones", "config": {}}, "epsilon": 0.001, "momentum": 0.99, "gamma_constraint": null, "gamma_regularizer": null, "center": true, "trainable": true, "beta_constraint": null}, "class_name": "BatchNormalization"}, {"name": "activation_1", "inbound_nodes": [[["batch_normalization_1", 0, 0, {}]]], "config": {"name": "activation_1", "trainable": true, "activation": "relu"}, "class_name": "Activation"}, {"name": "conv2d_2", "inbound_nodes": [[["activation_1", 0, 0, {}]]], "config": {"activity_regularizer": null, "kernel_initializer": {"class_name": "VarianceScaling", "config": {"mode": "fan_in", "distribution": "normal", "seed": null, "scale": 2.0}}, "filters": 16, "data_format": "channels_last", "name": "conv2d_2", "dilation_rate": [1, 1], "kernel_constraint": null, "bias_constraint": null, "activation": "linear", "strides": [1, 1], "kernel_size": [3, 3], "kernel_regularizer": {"class_name": "L1L2", "config": {"l2": 9.999999747378752e-05, "l1": 0.0}}, "bias_regularizer": null, "use_bias": true, "bias_initializer": {"class_name": "Zeros", "config": {}}, "trainable": true, "padding": "same"}, "class_name": "Conv2D"}, {"name": "batch_normalization_2", "inbound_nodes": [[["conv2d_2", 0, 0, {}]]], "config": {"moving_mean_initializer": {"class_name": "Zeros", "config": {}}, "beta_regularizer": null, "name": "batch_normalization_2", "gamma_initializer": {"class_name": "Ones", "config": {}}, "scale": true, "axis": -1, "beta_initializer": {"class_name": "Zeros", "config": {}}, "moving_variance_initializer": {"class_name": "Ones", "config": {}}, "epsilon": 0.001, "momentum": 0.99, "gamma_constraint": null, "gamma_regularizer": null, "center": true, "trainable": true, "beta_constraint": null}, "class_name": "BatchNormalization"}, {"name": "activation_2", "inbound_nodes": [[["batch_normalization_2", 0, 0, {}]]], "config": {"name": "activation_2", "trainable": true, "activation": "relu"}, "class_name": "Activation"}, {"name": "conv2d_3", "inbound_nodes": [[["activation_2", 0, 0, {}]]], "config": {"activity_regularizer": null, "kernel_initializer": {"class_name": "VarianceScaling", "config": {"mode": "fan_in", "distribution": "normal", "seed": null, "scale": 2.0}}, "filters": 16, "data_format": "channels_last", "name": "conv2d_3", "dilation_rate": [1, 1], "kernel_constraint": null, "bias_constraint": null, "activation": "linear", "strides": [1, 1], "kernel_size": [3, 3], "kernel_regularizer": {"class_name": "L1L2", "config": {"l2": 9.999999747378752e-05, "l1": 0.0}}, "bias_regularizer": null, "use_bias": true, "bias_initializer": {"class_name": "Zeros", "config": {}}, "trainable": true, "padding": "same"}, "class_name": "Conv2D"}, {"name": "batch_normalization_3", "inbound_nodes": [[["conv2d_3", 0, 0, {}]]], "config": {"moving_mean_initializer": {"class_name": "Zeros", "config": {}}, "beta_regularizer": null, "name": "batch_normalization_3", "gamma_initializer": {"class_name": "Ones", "config": {}}, "scale": true, "axis": -1, "beta_initializer": {"class_name": "Zeros", "config": {}}, "moving_variance_initializer": {"class_name": "Ones", "config": {}}, "epsilon": 0.001, "momentum": 0.99, "gamma_constraint": null, "gamma_regularizer": null, "center": true, "trainable": true, "beta_constraint": null}, "class_name": "BatchNormalization"}, {"name": "add_1", "inbound_nodes": [[["activation_1", 0, 0, {}], ["batch_normalization_3", 0, 0, {}]]], "config": {"name": "add_1", "trainable": true}, "class_name": "Add"}, {"name": "activation_3", "inbound_nodes": [[["add_1", 0, 0, {}]]], "config": {"name": "activation_3", "trainable": true, "activation": "relu"}, "class_name": "Activation"}, {"name": "conv2d_4", "inbound_nodes": [[["activation_3", 0, 0, {}]]], "config": {"activity_regularizer": null, "kernel_initializer": {"class_name": "VarianceScaling", "config": {"mode": "fan_in", "distribution": "normal", "seed": null, "scale": 2.0}}, "filters": 16, "data_format": "channels_last", "name": "conv2d_4", "dilation_rate": [1, 1], "kernel_constraint": null, "bias_constraint": null, "activation": "linear", "strides": [1, 1], "kernel_size": [3, 3], "kernel_regularizer": {"class_name": "L1L2", "config": {"l2": 9.999999747378752e-05, "l1": 0.0}}, "bias_regularizer": null, "use_bias": true, "bias_initializer": {"class_name": "Zeros", "config": {}}, "trainable": true, "padding": "same"}, "class_name": "Conv2D"}, {"name": "batch_normalization_4", "inbound_nodes": [[["conv2d_4", 0, 0, {}]]], "config": {"moving_mean_initializer": {"class_name": "Zeros", "config": {}}, "beta_regularizer": null, "name": "batch_normalization_4", "gamma_initializer": {"class_name": "Ones", "config": {}}, "scale": true, "axis": -1, "beta_initializer": {"class_name": "Zeros", "config": {}}, "moving_variance_initializer": {"class_name": "Ones", "config": {}}, "epsilon": 0.001, "momentum": 0.99, "gamma_constraint": null, "gamma_regularizer": null, "center": true, "trainable": true, "beta_constraint": null}, "class_name": "BatchNormalization"}, {"name": "activation_4", "inbound_nodes": [[["batch_normalization_4", 0, 0, {}]]], "config": {"name": "activation_4", "trainable": true, "activation": "relu"}, "class_name": "Activation"}, {"name": "conv2d_5", "inbound_nodes": [[["activation_4", 0, 0, {}]]], "config": {"activity_regularizer": null, "kernel_initializer": {"class_name": "VarianceScaling", "config": {"mode": "fan_in", "distribution": "normal", "seed": null, "scale": 2.0}}, "filters": 16, "data_format": "channels_last", "name": "conv2d_5", "dilation_rate": [1, 1], "kernel_constraint": null, "bias_constraint": null, "activation": "linear", "strides": [1, 1], "kernel_size": [3, 3], "kernel_regularizer": {"class_name": "L1L2", "config": {"l2": 9.999999747378752e-05, "l1": 0.0}}, "bias_regularizer": null, "use_bias": true, "bias_initializer": {"class_name": "Zeros", "config": {}}, "trainable": true, "padding": "same"}, "class_name": "Conv2D"}, {"name": "batch_normalization_5", "inbound_nodes": [[["conv2d_5", 0, 0, {}]]], "config": {"moving_mean_initializer": {"class_name": "Zeros", "config": {}}, "beta_regularizer": null, "name": "batch_normalization_5", "gamma_initializer": {"class_name": "Ones", "config": {}}, "scale": true, "axis": -1, "beta_initializer": {"class_name": "Zeros", "config": {}}, "moving_variance_initializer": {"class_name": "Ones", "config": {}}, "epsilon": 0.001, "momentum": 0.99, "gamma_constraint": null, "gamma_regularizer": null, "center": true, "trainable": true, "beta_constraint": null}, "class_name": "BatchNormalization"}, {"name": "add_2", "inbound_nodes": [[["activation_3", 0, 0, {}], ["batch_normalization_5", 0, 0, {}]]], "config": {"name": "add_2", "trainable": true}, "class_name": "Add"}, {"name": "activation_5", "inbound_nodes": [[["add_2", 0, 0, {}]]], "config": {"name": "activation_5", "trainable": true, "activation": "relu"}, "class_name": "Activation"}, {"name": "conv2d_6", "inbound_nodes": [[["activation_5", 0, 0, {}]]], "config": {"activity_regularizer": null, "kernel_initializer": {"class_name": "VarianceScaling", "config": {"mode": "fan_in", "distribution": "normal", "seed": null, "scale": 2.0}}, "filters": 16, "data_format": "channels_last", "name": "conv2d_6", "dilation_rate": [1, 1], "kernel_constraint": null, "bias_constraint": null, "activation": "linear", "strides": [1, 1], "kernel_size": [3, 3], "kernel_regularizer": {"class_name": "L1L2", "config": {"l2": 9.999999747378752e-05, "l1": 0.0}}, "bias_regularizer": null, "use_bias": true, "bias_initializer": {"class_name": "Zeros", "config": {}}, "trainable": true, "padding": "same"}, "class_name": "Conv2D"}, {"name": "batch_normalization_6", "inbound_nodes": [[["conv2d_6", 0, 0, {}]]], "config": {"moving_mean_initializer": {"class_name": "Zeros", "config": {}}, "beta_regularizer": null, "name": "batch_normalization_6", "gamma_initializer": {"class_name": "Ones", "config": {}}, "scale": true, "axis": -1, "beta_initializer": {"class_name": "Zeros", "config": {}}, "moving_variance_initializer": {"class_name": "Ones", "config": {}}, "epsilon": 0.001, "momentum": 0.99, "gamma_constraint": null, "gamma_regularizer": null, "center": true, "trainable": true, "beta_constraint": null}, "class_name": "BatchNormalization"}, {"name": "activation_6", "inbound_nodes": [[["batch_normalization_6", 0, 0, {}]]], "config": {"name": "activation_6", "trainable": true, "activation": "relu"}, "class_name": "Activation"}, {"name": "conv2d_7", "inbound_nodes": [[["activation_6", 0, 0, {}]]], "config": {"activity_regularizer": null, "kernel_initializer": {"class_name": "VarianceScaling", "config": {"mode": "fan_in", "distribution": "normal", "seed": null, "scale": 2.0}}, "filters": 16, "data_format": "channels_last", "name": "conv2d_7", "dilation_rate": [1, 1], "kernel_constraint": null, "bias_constraint": null, "activation": "linear", "strides": [1, 1], "kernel_size": [3, 3], "kernel_regularizer": {"class_name": "L1L2", "config": {"l2": 9.999999747378752e-05, "l1": 0.0}}, "bias_regularizer": null, "use_bias": true, "bias_initializer": {"class_name": "Zeros", "config": {}}, "trainable": true, "padding": "same"}, "class_name": "Conv2D"}, {"name": "batch_normalization_7", "inbound_nodes": [[["conv2d_7", 0, 0, {}]]], "config": {"moving_mean_initializer": {"class_name": "Zeros", "config": {}}, "beta_regularizer": null, "name": "batch_normalization_7", "gamma_initializer": {"class_name": "Ones", "config": {}}, "scale": true, "axis": -1, "beta_initializer": {"class_name": "Zeros", "config": {}}, "moving_variance_initializer": {"class_name": "Ones", "config": {}}, "epsilon": 0.001, "momentum": 0.99, "gamma_constraint": null, "gamma_regularizer": null, "center": true, "trainable": true, "beta_constraint": null}, "class_name": "BatchNormalization"}, {"name": "add_3", "inbound_nodes": [[["activation_5", 0, 0, {}], ["batch_normalization_7", 0, 0, {}]]], "config": {"name": "add_3", "trainable": true}, "class_name": "Add"}, {"name": "activation_7", "inbound_nodes": [[["add_3", 0, 0, {}]]], "config": {"name": "activation_7", "trainable": true, "activation": "relu"}, "class_name": "Activation"}, {"name": "conv2d_8", "inbound_nodes": [[["activation_7", 0, 0, {}]]], "config": {"activity_regularizer": null, "kernel_initializer": {"class_name": "VarianceScaling", "config": {"mode": "fan_in", "distribution": "normal", "seed": null, "scale": 2.0}}, "filters": 16, "data_format": "channels_last", "name": "conv2d_8", "dilation_rate": [1, 1], "kernel_constraint": null, "bias_constraint": null, "activation": "linear", "strides": [1, 1], "kernel_size": [3, 3], "kernel_regularizer": {"class_name": "L1L2", "config": {"l2": 9.999999747378752e-05, "l1": 0.0}}, "bias_regularizer": null, "use_bias": true, "bias_initializer": {"class_name": "Zeros", "config": {}}, "trainable": true, "padding": "same"}, "class_name": "Conv2D"}, {"name": "batch_normalization_8", "inbound_nodes": [[["conv2d_8", 0, 0, {}]]], "config": {"moving_mean_initializer": {"class_name": "Zeros", "config": {}}, "beta_regularizer": null, "name": "batch_normalization_8", "gamma_initializer": {"class_name": "Ones", "config": {}}, "scale": true, "axis": -1, "beta_initializer": {"class_name": "Zeros", "config": {}}, "moving_variance_initializer": {"class_name": "Ones", "config": {}}, "epsilon": 0.001, "momentum": 0.99, "gamma_constraint": null, "gamma_regularizer": null, "center": true, "trainable": true, "beta_constraint": null}, "class_name": "BatchNormalization"}, {"name": "activation_8", "inbound_nodes": [[["batch_normalization_8", 0, 0, {}]]], "config": {"name": "activation_8", "trainable": true, "activation": "relu"}, "class_name": "Activation"}, {"name": "conv2d_9", "inbound_nodes": [[["activation_8", 0, 0, {}]]], "config": {"activity_regularizer": null, "kernel_initializer": {"class_name": "VarianceScaling", "config": {"mode": "fan_in", "distribution": "normal", "seed": null, "scale": 2.0}}, "filters": 16, "data_format": "channels_last", "name": "conv2d_9", "dilation_rate": [1, 1], "kernel_constraint": null, "bias_constraint": null, "activation": "linear", "strides": [1, 1], "kernel_size": [3, 3], "kernel_regularizer": {"class_name": "L1L2", "config": {"l2": 9.999999747378752e-05, "l1": 0.0}}, "bias_regularizer": null, "use_bias": true, "bias_initializer": {"class_name": "Zeros", "config": {}}, "trainable": true, "padding": "same"}, "class_name": "Conv2D"}, {"name": "batch_normalization_9", "inbound_nodes": [[["conv2d_9", 0, 0, {}]]], "config": {"moving_mean_initializer": {"class_name": "Zeros", "config": {}}, "beta_regularizer": null, "name": "batch_normalization_9", "gamma_initializer": {"class_name": "Ones", "config": {}}, "scale": true, "axis": -1, "beta_initializer": {"class_name": "Zeros", "config": {}}, "moving_variance_initializer": {"class_name": "Ones", "config": {}}, "epsilon": 0.001, "momentum": 0.99, "gamma_constraint": null, "gamma_regularizer": null, "center": true, "trainable": true, "beta_constraint": null}, "class_name": "BatchNormalization"}, {"name": "add_4", "inbound_nodes": [[["activation_7", 0, 0, {}], ["batch_normalization_9", 0, 0, {}]]], "config": {"name": "add_4", "trainable": true}, "class_name": "Add"}, {"name": "activation_9", "inbound_nodes": [[["add_4", 0, 0, {}]]], "config": {"name": "activation_9", "trainable": true, "activation": "relu"}, "class_name": "Activation"}, {"name": "conv2d_10", "inbound_nodes": [[["activation_9", 0, 0, {}]]], "config": {"activity_regularizer": null, "kernel_initializer": {"class_name": "VarianceScaling", "config": {"mode": "fan_in", "distribution": "normal", "seed": null, "scale": 2.0}}, "filters": 16, "data_format": "channels_last", "name": "conv2d_10", "dilation_rate": [1, 1], "kernel_constraint": null, "bias_constraint": null, "activation": "linear", "strides": [1, 1], "kernel_size": [3, 3], "kernel_regularizer": {"class_name": "L1L2", "config": {"l2": 9.999999747378752e-05, "l1": 0.0}}, "bias_regularizer": null, "use_bias": true, "bias_initializer": {"class_name": "Zeros", "config": {}}, "trainable": true, "padding": "same"}, "class_name": "Conv2D"}, {"name": "batch_normalization_10", "inbound_nodes": [[["conv2d_10", 0, 0, {}]]], "config": {"moving_mean_initializer": {"class_name": "Zeros", "config": {}}, "beta_regularizer": null, "name": "batch_normalization_10", "gamma_initializer": {"class_name": "Ones", "config": {}}, "scale": true, "axis": -1, "beta_initializer": {"class_name": "Zeros", "config": {}}, "moving_variance_initializer": {"class_name": "Ones", "config": {}}, "epsilon": 0.001, "momentum": 0.99, "gamma_constraint": null, "gamma_regularizer": null, "center": true, "trainable": true, "beta_constraint": null}, "class_name": "BatchNormalization"}, {"name": "activation_10", "inbound_nodes": [[["batch_normalization_10", 0, 0, {}]]], "config": {"name": "activation_10", "trainable": true, "activation": "relu"}, "class_name": "Activation"}, {"name": "conv2d_11", "inbound_nodes": [[["activation_10", 0, 0, {}]]], "config": {"activity_regularizer": null, "kernel_initializer": {"class_name": "VarianceScaling", "config": {"mode": "fan_in", "distribution": "normal", "seed": null, "scale": 2.0}}, "filters": 16, "data_format": "channels_last", "name": "conv2d_11", "dilation_rate": [1, 1], "kernel_constraint": null, "bias_constraint": null, "activation": "linear", "strides": [1, 1], "kernel_size": [3, 3], "kernel_regularizer": {"class_name": "L1L2", "config": {"l2": 9.999999747378752e-05, "l1": 0.0}}, "bias_regularizer": null, "use_bias": true, "bias_initializer": {"class_name": "Zeros", "config": {}}, "trainable": true, "padding": "same"}, "class_name": "Conv2D"}, {"name": "batch_normalization_11", "inbound_nodes": [[["conv2d_11", 0, 0, {}]]], "config": {"moving_mean_initializer": {"class_name": "Zeros", "config": {}}, "beta_regularizer": null, "name": "batch_normalization_11", "gamma_initializer": {"class_name": "Ones", "config": {}}, "scale": true, "axis": -1, "beta_initializer": {"class_name": "Zeros", "config": {}}, "moving_variance_initializer": {"class_name": "Ones", "config": {}}, "epsilon": 0.001, "momentum": 0.99, "gamma_constraint": null, "gamma_regularizer": null, "center": true, "trainable": true, "beta_constraint": null}, "class_name": "BatchNormalization"}, {"name": "add_5", "inbound_nodes": [[["activation_9", 0, 0, {}], ["batch_normalization_11", 0, 0, {}]]], "config": {"name": "add_5", "trainable": true}, "class_name": "Add"}, {"name": "activation_11", "inbound_nodes": [[["add_5", 0, 0, {}]]], "config": {"name": "activation_11", "trainable": true, "activation": "relu"}, "class_name": "Activation"}, {"name": "conv2d_12", "inbound_nodes": [[["activation_11", 0, 0, {}]]], "config": {"activity_regularizer": null, "kernel_initializer": {"class_name": "VarianceScaling", "config": {"mode": "fan_in", "distribution": "normal", "seed": null, "scale": 2.0}}, "filters": 16, "data_format": "channels_last", "name": "conv2d_12", "dilation_rate": [1, 1], "kernel_constraint": null, "bias_constraint": null, "activation": "linear", "strides": [1, 1], "kernel_size": [3, 3], "kernel_regularizer": {"class_name": "L1L2", "config": {"l2": 9.999999747378752e-05, "l1": 0.0}}, "bias_regularizer": null, "use_bias": true, "bias_initializer": {"class_name": "Zeros", "config": {}}, "trainable": true, "padding": "same"}, "class_name": "Conv2D"}, {"name": "batch_normalization_12", "inbound_nodes": [[["conv2d_12", 0, 0, {}]]], "config": {"moving_mean_initializer": {"class_name": "Zeros", "config": {}}, "beta_regularizer": null, "name": "batch_normalization_12", "gamma_initializer": {"class_name": "Ones", "config": {}}, "scale": true, "axis": -1, "beta_initializer": {"class_name": "Zeros", "config": {}}, "moving_variance_initializer": {"class_name": "Ones", "config": {}}, "epsilon": 0.001, "momentum": 0.99, "gamma_constraint": null, "gamma_regularizer": null, "center": true, "trainable": true, "beta_constraint": null}, "class_name": "BatchNormalization"}, {"name": "activation_12", "inbound_nodes": [[["batch_normalization_12", 0, 0, {}]]], "config": {"name": "activation_12", "trainable": true, "activation": "relu"}, "class_name": "Activation"}, {"name": "conv2d_13", "inbound_nodes": [[["activation_12", 0, 0, {}]]], "config": {"activity_regularizer": null, "kernel_initializer": {"class_name": "VarianceScaling", "config": {"mode": "fan_in", "distribution": "normal", "seed": null, "scale": 2.0}}, "filters": 16, "data_format": "channels_last", "name": "conv2d_13", "dilation_rate": [1, 1], "kernel_constraint": null, "bias_constraint": null, "activation": "linear", "strides": [1, 1], "kernel_size": [3, 3], "kernel_regularizer": {"class_name": "L1L2", "config": {"l2": 9.999999747378752e-05, "l1": 0.0}}, "bias_regularizer": null, "use_bias": true, "bias_initializer": {"class_name": "Zeros", "config": {}}, "trainable": true, "padding": "same"}, "class_name": "Conv2D"}, {"name": "batch_normalization_13", "inbound_nodes": [[["conv2d_13", 0, 0, {}]]], "config": {"moving_mean_initializer": {"class_name": "Zeros", "config": {}}, "beta_regularizer": null, "name": "batch_normalization_13", "gamma_initializer": {"class_name": "Ones", "config": {}}, "scale": true, "axis": -1, "beta_initializer": {"class_name": "Zeros", "config": {}}, "moving_variance_initializer": {"class_name": "Ones", "config": {}}, "epsilon": 0.001, "momentum": 0.99, "gamma_constraint": null, "gamma_regularizer": null, "center": true, "trainable": true, "beta_constraint": null}, "class_name": "BatchNormalization"}, {"name": "add_6", "inbound_nodes": [[["activation_11", 0, 0, {}], ["batch_normalization_13", 0, 0, {}]]], "config": {"name": "add_6", "trainable": true}, "class_name": "Add"}, {"name": "activation_13", "inbound_nodes": [[["add_6", 0, 0, {}]]], "config": {"name": "activation_13", "trainable": true, "activation": "relu"}, "class_name": "Activation"}, {"name": "conv2d_14", "inbound_nodes": [[["activation_13", 0, 0, {}]]], "config": {"activity_regularizer": null, "kernel_initializer": {"class_name": "VarianceScaling", "config": {"mode": "fan_in", "distribution": "normal", "seed": null, "scale": 2.0}}, "filters": 16, "data_format": "channels_last", "name": "conv2d_14", "dilation_rate": [1, 1], "kernel_constraint": null, "bias_constraint": null, "activation": "linear", "strides": [1, 1], "kernel_size": [3, 3], "kernel_regularizer": {"class_name": "L1L2", "config": {"l2": 9.999999747378752e-05, "l1": 0.0}}, "bias_regularizer": null, "use_bias": true, "bias_initializer": {"class_name": "Zeros", "config": {}}, "trainable": true, "padding": "same"}, "class_name": "Conv2D"}, {"name": "batch_normalization_14", "inbound_nodes": [[["conv2d_14", 0, 0, {}]]], "config": {"moving_mean_initializer": {"class_name": "Zeros", "config": {}}, "beta_regularizer": null, "name": "batch_normalization_14", "gamma_initializer": {"class_name": "Ones", "config": {}}, "scale": true, "axis": -1, "beta_initializer": {"class_name": "Zeros", "config": {}}, "moving_variance_initializer": {"class_name": "Ones", "config": {}}, "epsilon": 0.001, "momentum": 0.99, "gamma_constraint": null, "gamma_regularizer": null, "center": true, "trainable": true, "beta_constraint": null}, "class_name": "BatchNormalization"}, {"name": "activation_14", "inbound_nodes": [[["batch_normalization_14", 0, 0, {}]]], "config": {"name": "activation_14", "trainable": true, "activation": "relu"}, "class_name": "Activation"}, {"name": "conv2d_15", "inbound_nodes": [[["activation_14", 0, 0, {}]]], "config": {"activity_regularizer": null, "kernel_initializer": {"class_name": "VarianceScaling", "config": {"mode": "fan_in", "distribution": "normal", "seed": null, "scale": 2.0}}, "filters": 16, "data_format": "channels_last", "name": "conv2d_15", "dilation_rate": [1, 1], "kernel_constraint": null, "bias_constraint": null, "activation": "linear", "strides": [1, 1], "kernel_size": [3, 3], "kernel_regularizer": {"class_name": "L1L2", "config": {"l2": 9.999999747378752e-05, "l1": 0.0}}, "bias_regularizer": null, "use_bias": true, "bias_initializer": {"class_name": "Zeros", "config": {}}, "trainable": true, "padding": "same"}, "class_name": "Conv2D"}, {"name": "batch_normalization_15", "inbound_nodes": [[["conv2d_15", 0, 0, {}]]], "config": {"moving_mean_initializer": {"class_name": "Zeros", "config": {}}, "beta_regularizer": null, "name": "batch_normalization_15", "gamma_initializer": {"class_name": "Ones", "config": {}}, "scale": true, "axis": -1, "beta_initializer": {"class_name": "Zeros", "config": {}}, "moving_variance_initializer": {"class_name": "Ones", "config": {}}, "epsilon": 0.001, "momentum": 0.99, "gamma_constraint": null, "gamma_regularizer": null, "center": true, "trainable": true, "beta_constraint": null}, "class_name": "BatchNormalization"}, {"name": "add_7", "inbound_nodes": [[["activation_13", 0, 0, {}], ["batch_normalization_15", 0, 0, {}]]], "config": {"name": "add_7", "trainable": true}, "class_name": "Add"}, {"name": "activation_15", "inbound_nodes": [[["add_7", 0, 0, {}]]], "config": {"name": "activation_15", "trainable": true, "activation": "relu"}, "class_name": "Activation"}, {"name": "conv2d_16", "inbound_nodes": [[["activation_15", 0, 0, {}]]], "config": {"activity_regularizer": null, "kernel_initializer": {"class_name": "VarianceScaling", "config": {"mode": "fan_in", "distribution": "normal", "seed": null, "scale": 2.0}}, "filters": 16, "data_format": "channels_last", "name": "conv2d_16", "dilation_rate": [1, 1], "kernel_constraint": null, "bias_constraint": null, "activation": "linear", "strides": [1, 1], "kernel_size": [3, 3], "kernel_regularizer": {"class_name": "L1L2", "config": {"l2": 9.999999747378752e-05, "l1": 0.0}}, "bias_regularizer": null, "use_bias": true, "bias_initializer": {"class_name": "Zeros", "config": {}}, "trainable": true, "padding": "same"}, "class_name": "Conv2D"}, {"name": "batch_normalization_16", "inbound_nodes": [[["conv2d_16", 0, 0, {}]]], "config": {"moving_mean_initializer": {"class_name": "Zeros", "config": {}}, "beta_regularizer": null, "name": "batch_normalization_16", "gamma_initializer": {"class_name": "Ones", "config": {}}, "scale": true, "axis": -1, "beta_initializer": {"class_name": "Zeros", "config": {}}, "moving_variance_initializer": {"class_name": "Ones", "config": {}}, "epsilon": 0.001, "momentum": 0.99, "gamma_constraint": null, "gamma_regularizer": null, "center": true, "trainable": true, "beta_constraint": null}, "class_name": "BatchNormalization"}, {"name": "activation_16", "inbound_nodes": [[["batch_normalization_16", 0, 0, {}]]], "config": {"name": "activation_16", "trainable": true, "activation": "relu"}, "class_name": "Activation"}, {"name": "conv2d_17", "inbound_nodes": [[["activation_16", 0, 0, {}]]], "config": {"activity_regularizer": null, "kernel_initializer": {"class_name": "VarianceScaling", "config": {"mode": "fan_in", "distribution": "normal", "seed": null, "scale": 2.0}}, "filters": 16, "data_format": "channels_last", "name": "conv2d_17", "dilation_rate": [1, 1], "kernel_constraint": null, "bias_constraint": null, "activation": "linear", "strides": [1, 1], "kernel_size": [3, 3], "kernel_regularizer": {"class_name": "L1L2", "config": {"l2": 9.999999747378752e-05, "l1": 0.0}}, "bias_regularizer": null, "use_bias": true, "bias_initializer": {"class_name": "Zeros", "config": {}}, "trainable": true, "padding": "same"}, "class_name": "Conv2D"}, {"name": "batch_normalization_17", "inbound_nodes": [[["conv2d_17", 0, 0, {}]]], "config": {"moving_mean_initializer": {"class_name": "Zeros", "config": {}}, "beta_regularizer": null, "name": "batch_normalization_17", "gamma_initializer": {"class_name": "Ones", "config": {}}, "scale": true, "axis": -1, "beta_initializer": {"class_name": "Zeros", "config": {}}, "moving_variance_initializer": {"class_name": "Ones", "config": {}}, "epsilon": 0.001, "momentum": 0.99, "gamma_constraint": null, "gamma_regularizer": null, "center": true, "trainable": true, "beta_constraint": null}, "class_name": "BatchNormalization"}, {"name": "add_8", "inbound_nodes": [[["activation_15", 0, 0, {}], ["batch_normalization_17", 0, 0, {}]]], "config": {"name": "add_8", "trainable": true}, "class_name": "Add"}, {"name": "activation_17", "inbound_nodes": [[["add_8", 0, 0, {}]]], "config": {"name": "activation_17", "trainable": true, "activation": "relu"}, "class_name": "Activation"}, {"name": "conv2d_18", "inbound_nodes": [[["activation_17", 0, 0, {}]]], "config": {"activity_regularizer": null, "kernel_initializer": {"class_name": "VarianceScaling", "config": {"mode": "fan_in", "distribution": "normal", "seed": null, "scale": 2.0}}, "filters": 16, "data_format": "channels_last", "name": "conv2d_18", "dilation_rate": [1, 1], "kernel_constraint": null, "bias_constraint": null, "activation": "linear", "strides": [1, 1], "kernel_size": [3, 3], "kernel_regularizer": {"class_name": "L1L2", "config": {"l2": 9.999999747378752e-05, "l1": 0.0}}, "bias_regularizer": null, "use_bias": true, "bias_initializer": {"class_name": "Zeros", "config": {}}, "trainable": true, "padding": "same"}, "class_name": "Conv2D"}, {"name": "batch_normalization_18", "inbound_nodes": [[["conv2d_18", 0, 0, {}]]], "config": {"moving_mean_initializer": {"class_name": "Zeros", "config": {}}, "beta_regularizer": null, "name": "batch_normalization_18", "gamma_initializer": {"class_name": "Ones", "config": {}}, "scale": true, "axis": -1, "beta_initializer": {"class_name": "Zeros", "config": {}}, "moving_variance_initializer": {"class_name": "Ones", "config": {}}, "epsilon": 0.001, "momentum": 0.99, "gamma_constraint": null, "gamma_regularizer": null, "center": true, "trainable": true, "beta_constraint": null}, "class_name": "BatchNormalization"}, {"name": "activation_18", "inbound_nodes": [[["batch_normalization_18", 0, 0, {}]]], "config": {"name": "activation_18", "trainable": true, "activation": "relu"}, "class_name": "Activation"}, {"name": "conv2d_19", "inbound_nodes": [[["activation_18", 0, 0, {}]]], "config": {"activity_regularizer": null, "kernel_initializer": {"class_name": "VarianceScaling", "config": {"mode": "fan_in", "distribution": "normal", "seed": null, "scale": 2.0}}, "filters": 16, "data_format": "channels_last", "name": "conv2d_19", "dilation_rate": [1, 1], "kernel_constraint": null, "bias_constraint": null, "activation": "linear", "strides": [1, 1], "kernel_size": [3, 3], "kernel_regularizer": {"class_name": "L1L2", "config": {"l2": 9.999999747378752e-05, "l1": 0.0}}, "bias_regularizer": null, "use_bias": true, "bias_initializer": {"class_name": "Zeros", "config": {}}, "trainable": true, "padding": "same"}, "class_name": "Conv2D"}, {"name": "batch_normalization_19", "inbound_nodes": [[["conv2d_19", 0, 0, {}]]], "config": {"moving_mean_initializer": {"class_name": "Zeros", "config": {}}, "beta_regularizer": null, "name": "batch_normalization_19", "gamma_initializer": {"class_name": "Ones", "config": {}}, "scale": true, "axis": -1, "beta_initializer": {"class_name": "Zeros", "config": {}}, "moving_variance_initializer": {"class_name": "Ones", "config": {}}, "epsilon": 0.001, "momentum": 0.99, "gamma_constraint": null, "gamma_regularizer": null, "center": true, "trainable": true, "beta_constraint": null}, "class_name": "BatchNormalization"}, {"name": "add_9", "inbound_nodes": [[["activation_17", 0, 0, {}], ["batch_normalization_19", 0, 0, {}]]], "config": {"name": "add_9", "trainable": true}, "class_name": "Add"}, {"name": "activation_19", "inbound_nodes": [[["add_9", 0, 0, {}]]], "config": {"name": "activation_19", "trainable": true, "activation": "relu"}, "class_name": "Activation"}, {"name": "conv2d_20", "inbound_nodes": [[["activation_19", 0, 0, {}]]], "config": {"activity_regularizer": null, "kernel_initializer": {"class_name": "VarianceScaling", "config": {"mode": "fan_in", "distribution": "normal", "seed": null, "scale": 2.0}}, "filters": 16, "data_format": "channels_last", "name": "conv2d_20", "dilation_rate": [1, 1], "kernel_constraint": null, "bias_constraint": null, "activation": "linear", "strides": [1, 1], "kernel_size": [3, 3], "kernel_regularizer": {"class_name": "L1L2", "config": {"l2": 9.999999747378752e-05, "l1": 0.0}}, "bias_regularizer": null, "use_bias": true, "bias_initializer": {"class_name": "Zeros", "config": {}}, "trainable": true, "padding": "same"}, "class_name": "Conv2D"}, {"name": "batch_normalization_20", "inbound_nodes": [[["conv2d_20", 0, 0, {}]]], "config": {"moving_mean_initializer": {"class_name": "Zeros", "config": {}}, "beta_regularizer": null, "name": "batch_normalization_20", "gamma_initializer": {"class_name": "Ones", "config": {}}, "scale": true, "axis": -1, "beta_initializer": {"class_name": "Zeros", "config": {}}, "moving_variance_initializer": {"class_name": "Ones", "config": {}}, "epsilon": 0.001, "momentum": 0.99, "gamma_constraint": null, "gamma_regularizer": null, "center": true, "trainable": true, "beta_constraint": null}, "class_name": "BatchNormalization"}, {"name": "activation_20", "inbound_nodes": [[["batch_normalization_20", 0, 0, {}]]], "config": {"name": "activation_20", "trainable": true, "activation": "relu"}, "class_name": "Activation"}, {"name": "conv2d_21", "inbound_nodes": [[["activation_20", 0, 0, {}]]], "config": {"activity_regularizer": null, "kernel_initializer": {"class_name": "VarianceScaling", "config": {"mode": "fan_in", "distribution": "normal", "seed": null, "scale": 2.0}}, "filters": 16, "data_format": "channels_last", "name": "conv2d_21", "dilation_rate": [1, 1], "kernel_constraint": null, "bias_constraint": null, "activation": "linear", "strides": [1, 1], "kernel_size": [3, 3], "kernel_regularizer": {"class_name": "L1L2", "config": {"l2": 9.999999747378752e-05, "l1": 0.0}}, "bias_regularizer": null, "use_bias": true, "bias_initializer": {"class_name": "Zeros", "config": {}}, "trainable": true, "padding": "same"}, "class_name": "Conv2D"}, {"name": "batch_normalization_21", "inbound_nodes": [[["conv2d_21", 0, 0, {}]]], "config": {"moving_mean_initializer": {"class_name": "Zeros", "config": {}}, "beta_regularizer": null, "name": "batch_normalization_21", "gamma_initializer": {"class_name": "Ones", "config": {}}, "scale": true, "axis": -1, "beta_initializer": {"class_name": "Zeros", "config": {}}, "moving_variance_initializer": {"class_name": "Ones", "config": {}}, "epsilon": 0.001, "momentum": 0.99, "gamma_constraint": null, "gamma_regularizer": null, "center": true, "trainable": true, "beta_constraint": null}, "class_name": "BatchNormalization"}, {"name": "add_10", "inbound_nodes": [[["activation_19", 0, 0, {}], ["batch_normalization_21", 0, 0, {}]]], "config": {"name": "add_10", "trainable": true}, "class_name": "Add"}, {"name": "activation_21", "inbound_nodes": [[["add_10", 0, 0, {}]]], "config": {"name": "activation_21", "trainable": true, "activation": "relu"}, "class_name": "Activation"}, {"name": "conv2d_22", "inbound_nodes": [[["activation_21", 0, 0, {}]]], "config": {"activity_regularizer": null, "kernel_initializer": {"class_name": "VarianceScaling", "config": {"mode": "fan_in", "distribution": "normal", "seed": null, "scale": 2.0}}, "filters": 16, "data_format": "channels_last", "name": "conv2d_22", "dilation_rate": [1, 1], "kernel_constraint": null, "bias_constraint": null, "activation": "linear", "strides": [1, 1], "kernel_size": [3, 3], "kernel_regularizer": {"class_name": "L1L2", "config": {"l2": 9.999999747378752e-05, "l1": 0.0}}, "bias_regularizer": null, "use_bias": true, "bias_initializer": {"class_name": "Zeros", "config": {}}, "trainable": true, "padding": "same"}, "class_name": "Conv2D"}, {"name": "batch_normalization_22", "inbound_nodes": [[["conv2d_22", 0, 0, {}]]], "config": {"moving_mean_initializer": {"class_name": "Zeros", "config": {}}, "beta_regularizer": null, "name": "batch_normalization_22", "gamma_initializer": {"class_name": "Ones", "config": {}}, "scale": true, "axis": -1, "beta_initializer": {"class_name": "Zeros", "config": {}}, "moving_variance_initializer": {"class_name": "Ones", "config": {}}, "epsilon": 0.001, "momentum": 0.99, "gamma_constraint": null, "gamma_regularizer": null, "center": true, "trainable": true, "beta_constraint": null}, "class_name": "BatchNormalization"}, {"name": "activation_22", "inbound_nodes": [[["batch_normalization_22", 0, 0, {}]]], "config": {"name": "activation_22", "trainable": true, "activation": "relu"}, "class_name": "Activation"}, {"name": "conv2d_23", "inbound_nodes": [[["activation_22", 0, 0, {}]]], "config": {"activity_regularizer": null, "kernel_initializer": {"class_name": "VarianceScaling", "config": {"mode": "fan_in", "distribution": "normal", "seed": null, "scale": 2.0}}, "filters": 16, "data_format": "channels_last", "name": "conv2d_23", "dilation_rate": [1, 1], "kernel_constraint": null, "bias_constraint": null, "activation": "linear", "strides": [1, 1], "kernel_size": [3, 3], "kernel_regularizer": {"class_name": "L1L2", "config": {"l2": 9.999999747378752e-05, "l1": 0.0}}, "bias_regularizer": null, "use_bias": true, "bias_initializer": {"class_name": "Zeros", "config": {}}, "trainable": true, "padding": "same"}, "class_name": "Conv2D"}, {"name": "batch_normalization_23", "inbound_nodes": [[["conv2d_23", 0, 0, {}]]], "config": {"moving_mean_initializer": {"class_name": "Zeros", "config": {}}, "beta_regularizer": null, "name": "batch_normalization_23", "gamma_initializer": {"class_name": "Ones", "config": {}}, "scale": true, "axis": -1, "beta_initializer": {"class_name": "Zeros", "config": {}}, "moving_variance_initializer": {"class_name": "Ones", "config": {}}, "epsilon": 0.001, "momentum": 0.99, "gamma_constraint": null, "gamma_regularizer": null, "center": true, "trainable": true, "beta_constraint": null}, "class_name": "BatchNormalization"}, {"name": "add_11", "inbound_nodes": [[["activation_21", 0, 0, {}], ["batch_normalization_23", 0, 0, {}]]], "config": {"name": "add_11", "trainable": true}, "class_name": "Add"}, {"name": "activation_23", "inbound_nodes": [[["add_11", 0, 0, {}]]], "config": {"name": "activation_23", "trainable": true, "activation": "relu"}, "class_name": "Activation"}, {"name": "conv2d_24", "inbound_nodes": [[["activation_23", 0, 0, {}]]], "config": {"activity_regularizer": null, "kernel_initializer": {"class_name": "VarianceScaling", "config": {"mode": "fan_in", "distribution": "normal", "seed": null, "scale": 2.0}}, "filters": 16, "data_format": "channels_last", "name": "conv2d_24", "dilation_rate": [1, 1], "kernel_constraint": null, "bias_constraint": null, "activation": "linear", "strides": [1, 1], "kernel_size": [3, 3], "kernel_regularizer": {"class_name": "L1L2", "config": {"l2": 9.999999747378752e-05, "l1": 0.0}}, "bias_regularizer": null, "use_bias": true, "bias_initializer": {"class_name": "Zeros", "config": {}}, "trainable": true, "padding": "same"}, "class_name": "Conv2D"}, {"name": "batch_normalization_24", "inbound_nodes": [[["conv2d_24", 0, 0, {}]]], "config": {"moving_mean_initializer": {"class_name": "Zeros", "config": {}}, "beta_regularizer": null, "name": "batch_normalization_24", "gamma_initializer": {"class_name": "Ones", "config": {}}, "scale": true, "axis": -1, "beta_initializer": {"class_name": "Zeros", "config": {}}, "moving_variance_initializer": {"class_name": "Ones", "config": {}}, "epsilon": 0.001, "momentum": 0.99, "gamma_constraint": null, "gamma_regularizer": null, "center": true, "trainable": true, "beta_constraint": null}, "class_name": "BatchNormalization"}, {"name": "activation_24", "inbound_nodes": [[["batch_normalization_24", 0, 0, {}]]], "config": {"name": "activation_24", "trainable": true, "activation": "relu"}, "class_name": "Activation"}, {"name": "conv2d_25", "inbound_nodes": [[["activation_24", 0, 0, {}]]], "config": {"activity_regularizer": null, "kernel_initializer": {"class_name": "VarianceScaling", "config": {"mode": "fan_in", "distribution": "normal", "seed": null, "scale": 2.0}}, "filters": 16, "data_format": "channels_last", "name": "conv2d_25", "dilation_rate": [1, 1], "kernel_constraint": null, "bias_constraint": null, "activation": "linear", "strides": [1, 1], "kernel_size": [3, 3], "kernel_regularizer": {"class_name": "L1L2", "config": {"l2": 9.999999747378752e-05, "l1": 0.0}}, "bias_regularizer": null, "use_bias": true, "bias_initializer": {"class_name": "Zeros", "config": {}}, "trainable": true, "padding": "same"}, "class_name": "Conv2D"}, {"name": "batch_normalization_25", "inbound_nodes": [[["conv2d_25", 0, 0, {}]]], "config": {"moving_mean_initializer": {"class_name": "Zeros", "config": {}}, "beta_regularizer": null, "name": "batch_normalization_25", "gamma_initializer": {"class_name": "Ones", "config": {}}, "scale": true, "axis": -1, "beta_initializer": {"class_name": "Zeros", "config": {}}, "moving_variance_initializer": {"class_name": "Ones", "config": {}}, "epsilon": 0.001, "momentum": 0.99, "gamma_constraint": null, "gamma_regularizer": null, "center": true, "trainable": true, "beta_constraint": null}, "class_name": "BatchNormalization"}, {"name": "add_12", "inbound_nodes": [[["activation_23", 0, 0, {}], ["batch_normalization_25", 0, 0, {}]]], "config": {"name": "add_12", "trainable": true}, "class_name": "Add"}, {"name": "activation_25", "inbound_nodes": [[["add_12", 0, 0, {}]]], "config": {"name": "activation_25", "trainable": true, "activation": "relu"}, "class_name": "Activation"}, {"name": "conv2d_26", "inbound_nodes": [[["activation_25", 0, 0, {}]]], "config": {"activity_regularizer": null, "kernel_initializer": {"class_name": "VarianceScaling", "config": {"mode": "fan_in", "distribution": "normal", "seed": null, "scale": 2.0}}, "filters": 16, "data_format": "channels_last", "name": "conv2d_26", "dilation_rate": [1, 1], "kernel_constraint": null, "bias_constraint": null, "activation": "linear", "strides": [1, 1], "kernel_size": [3, 3], "kernel_regularizer": {"class_name": "L1L2", "config": {"l2": 9.999999747378752e-05, "l1": 0.0}}, "bias_regularizer": null, "use_bias": true, "bias_initializer": {"class_name": "Zeros", "config": {}}, "trainable": true, "padding": "same"}, "class_name": "Conv2D"}, {"name": "batch_normalization_26", "inbound_nodes": [[["conv2d_26", 0, 0, {}]]], "config": {"moving_mean_initializer": {"class_name": "Zeros", "config": {}}, "beta_regularizer": null, "name": "batch_normalization_26", "gamma_initializer": {"class_name": "Ones", "config": {}}, "scale": true, "axis": -1, "beta_initializer": {"class_name": "Zeros", "config": {}}, "moving_variance_initializer": {"class_name": "Ones", "config": {}}, "epsilon": 0.001, "momentum": 0.99, "gamma_constraint": null, "gamma_regularizer": null, "center": true, "trainable": true, "beta_constraint": null}, "class_name": "BatchNormalization"}, {"name": "activation_26", "inbound_nodes": [[["batch_normalization_26", 0, 0, {}]]], "config": {"name": "activation_26", "trainable": true, "activation": "relu"}, "class_name": "Activation"}, {"name": "conv2d_27", "inbound_nodes": [[["activation_26", 0, 0, {}]]], "config": {"activity_regularizer": null, "kernel_initializer": {"class_name": "VarianceScaling", "config": {"mode": "fan_in", "distribution": "normal", "seed": null, "scale": 2.0}}, "filters": 16, "data_format": "channels_last", "name": "conv2d_27", "dilation_rate": [1, 1], "kernel_constraint": null, "bias_constraint": null, "activation": "linear", "strides": [1, 1], "kernel_size": [3, 3], "kernel_regularizer": {"class_name": "L1L2", "config": {"l2": 9.999999747378752e-05, "l1": 0.0}}, "bias_regularizer": null, "use_bias": true, "bias_initializer": {"class_name": "Zeros", "config": {}}, "trainable": true, "padding": "same"}, "class_name": "Conv2D"}, {"name": "batch_normalization_27", "inbound_nodes": [[["conv2d_27", 0, 0, {}]]], "config": {"moving_mean_initializer": {"class_name": "Zeros", "config": {}}, "beta_regularizer": null, "name": "batch_normalization_27", "gamma_initializer": {"class_name": "Ones", "config": {}}, "scale": true, "axis": -1, "beta_initializer": {"class_name": "Zeros", "config": {}}, "moving_variance_initializer": {"class_name": "Ones", "config": {}}, "epsilon": 0.001, "momentum": 0.99, "gamma_constraint": null, "gamma_regularizer": null, "center": true, "trainable": true, "beta_constraint": null}, "class_name": "BatchNormalization"}, {"name": "add_13", "inbound_nodes": [[["activation_25", 0, 0, {}], ["batch_normalization_27", 0, 0, {}]]], "config": {"name": "add_13", "trainable": true}, "class_name": "Add"}, {"name": "activation_27", "inbound_nodes": [[["add_13", 0, 0, {}]]], "config": {"name": "activation_27", "trainable": true, "activation": "relu"}, "class_name": "Activation"}, {"name": "conv2d_28", "inbound_nodes": [[["activation_27", 0, 0, {}]]], "config": {"activity_regularizer": null, "kernel_initializer": {"class_name": "VarianceScaling", "config": {"mode": "fan_in", "distribution": "normal", "seed": null, "scale": 2.0}}, "filters": 16, "data_format": "channels_last", "name": "conv2d_28", "dilation_rate": [1, 1], "kernel_constraint": null, "bias_constraint": null, "activation": "linear", "strides": [1, 1], "kernel_size": [3, 3], "kernel_regularizer": {"class_name": "L1L2", "config": {"l2": 9.999999747378752e-05, "l1": 0.0}}, "bias_regularizer": null, "use_bias": true, "bias_initializer": {"class_name": "Zeros", "config": {}}, "trainable": true, "padding": "same"}, "class_name": "Conv2D"}, {"name": "batch_normalization_28", "inbound_nodes": [[["conv2d_28", 0, 0, {}]]], "config": {"moving_mean_initializer": {"class_name": "Zeros", "config": {}}, "beta_regularizer": null, "name": "batch_normalization_28", "gamma_initializer": {"class_name": "Ones", "config": {}}, "scale": true, "axis": -1, "beta_initializer": {"class_name": "Zeros", "config": {}}, "moving_variance_initializer": {"class_name": "Ones", "config": {}}, "epsilon": 0.001, "momentum": 0.99, "gamma_constraint": null, "gamma_regularizer": null, "center": true, "trainable": true, "beta_constraint": null}, "class_name": "BatchNormalization"}, {"name": "activation_28", "inbound_nodes": [[["batch_normalization_28", 0, 0, {}]]], "config": {"name": "activation_28", "trainable": true, "activation": "relu"}, "class_name": "Activation"}, {"name": "conv2d_29", "inbound_nodes": [[["activation_28", 0, 0, {}]]], "config": {"activity_regularizer": null, "kernel_initializer": {"class_name": "VarianceScaling", "config": {"mode": "fan_in", "distribution": "normal", "seed": null, "scale": 2.0}}, "filters": 16, "data_format": "channels_last", "name": "conv2d_29", "dilation_rate": [1, 1], "kernel_constraint": null, "bias_constraint": null, "activation": "linear", "strides": [1, 1], "kernel_size": [3, 3], "kernel_regularizer": {"class_name": "L1L2", "config": {"l2": 9.999999747378752e-05, "l1": 0.0}}, "bias_regularizer": null, "use_bias": true, "bias_initializer": {"class_name": "Zeros", "config": {}}, "trainable": true, "padding": "same"}, "class_name": "Conv2D"}, {"name": "batch_normalization_29", "inbound_nodes": [[["conv2d_29", 0, 0, {}]]], "config": {"moving_mean_initializer": {"class_name": "Zeros", "config": {}}, "beta_regularizer": null, "name": "batch_normalization_29", "gamma_initializer": {"class_name": "Ones", "config": {}}, "scale": true, "axis": -1, "beta_initializer": {"class_name": "Zeros", "config": {}}, "moving_variance_initializer": {"class_name": "Ones", "config": {}}, "epsilon": 0.001, "momentum": 0.99, "gamma_constraint": null, "gamma_regularizer": null, "center": true, "trainable": true, "beta_constraint": null}, "class_name": "BatchNormalization"}, {"name": "add_14", "inbound_nodes": [[["activation_27", 0, 0, {}], ["batch_normalization_29", 0, 0, {}]]], "config": {"name": "add_14", "trainable": true}, "class_name": "Add"}, {"name": "activation_29", "inbound_nodes": [[["add_14", 0, 0, {}]]], "config": {"name": "activation_29", "trainable": true, "activation": "relu"}, "class_name": "Activation"}, {"name": "conv2d_30", "inbound_nodes": [[["activation_29", 0, 0, {}]]], "config": {"activity_regularizer": null, "kernel_initializer": {"class_name": "VarianceScaling", "config": {"mode": "fan_in", "distribution": "normal", "seed": null, "scale": 2.0}}, "filters": 16, "data_format": "channels_last", "name": "conv2d_30", "dilation_rate": [1, 1], "kernel_constraint": null, "bias_constraint": null, "activation": "linear", "strides": [1, 1], "kernel_size": [3, 3], "kernel_regularizer": {"class_name": "L1L2", "config": {"l2": 9.999999747378752e-05, "l1": 0.0}}, "bias_regularizer": null, "use_bias": true, "bias_initializer": {"class_name": "Zeros", "config": {}}, "trainable": true, "padding": "same"}, "class_name": "Conv2D"}, {"name": "batch_normalization_30", "inbound_nodes": [[["conv2d_30", 0, 0, {}]]], "config": {"moving_mean_initializer": {"class_name": "Zeros", "config": {}}, "beta_regularizer": null, "name": "batch_normalization_30", "gamma_initializer": {"class_name": "Ones", "config": {}}, "scale": true, "axis": -1, "beta_initializer": {"class_name": "Zeros", "config": {}}, "moving_variance_initializer": {"class_name": "Ones", "config": {}}, "epsilon": 0.001, "momentum": 0.99, "gamma_constraint": null, "gamma_regularizer": null, "center": true, "trainable": true, "beta_constraint": null}, "class_name": "BatchNormalization"}, {"name": "activation_30", "inbound_nodes": [[["batch_normalization_30", 0, 0, {}]]], "config": {"name": "activation_30", "trainable": true, "activation": "relu"}, "class_name": "Activation"}, {"name": "conv2d_31", "inbound_nodes": [[["activation_30", 0, 0, {}]]], "config": {"activity_regularizer": null, "kernel_initializer": {"class_name": "VarianceScaling", "config": {"mode": "fan_in", "distribution": "normal", "seed": null, "scale": 2.0}}, "filters": 16, "data_format": "channels_last", "name": "conv2d_31", "dilation_rate": [1, 1], "kernel_constraint": null, "bias_constraint": null, "activation": "linear", "strides": [1, 1], "kernel_size": [3, 3], "kernel_regularizer": {"class_name": "L1L2", "config": {"l2": 9.999999747378752e-05, "l1": 0.0}}, "bias_regularizer": null, "use_bias": true, "bias_initializer": {"class_name": "Zeros", "config": {}}, "trainable": true, "padding": "same"}, "class_name": "Conv2D"}, {"name": "batch_normalization_31", "inbound_nodes": [[["conv2d_31", 0, 0, {}]]], "config": {"moving_mean_initializer": {"class_name": "Zeros", "config": {}}, "beta_regularizer": null, "name": "batch_normalization_31", "gamma_initializer": {"class_name": "Ones", "config": {}}, "scale": true, "axis": -1, "beta_initializer": {"class_name": "Zeros", "config": {}}, "moving_variance_initializer": {"class_name": "Ones", "config": {}}, "epsilon": 0.001, "momentum": 0.99, "gamma_constraint": null, "gamma_regularizer": null, "center": true, "trainable": true, "beta_constraint": null}, "class_name": "BatchNormalization"}, {"name": "add_15", "inbound_nodes": [[["activation_29", 0, 0, {}], ["batch_normalization_31", 0, 0, {}]]], "config": {"name": "add_15", "trainable": true}, "class_name": "Add"}, {"name": "activation_31", "inbound_nodes": [[["add_15", 0, 0, {}]]], "config": {"name": "activation_31", "trainable": true, "activation": "relu"}, "class_name": "Activation"}, {"name": "conv2d_32", "inbound_nodes": [[["activation_31", 0, 0, {}]]], "config": {"activity_regularizer": null, "kernel_initializer": {"class_name": "VarianceScaling", "config": {"mode": "fan_in", "distribution": "normal", "seed": null, "scale": 2.0}}, "filters": 16, "data_format": "channels_last", "name": "conv2d_32", "dilation_rate": [1, 1], "kernel_constraint": null, "bias_constraint": null, "activation": "linear", "strides": [1, 1], "kernel_size": [3, 3], "kernel_regularizer": {"class_name": "L1L2", "config": {"l2": 9.999999747378752e-05, "l1": 0.0}}, "bias_regularizer": null, "use_bias": true, "bias_initializer": {"class_name": "Zeros", "config": {}}, "trainable": true, "padding": "same"}, "class_name": "Conv2D"}, {"name": "batch_normalization_32", "inbound_nodes": [[["conv2d_32", 0, 0, {}]]], "config": {"moving_mean_initializer": {"class_name": "Zeros", "config": {}}, "beta_regularizer": null, "name": "batch_normalization_32", "gamma_initializer": {"class_name": "Ones", "config": {}}, "scale": true, "axis": -1, "beta_initializer": {"class_name": "Zeros", "config": {}}, "moving_variance_initializer": {"class_name": "Ones", "config": {}}, "epsilon": 0.001, "momentum": 0.99, "gamma_constraint": null, "gamma_regularizer": null, "center": true, "trainable": true, "beta_constraint": null}, "class_name": "BatchNormalization"}, {"name": "activation_32", "inbound_nodes": [[["batch_normalization_32", 0, 0, {}]]], "config": {"name": "activation_32", "trainable": true, "activation": "relu"}, "class_name": "Activation"}, {"name": "conv2d_33", "inbound_nodes": [[["activation_32", 0, 0, {}]]], "config": {"activity_regularizer": null, "kernel_initializer": {"class_name": "VarianceScaling", "config": {"mode": "fan_in", "distribution": "normal", "seed": null, "scale": 2.0}}, "filters": 16, "data_format": "channels_last", "name": "conv2d_33", "dilation_rate": [1, 1], "kernel_constraint": null, "bias_constraint": null, "activation": "linear", "strides": [1, 1], "kernel_size": [3, 3], "kernel_regularizer": {"class_name": "L1L2", "config": {"l2": 9.999999747378752e-05, "l1": 0.0}}, "bias_regularizer": null, "use_bias": true, "bias_initializer": {"class_name": "Zeros", "config": {}}, "trainable": true, "padding": "same"}, "class_name": "Conv2D"}, {"name": "batch_normalization_33", "inbound_nodes": [[["conv2d_33", 0, 0, {}]]], "config": {"moving_mean_initializer": {"class_name": "Zeros", "config": {}}, "beta_regularizer": null, "name": "batch_normalization_33", "gamma_initializer": {"class_name": "Ones", "config": {}}, "scale": true, "axis": -1, "beta_initializer": {"class_name": "Zeros", "config": {}}, "moving_variance_initializer": {"class_name": "Ones", "config": {}}, "epsilon": 0.001, "momentum": 0.99, "gamma_constraint": null, "gamma_regularizer": null, "center": true, "trainable": true, "beta_constraint": null}, "class_name": "BatchNormalization"}, {"name": "add_16", "inbound_nodes": [[["activation_31", 0, 0, {}], ["batch_normalization_33", 0, 0, {}]]], "config": {"name": "add_16", "trainable": true}, "class_name": "Add"}, {"name": "activation_33", "inbound_nodes": [[["add_16", 0, 0, {}]]], "config": {"name": "activation_33", "trainable": true, "activation": "relu"}, "class_name": "Activation"}, {"name": "conv2d_34", "inbound_nodes": [[["activation_33", 0, 0, {}]]], "config": {"activity_regularizer": null, "kernel_initializer": {"class_name": "VarianceScaling", "config": {"mode": "fan_in", "distribution": "normal", "seed": null, "scale": 2.0}}, "filters": 16, "data_format": "channels_last", "name": "conv2d_34", "dilation_rate": [1, 1], "kernel_constraint": null, "bias_constraint": null, "activation": "linear", "strides": [1, 1], "kernel_size": [3, 3], "kernel_regularizer": {"class_name": "L1L2", "config": {"l2": 9.999999747378752e-05, "l1": 0.0}}, "bias_regularizer": null, "use_bias": true, "bias_initializer": {"class_name": "Zeros", "config": {}}, "trainable": true, "padding": "same"}, "class_name": "Conv2D"}, {"name": "batch_normalization_34", "inbound_nodes": [[["conv2d_34", 0, 0, {}]]], "config": {"moving_mean_initializer": {"class_name": "Zeros", "config": {}}, "beta_regularizer": null, "name": "batch_normalization_34", "gamma_initializer": {"class_name": "Ones", "config": {}}, "scale": true, "axis": -1, "beta_initializer": {"class_name": "Zeros", "config": {}}, "moving_variance_initializer": {"class_name": "Ones", "config": {}}, "epsilon": 0.001, "momentum": 0.99, "gamma_constraint": null, "gamma_regularizer": null, "center": true, "trainable": true, "beta_constraint": null}, "class_name": "BatchNormalization"}, {"name": "activation_34", "inbound_nodes": [[["batch_normalization_34", 0, 0, {}]]], "config": {"name": "activation_34", "trainable": true, "activation": "relu"}, "class_name": "Activation"}, {"name": "conv2d_35", "inbound_nodes": [[["activation_34", 0, 0, {}]]], "config": {"activity_regularizer": null, "kernel_initializer": {"class_name": "VarianceScaling", "config": {"mode": "fan_in", "distribution": "normal", "seed": null, "scale": 2.0}}, "filters": 16, "data_format": "channels_last", "name": "conv2d_35", "dilation_rate": [1, 1], "kernel_constraint": null, "bias_constraint": null, "activation": "linear", "strides": [1, 1], "kernel_size": [3, 3], "kernel_regularizer": {"class_name": "L1L2", "config": {"l2": 9.999999747378752e-05, "l1": 0.0}}, "bias_regularizer": null, "use_bias": true, "bias_initializer": {"class_name": "Zeros", "config": {}}, "trainable": true, "padding": "same"}, "class_name": "Conv2D"}, {"name": "batch_normalization_35", "inbound_nodes": [[["conv2d_35", 0, 0, {}]]], "config": {"moving_mean_initializer": {"class_name": "Zeros", "config": {}}, "beta_regularizer": null, "name": "batch_normalization_35", "gamma_initializer": {"class_name": "Ones", "config": {}}, "scale": true, "axis": -1, "beta_initializer": {"class_name": "Zeros", "config": {}}, "moving_variance_initializer": {"class_name": "Ones", "config": {}}, "epsilon": 0.001, "momentum": 0.99, "gamma_constraint": null, "gamma_regularizer": null, "center": true, "trainable": true, "beta_constraint": null}, "class_name": "BatchNormalization"}, {"name": "add_17", "inbound_nodes": [[["activation_33", 0, 0, {}], ["batch_normalization_35", 0, 0, {}]]], "config": {"name": "add_17", "trainable": true}, "class_name": "Add"}, {"name": "activation_35", "inbound_nodes": [[["add_17", 0, 0, {}]]], "config": {"name": "activation_35", "trainable": true, "activation": "relu"}, "class_name": "Activation"}, {"name": "conv2d_36", "inbound_nodes": [[["activation_35", 0, 0, {}]]], "config": {"activity_regularizer": null, "kernel_initializer": {"class_name": "VarianceScaling", "config": {"mode": "fan_in", "distribution": "normal", "seed": null, "scale": 2.0}}, "filters": 16, "data_format": "channels_last", "name": "conv2d_36", "dilation_rate": [1, 1], "kernel_constraint": null, "bias_constraint": null, "activation": "linear", "strides": [1, 1], "kernel_size": [3, 3], "kernel_regularizer": {"class_name": "L1L2", "config": {"l2": 9.999999747378752e-05, "l1": 0.0}}, "bias_regularizer": null, "use_bias": true, "bias_initializer": {"class_name": "Zeros", "config": {}}, "trainable": true, "padding": "same"}, "class_name": "Conv2D"}, {"name": "batch_normalization_36", "inbound_nodes": [[["conv2d_36", 0, 0, {}]]], "config": {"moving_mean_initializer": {"class_name": "Zeros", "config": {}}, "beta_regularizer": null, "name": "batch_normalization_36", "gamma_initializer": {"class_name": "Ones", "config": {}}, "scale": true, "axis": -1, "beta_initializer": {"class_name": "Zeros", "config": {}}, "moving_variance_initializer": {"class_name": "Ones", "config": {}}, "epsilon": 0.001, "momentum": 0.99, "gamma_constraint": null, "gamma_regularizer": null, "center": true, "trainable": true, "beta_constraint": null}, "class_name": "BatchNormalization"}, {"name": "activation_36", "inbound_nodes": [[["batch_normalization_36", 0, 0, {}]]], "config": {"name": "activation_36", "trainable": true, "activation": "relu"}, "class_name": "Activation"}, {"name": "conv2d_37", "inbound_nodes": [[["activation_36", 0, 0, {}]]], "config": {"activity_regularizer": null, "kernel_initializer": {"class_name": "VarianceScaling", "config": {"mode": "fan_in", "distribution": "normal", "seed": null, "scale": 2.0}}, "filters": 16, "data_format": "channels_last", "name": "conv2d_37", "dilation_rate": [1, 1], "kernel_constraint": null, "bias_constraint": null, "activation": "linear", "strides": [1, 1], "kernel_size": [3, 3], "kernel_regularizer": {"class_name": "L1L2", "config": {"l2": 9.999999747378752e-05, "l1": 0.0}}, "bias_regularizer": null, "use_bias": true, "bias_initializer": {"class_name": "Zeros", "config": {}}, "trainable": true, "padding": "same"}, "class_name": "Conv2D"}, {"name": "batch_normalization_37", "inbound_nodes": [[["conv2d_37", 0, 0, {}]]], "config": {"moving_mean_initializer": {"class_name": "Zeros", "config": {}}, "beta_regularizer": null, "name": "batch_normalization_37", "gamma_initializer": {"class_name": "Ones", "config": {}}, "scale": true, "axis": -1, "beta_initializer": {"class_name": "Zeros", "config": {}}, "moving_variance_initializer": {"class_name": "Ones", "config": {}}, "epsilon": 0.001, "momentum": 0.99, "gamma_constraint": null, "gamma_regularizer": null, "center": true, "trainable": true, "beta_constraint": null}, "class_name": "BatchNormalization"}, {"name": "add_18", "inbound_nodes": [[["activation_35", 0, 0, {}], ["batch_normalization_37", 0, 0, {}]]], "config": {"name": "add_18", "trainable": true}, "class_name": "Add"}, {"name": "activation_37", "inbound_nodes": [[["add_18", 0, 0, {}]]], "config": {"name": "activation_37", "trainable": true, "activation": "relu"}, "class_name": "Activation"}, {"name": "conv2d_38", "inbound_nodes": [[["activation_37", 0, 0, {}]]], "config": {"activity_regularizer": null, "kernel_initializer": {"class_name": "VarianceScaling", "config": {"mode": "fan_in", "distribution": "normal", "seed": null, "scale": 2.0}}, "filters": 32, "data_format": "channels_last", "name": "conv2d_38", "dilation_rate": [1, 1], "kernel_constraint": null, "bias_constraint": null, "activation": "linear", "strides": [2, 2], "kernel_size": [3, 3], "kernel_regularizer": {"class_name": "L1L2", "config": {"l2": 9.999999747378752e-05, "l1": 0.0}}, "bias_regularizer": null, "use_bias": true, "bias_initializer": {"class_name": "Zeros", "config": {}}, "trainable": true, "padding": "same"}, "class_name": "Conv2D"}, {"name": "batch_normalization_38", "inbound_nodes": [[["conv2d_38", 0, 0, {}]]], "config": {"moving_mean_initializer": {"class_name": "Zeros", "config": {}}, "beta_regularizer": null, "name": "batch_normalization_38", "gamma_initializer": {"class_name": "Ones", "config": {}}, "scale": true, "axis": -1, "beta_initializer": {"class_name": "Zeros", "config": {}}, "moving_variance_initializer": {"class_name": "Ones", "config": {}}, "epsilon": 0.001, "momentum": 0.99, "gamma_constraint": null, "gamma_regularizer": null, "center": true, "trainable": true, "beta_constraint": null}, "class_name": "BatchNormalization"}, {"name": "activation_38", "inbound_nodes": [[["batch_normalization_38", 0, 0, {}]]], "config": {"name": "activation_38", "trainable": true, "activation": "relu"}, "class_name": "Activation"}, {"name": "conv2d_39", "inbound_nodes": [[["activation_38", 0, 0, {}]]], "config": {"activity_regularizer": null, "kernel_initializer": {"class_name": "VarianceScaling", "config": {"mode": "fan_in", "distribution": "normal", "seed": null, "scale": 2.0}}, "filters": 32, "data_format": "channels_last", "name": "conv2d_39", "dilation_rate": [1, 1], "kernel_constraint": null, "bias_constraint": null, "activation": "linear", "strides": [1, 1], "kernel_size": [3, 3], "kernel_regularizer": {"class_name": "L1L2", "config": {"l2": 9.999999747378752e-05, "l1": 0.0}}, "bias_regularizer": null, "use_bias": true, "bias_initializer": {"class_name": "Zeros", "config": {}}, "trainable": true, "padding": "same"}, "class_name": "Conv2D"}, {"name": "conv2d_40", "inbound_nodes": [[["activation_37", 0, 0, {}]]], "config": {"activity_regularizer": null, "kernel_initializer": {"class_name": "VarianceScaling", "config": {"mode": "fan_in", "distribution": "normal", "seed": null, "scale": 2.0}}, "filters": 32, "data_format": "channels_last", "name": "conv2d_40", "dilation_rate": [1, 1], "kernel_constraint": null, "bias_constraint": null, "activation": "linear", "strides": [2, 2], "kernel_size": [1, 1], "kernel_regularizer": {"class_name": "L1L2", "config": {"l2": 9.999999747378752e-05, "l1": 0.0}}, "bias_regularizer": null, "use_bias": true, "bias_initializer": {"class_name": "Zeros", "config": {}}, "trainable": true, "padding": "same"}, "class_name": "Conv2D"}, {"name": "batch_normalization_39", "inbound_nodes": [[["conv2d_39", 0, 0, {}]]], "config": {"moving_mean_initializer": {"class_name": "Zeros", "config": {}}, "beta_regularizer": null, "name": "batch_normalization_39", "gamma_initializer": {"class_name": "Ones", "config": {}}, "scale": true, "axis": -1, "beta_initializer": {"class_name": "Zeros", "config": {}}, "moving_variance_initializer": {"class_name": "Ones", "config": {}}, "epsilon": 0.001, "momentum": 0.99, "gamma_constraint": null, "gamma_regularizer": null, "center": true, "trainable": true, "beta_constraint": null}, "class_name": "BatchNormalization"}, {"name": "add_19", "inbound_nodes": [[["conv2d_40", 0, 0, {}], ["batch_normalization_39", 0, 0, {}]]], "config": {"name": "add_19", "trainable": true}, "class_name": "Add"}, {"name": "activation_39", "inbound_nodes": [[["add_19", 0, 0, {}]]], "config": {"name": "activation_39", "trainable": true, "activation": "relu"}, "class_name": "Activation"}, {"name": "conv2d_41", "inbound_nodes": [[["activation_39", 0, 0, {}]]], "config": {"activity_regularizer": null, "kernel_initializer": {"class_name": "VarianceScaling", "config": {"mode": "fan_in", "distribution": "normal", "seed": null, "scale": 2.0}}, "filters": 32, "data_format": "channels_last", "name": "conv2d_41", "dilation_rate": [1, 1], "kernel_constraint": null, "bias_constraint": null, "activation": "linear", "strides": [1, 1], "kernel_size": [3, 3], "kernel_regularizer": {"class_name": "L1L2", "config": {"l2": 9.999999747378752e-05, "l1": 0.0}}, "bias_regularizer": null, "use_bias": true, "bias_initializer": {"class_name": "Zeros", "config": {}}, "trainable": true, "padding": "same"}, "class_name": "Conv2D"}, {"name": "batch_normalization_40", "inbound_nodes": [[["conv2d_41", 0, 0, {}]]], "config": {"moving_mean_initializer": {"class_name": "Zeros", "config": {}}, "beta_regularizer": null, "name": "batch_normalization_40", "gamma_initializer": {"class_name": "Ones", "config": {}}, "scale": true, "axis": -1, "beta_initializer": {"class_name": "Zeros", "config": {}}, "moving_variance_initializer": {"class_name": "Ones", "config": {}}, "epsilon": 0.001, "momentum": 0.99, "gamma_constraint": null, "gamma_regularizer": null, "center": true, "trainable": true, "beta_constraint": null}, "class_name": "BatchNormalization"}, {"name": "activation_40", "inbound_nodes": [[["batch_normalization_40", 0, 0, {}]]], "config": {"name": "activation_40", "trainable": true, "activation": "relu"}, "class_name": "Activation"}, {"name": "conv2d_42", "inbound_nodes": [[["activation_40", 0, 0, {}]]], "config": {"activity_regularizer": null, "kernel_initializer": {"class_name": "VarianceScaling", "config": {"mode": "fan_in", "distribution": "normal", "seed": null, "scale": 2.0}}, "filters": 32, "data_format": "channels_last", "name": "conv2d_42", "dilation_rate": [1, 1], "kernel_constraint": null, "bias_constraint": null, "activation": "linear", "strides": [1, 1], "kernel_size": [3, 3], "kernel_regularizer": {"class_name": "L1L2", "config": {"l2": 9.999999747378752e-05, "l1": 0.0}}, "bias_regularizer": null, "use_bias": true, "bias_initializer": {"class_name": "Zeros", "config": {}}, "trainable": true, "padding": "same"}, "class_name": "Conv2D"}, {"name": "batch_normalization_41", "inbound_nodes": [[["conv2d_42", 0, 0, {}]]], "config": {"moving_mean_initializer": {"class_name": "Zeros", "config": {}}, "beta_regularizer": null, "name": "batch_normalization_41", "gamma_initializer": {"class_name": "Ones", "config": {}}, "scale": true, "axis": -1, "beta_initializer": {"class_name": "Zeros", "config": {}}, "moving_variance_initializer": {"class_name": "Ones", "config": {}}, "epsilon": 0.001, "momentum": 0.99, "gamma_constraint": null, "gamma_regularizer": null, "center": true, "trainable": true, "beta_constraint": null}, "class_name": "BatchNormalization"}, {"name": "add_20", "inbound_nodes": [[["activation_39", 0, 0, {}], ["batch_normalization_41", 0, 0, {}]]], "config": {"name": "add_20", "trainable": true}, "class_name": "Add"}, {"name": "activation_41", "inbound_nodes": [[["add_20", 0, 0, {}]]], "config": {"name": "activation_41", "trainable": true, "activation": "relu"}, "class_name": "Activation"}, {"name": "conv2d_43", "inbound_nodes": [[["activation_41", 0, 0, {}]]], "config": {"activity_regularizer": null, "kernel_initializer": {"class_name": "VarianceScaling", "config": {"mode": "fan_in", "distribution": "normal", "seed": null, "scale": 2.0}}, "filters": 32, "data_format": "channels_last", "name": "conv2d_43", "dilation_rate": [1, 1], "kernel_constraint": null, "bias_constraint": null, "activation": "linear", "strides": [1, 1], "kernel_size": [3, 3], "kernel_regularizer": {"class_name": "L1L2", "config": {"l2": 9.999999747378752e-05, "l1": 0.0}}, "bias_regularizer": null, "use_bias": true, "bias_initializer": {"class_name": "Zeros", "config": {}}, "trainable": true, "padding": "same"}, "class_name": "Conv2D"}, {"name": "batch_normalization_42", "inbound_nodes": [[["conv2d_43", 0, 0, {}]]], "config": {"moving_mean_initializer": {"class_name": "Zeros", "config": {}}, "beta_regularizer": null, "name": "batch_normalization_42", "gamma_initializer": {"class_name": "Ones", "config": {}}, "scale": true, "axis": -1, "beta_initializer": {"class_name": "Zeros", "config": {}}, "moving_variance_initializer": {"class_name": "Ones", "config": {}}, "epsilon": 0.001, "momentum": 0.99, "gamma_constraint": null, "gamma_regularizer": null, "center": true, "trainable": true, "beta_constraint": null}, "class_name": "BatchNormalization"}, {"name": "activation_42", "inbound_nodes": [[["batch_normalization_42", 0, 0, {}]]], "config": {"name": "activation_42", "trainable": true, "activation": "relu"}, "class_name": "Activation"}, {"name": "conv2d_44", "inbound_nodes": [[["activation_42", 0, 0, {}]]], "config": {"activity_regularizer": null, "kernel_initializer": {"class_name": "VarianceScaling", "config": {"mode": "fan_in", "distribution": "normal", "seed": null, "scale": 2.0}}, "filters": 32, "data_format": "channels_last", "name": "conv2d_44", "dilation_rate": [1, 1], "kernel_constraint": null, "bias_constraint": null, "activation": "linear", "strides": [1, 1], "kernel_size": [3, 3], "kernel_regularizer": {"class_name": "L1L2", "config": {"l2": 9.999999747378752e-05, "l1": 0.0}}, "bias_regularizer": null, "use_bias": true, "bias_initializer": {"class_name": "Zeros", "config": {}}, "trainable": true, "padding": "same"}, "class_name": "Conv2D"}, {"name": "batch_normalization_43", "inbound_nodes": [[["conv2d_44", 0, 0, {}]]], "config": {"moving_mean_initializer": {"class_name": "Zeros", "config": {}}, "beta_regularizer": null, "name": "batch_normalization_43", "gamma_initializer": {"class_name": "Ones", "config": {}}, "scale": true, "axis": -1, "beta_initializer": {"class_name": "Zeros", "config": {}}, "moving_variance_initializer": {"class_name": "Ones", "config": {}}, "epsilon": 0.001, "momentum": 0.99, "gamma_constraint": null, "gamma_regularizer": null, "center": true, "trainable": true, "beta_constraint": null}, "class_name": "BatchNormalization"}, {"name": "add_21", "inbound_nodes": [[["activation_41", 0, 0, {}], ["batch_normalization_43", 0, 0, {}]]], "config": {"name": "add_21", "trainable": true}, "class_name": "Add"}, {"name": "activation_43", "inbound_nodes": [[["add_21", 0, 0, {}]]], "config": {"name": "activation_43", "trainable": true, "activation": "relu"}, "class_name": "Activation"}, {"name": "conv2d_45", "inbound_nodes": [[["activation_43", 0, 0, {}]]], "config": {"activity_regularizer": null, "kernel_initializer": {"class_name": "VarianceScaling", "config": {"mode": "fan_in", "distribution": "normal", "seed": null, "scale": 2.0}}, "filters": 32, "data_format": "channels_last", "name": "conv2d_45", "dilation_rate": [1, 1], "kernel_constraint": null, "bias_constraint": null, "activation": "linear", "strides": [1, 1], "kernel_size": [3, 3], "kernel_regularizer": {"class_name": "L1L2", "config": {"l2": 9.999999747378752e-05, "l1": 0.0}}, "bias_regularizer": null, "use_bias": true, "bias_initializer": {"class_name": "Zeros", "config": {}}, "trainable": true, "padding": "same"}, "class_name": "Conv2D"}, {"name": "batch_normalization_44", "inbound_nodes": [[["conv2d_45", 0, 0, {}]]], "config": {"moving_mean_initializer": {"class_name": "Zeros", "config": {}}, "beta_regularizer": null, "name": "batch_normalization_44", "gamma_initializer": {"class_name": "Ones", "config": {}}, "scale": true, "axis": -1, "beta_initializer": {"class_name": "Zeros", "config": {}}, "moving_variance_initializer": {"class_name": "Ones", "config": {}}, "epsilon": 0.001, "momentum": 0.99, "gamma_constraint": null, "gamma_regularizer": null, "center": true, "trainable": true, "beta_constraint": null}, "class_name": "BatchNormalization"}, {"name": "activation_44", "inbound_nodes": [[["batch_normalization_44", 0, 0, {}]]], "config": {"name": "activation_44", "trainable": true, "activation": "relu"}, "class_name": "Activation"}, {"name": "conv2d_46", "inbound_nodes": [[["activation_44", 0, 0, {}]]], "config": {"activity_regularizer": null, "kernel_initializer": {"class_name": "VarianceScaling", "config": {"mode": "fan_in", "distribution": "normal", "seed": null, "scale": 2.0}}, "filters": 32, "data_format": "channels_last", "name": "conv2d_46", "dilation_rate": [1, 1], "kernel_constraint": null, "bias_constraint": null, "activation": "linear", "strides": [1, 1], "kernel_size": [3, 3], "kernel_regularizer": {"class_name": "L1L2", "config": {"l2": 9.999999747378752e-05, "l1": 0.0}}, "bias_regularizer": null, "use_bias": true, "bias_initializer": {"class_name": "Zeros", "config": {}}, "trainable": true, "padding": "same"}, "class_name": "Conv2D"}, {"name": "batch_normalization_45", "inbound_nodes": [[["conv2d_46", 0, 0, {}]]], "config": {"moving_mean_initializer": {"class_name": "Zeros", "config": {}}, "beta_regularizer": null, "name": "batch_normalization_45", "gamma_initializer": {"class_name": "Ones", "config": {}}, "scale": true, "axis": -1, "beta_initializer": {"class_name": "Zeros", "config": {}}, "moving_variance_initializer": {"class_name": "Ones", "config": {}}, "epsilon": 0.001, "momentum": 0.99, "gamma_constraint": null, "gamma_regularizer": null, "center": true, "trainable": true, "beta_constraint": null}, "class_name": "BatchNormalization"}, {"name": "add_22", "inbound_nodes": [[["activation_43", 0, 0, {}], ["batch_normalization_45", 0, 0, {}]]], "config": {"name": "add_22", "trainable": true}, "class_name": "Add"}, {"name": "activation_45", "inbound_nodes": [[["add_22", 0, 0, {}]]], "config": {"name": "activation_45", "trainable": true, "activation": "relu"}, "class_name": "Activation"}, {"name": "conv2d_47", "inbound_nodes": [[["activation_45", 0, 0, {}]]], "config": {"activity_regularizer": null, "kernel_initializer": {"class_name": "VarianceScaling", "config": {"mode": "fan_in", "distribution": "normal", "seed": null, "scale": 2.0}}, "filters": 32, "data_format": "channels_last", "name": "conv2d_47", "dilation_rate": [1, 1], "kernel_constraint": null, "bias_constraint": null, "activation": "linear", "strides": [1, 1], "kernel_size": [3, 3], "kernel_regularizer": {"class_name": "L1L2", "config": {"l2": 9.999999747378752e-05, "l1": 0.0}}, "bias_regularizer": null, "use_bias": true, "bias_initializer": {"class_name": "Zeros", "config": {}}, "trainable": true, "padding": "same"}, "class_name": "Conv2D"}, {"name": "batch_normalization_46", "inbound_nodes": [[["conv2d_47", 0, 0, {}]]], "config": {"moving_mean_initializer": {"class_name": "Zeros", "config": {}}, "beta_regularizer": null, "name": "batch_normalization_46", "gamma_initializer": {"class_name": "Ones", "config": {}}, "scale": true, "axis": -1, "beta_initializer": {"class_name": "Zeros", "config": {}}, "moving_variance_initializer": {"class_name": "Ones", "config": {}}, "epsilon": 0.001, "momentum": 0.99, "gamma_constraint": null, "gamma_regularizer": null, "center": true, "trainable": true, "beta_constraint": null}, "class_name": "BatchNormalization"}, {"name": "activation_46", "inbound_nodes": [[["batch_normalization_46", 0, 0, {}]]], "config": {"name": "activation_46", "trainable": true, "activation": "relu"}, "class_name": "Activation"}, {"name": "conv2d_48", "inbound_nodes": [[["activation_46", 0, 0, {}]]], "config": {"activity_regularizer": null, "kernel_initializer": {"class_name": "VarianceScaling", "config": {"mode": "fan_in", "distribution": "normal", "seed": null, "scale": 2.0}}, "filters": 32, "data_format": "channels_last", "name": "conv2d_48", "dilation_rate": [1, 1], "kernel_constraint": null, "bias_constraint": null, "activation": "linear", "strides": [1, 1], "kernel_size": [3, 3], "kernel_regularizer": {"class_name": "L1L2", "config": {"l2": 9.999999747378752e-05, "l1": 0.0}}, "bias_regularizer": null, "use_bias": true, "bias_initializer": {"class_name": "Zeros", "config": {}}, "trainable": true, "padding": "same"}, "class_name": "Conv2D"}, {"name": "batch_normalization_47", "inbound_nodes": [[["conv2d_48", 0, 0, {}]]], "config": {"moving_mean_initializer": {"class_name": "Zeros", "config": {}}, "beta_regularizer": null, "name": "batch_normalization_47", "gamma_initializer": {"class_name": "Ones", "config": {}}, "scale": true, "axis": -1, "beta_initializer": {"class_name": "Zeros", "config": {}}, "moving_variance_initializer": {"class_name": "Ones", "config": {}}, "epsilon": 0.001, "momentum": 0.99, "gamma_constraint": null, "gamma_regularizer": null, "center": true, "trainable": true, "beta_constraint": null}, "class_name": "BatchNormalization"}, {"name": "add_23", "inbound_nodes": [[["activation_45", 0, 0, {}], ["batch_normalization_47", 0, 0, {}]]], "config": {"name": "add_23", "trainable": true}, "class_name": "Add"}, {"name": "activation_47", "inbound_nodes": [[["add_23", 0, 0, {}]]], "config": {"name": "activation_47", "trainable": true, "activation": "relu"}, "class_name": "Activation"}, {"name": "conv2d_49", "inbound_nodes": [[["activation_47", 0, 0, {}]]], "config": {"activity_regularizer": null, "kernel_initializer": {"class_name": "VarianceScaling", "config": {"mode": "fan_in", "distribution": "normal", "seed": null, "scale": 2.0}}, "filters": 32, "data_format": "channels_last", "name": "conv2d_49", "dilation_rate": [1, 1], "kernel_constraint": null, "bias_constraint": null, "activation": "linear", "strides": [1, 1], "kernel_size": [3, 3], "kernel_regularizer": {"class_name": "L1L2", "config": {"l2": 9.999999747378752e-05, "l1": 0.0}}, "bias_regularizer": null, "use_bias": true, "bias_initializer": {"class_name": "Zeros", "config": {}}, "trainable": true, "padding": "same"}, "class_name": "Conv2D"}, {"name": "batch_normalization_48", "inbound_nodes": [[["conv2d_49", 0, 0, {}]]], "config": {"moving_mean_initializer": {"class_name": "Zeros", "config": {}}, "beta_regularizer": null, "name": "batch_normalization_48", "gamma_initializer": {"class_name": "Ones", "config": {}}, "scale": true, "axis": -1, "beta_initializer": {"class_name": "Zeros", "config": {}}, "moving_variance_initializer": {"class_name": "Ones", "config": {}}, "epsilon": 0.001, "momentum": 0.99, "gamma_constraint": null, "gamma_regularizer": null, "center": true, "trainable": true, "beta_constraint": null}, "class_name": "BatchNormalization"}, {"name": "activation_48", "inbound_nodes": [[["batch_normalization_48", 0, 0, {}]]], "config": {"name": "activation_48", "trainable": true, "activation": "relu"}, "class_name": "Activation"}, {"name": "conv2d_50", "inbound_nodes": [[["activation_48", 0, 0, {}]]], "config": {"activity_regularizer": null, "kernel_initializer": {"class_name": "VarianceScaling", "config": {"mode": "fan_in", "distribution": "normal", "seed": null, "scale": 2.0}}, "filters": 32, "data_format": "channels_last", "name": "conv2d_50", "dilation_rate": [1, 1], "kernel_constraint": null, "bias_constraint": null, "activation": "linear", "strides": [1, 1], "kernel_size": [3, 3], "kernel_regularizer": {"class_name": "L1L2", "config": {"l2": 9.999999747378752e-05, "l1": 0.0}}, "bias_regularizer": null, "use_bias": true, "bias_initializer": {"class_name": "Zeros", "config": {}}, "trainable": true, "padding": "same"}, "class_name": "Conv2D"}, {"name": "batch_normalization_49", "inbound_nodes": [[["conv2d_50", 0, 0, {}]]], "config": {"moving_mean_initializer": {"class_name": "Zeros", "config": {}}, "beta_regularizer": null, "name": "batch_normalization_49", "gamma_initializer": {"class_name": "Ones", "config": {}}, "scale": true, "axis": -1, "beta_initializer": {"class_name": "Zeros", "config": {}}, "moving_variance_initializer": {"class_name": "Ones", "config": {}}, "epsilon": 0.001, "momentum": 0.99, "gamma_constraint": null, "gamma_regularizer": null, "center": true, "trainable": true, "beta_constraint": null}, "class_name": "BatchNormalization"}, {"name": "add_24", "inbound_nodes": [[["activation_47", 0, 0, {}], ["batch_normalization_49", 0, 0, {}]]], "config": {"name": "add_24", "trainable": true}, "class_name": "Add"}, {"name": "activation_49", "inbound_nodes": [[["add_24", 0, 0, {}]]], "config": {"name": "activation_49", "trainable": true, "activation": "relu"}, "class_name": "Activation"}, {"name": "conv2d_51", "inbound_nodes": [[["activation_49", 0, 0, {}]]], "config": {"activity_regularizer": null, "kernel_initializer": {"class_name": "VarianceScaling", "config": {"mode": "fan_in", "distribution": "normal", "seed": null, "scale": 2.0}}, "filters": 32, "data_format": "channels_last", "name": "conv2d_51", "dilation_rate": [1, 1], "kernel_constraint": null, "bias_constraint": null, "activation": "linear", "strides": [1, 1], "kernel_size": [3, 3], "kernel_regularizer": {"class_name": "L1L2", "config": {"l2": 9.999999747378752e-05, "l1": 0.0}}, "bias_regularizer": null, "use_bias": true, "bias_initializer": {"class_name": "Zeros", "config": {}}, "trainable": true, "padding": "same"}, "class_name": "Conv2D"}, {"name": "batch_normalization_50", "inbound_nodes": [[["conv2d_51", 0, 0, {}]]], "config": {"moving_mean_initializer": {"class_name": "Zeros", "config": {}}, "beta_regularizer": null, "name": "batch_normalization_50", "gamma_initializer": {"class_name": "Ones", "config": {}}, "scale": true, "axis": -1, "beta_initializer": {"class_name": "Zeros", "config": {}}, "moving_variance_initializer": {"class_name": "Ones", "config": {}}, "epsilon": 0.001, "momentum": 0.99, "gamma_constraint": null, "gamma_regularizer": null, "center": true, "trainable": true, "beta_constraint": null}, "class_name": "BatchNormalization"}, {"name": "activation_50", "inbound_nodes": [[["batch_normalization_50", 0, 0, {}]]], "config": {"name": "activation_50", "trainable": true, "activation": "relu"}, "class_name": "Activation"}, {"name": "conv2d_52", "inbound_nodes": [[["activation_50", 0, 0, {}]]], "config": {"activity_regularizer": null, "kernel_initializer": {"class_name": "VarianceScaling", "config": {"mode": "fan_in", "distribution": "normal", "seed": null, "scale": 2.0}}, "filters": 32, "data_format": "channels_last", "name": "conv2d_52", "dilation_rate": [1, 1], "kernel_constraint": null, "bias_constraint": null, "activation": "linear", "strides": [1, 1], "kernel_size": [3, 3], "kernel_regularizer": {"class_name": "L1L2", "config": {"l2": 9.999999747378752e-05, "l1": 0.0}}, "bias_regularizer": null, "use_bias": true, "bias_initializer": {"class_name": "Zeros", "config": {}}, "trainable": true, "padding": "same"}, "class_name": "Conv2D"}, {"name": "batch_normalization_51", "inbound_nodes": [[["conv2d_52", 0, 0, {}]]], "config": {"moving_mean_initializer": {"class_name": "Zeros", "config": {}}, "beta_regularizer": null, "name": "batch_normalization_51", "gamma_initializer": {"class_name": "Ones", "config": {}}, "scale": true, "axis": -1, "beta_initializer": {"class_name": "Zeros", "config": {}}, "moving_variance_initializer": {"class_name": "Ones", "config": {}}, "epsilon": 0.001, "momentum": 0.99, "gamma_constraint": null, "gamma_regularizer": null, "center": true, "trainable": true, "beta_constraint": null}, "class_name": "BatchNormalization"}, {"name": "add_25", "inbound_nodes": [[["activation_49", 0, 0, {}], ["batch_normalization_51", 0, 0, {}]]], "config": {"name": "add_25", "trainable": true}, "class_name": "Add"}, {"name": "activation_51", "inbound_nodes": [[["add_25", 0, 0, {}]]], "config": {"name": "activation_51", "trainable": true, "activation": "relu"}, "class_name": "Activation"}, {"name": "conv2d_53", "inbound_nodes": [[["activation_51", 0, 0, {}]]], "config": {"activity_regularizer": null, "kernel_initializer": {"class_name": "VarianceScaling", "config": {"mode": "fan_in", "distribution": "normal", "seed": null, "scale": 2.0}}, "filters": 32, "data_format": "channels_last", "name": "conv2d_53", "dilation_rate": [1, 1], "kernel_constraint": null, "bias_constraint": null, "activation": "linear", "strides": [1, 1], "kernel_size": [3, 3], "kernel_regularizer": {"class_name": "L1L2", "config": {"l2": 9.999999747378752e-05, "l1": 0.0}}, "bias_regularizer": null, "use_bias": true, "bias_initializer": {"class_name": "Zeros", "config": {}}, "trainable": true, "padding": "same"}, "class_name": "Conv2D"}, {"name": "batch_normalization_52", "inbound_nodes": [[["conv2d_53", 0, 0, {}]]], "config": {"moving_mean_initializer": {"class_name": "Zeros", "config": {}}, "beta_regularizer": null, "name": "batch_normalization_52", "gamma_initializer": {"class_name": "Ones", "config": {}}, "scale": true, "axis": -1, "beta_initializer": {"class_name": "Zeros", "config": {}}, "moving_variance_initializer": {"class_name": "Ones", "config": {}}, "epsilon": 0.001, "momentum": 0.99, "gamma_constraint": null, "gamma_regularizer": null, "center": true, "trainable": true, "beta_constraint": null}, "class_name": "BatchNormalization"}, {"name": "activation_52", "inbound_nodes": [[["batch_normalization_52", 0, 0, {}]]], "config": {"name": "activation_52", "trainable": true, "activation": "relu"}, "class_name": "Activation"}, {"name": "conv2d_54", "inbound_nodes": [[["activation_52", 0, 0, {}]]], "config": {"activity_regularizer": null, "kernel_initializer": {"class_name": "VarianceScaling", "config": {"mode": "fan_in", "distribution": "normal", "seed": null, "scale": 2.0}}, "filters": 32, "data_format": "channels_last", "name": "conv2d_54", "dilation_rate": [1, 1], "kernel_constraint": null, "bias_constraint": null, "activation": "linear", "strides": [1, 1], "kernel_size": [3, 3], "kernel_regularizer": {"class_name": "L1L2", "config": {"l2": 9.999999747378752e-05, "l1": 0.0}}, "bias_regularizer": null, "use_bias": true, "bias_initializer": {"class_name": "Zeros", "config": {}}, "trainable": true, "padding": "same"}, "class_name": "Conv2D"}, {"name": "batch_normalization_53", "inbound_nodes": [[["conv2d_54", 0, 0, {}]]], "config": {"moving_mean_initializer": {"class_name": "Zeros", "config": {}}, "beta_regularizer": null, "name": "batch_normalization_53", "gamma_initializer": {"class_name": "Ones", "config": {}}, "scale": true, "axis": -1, "beta_initializer": {"class_name": "Zeros", "config": {}}, "moving_variance_initializer": {"class_name": "Ones", "config": {}}, "epsilon": 0.001, "momentum": 0.99, "gamma_constraint": null, "gamma_regularizer": null, "center": true, "trainable": true, "beta_constraint": null}, "class_name": "BatchNormalization"}, {"name": "add_26", "inbound_nodes": [[["activation_51", 0, 0, {}], ["batch_normalization_53", 0, 0, {}]]], "config": {"name": "add_26", "trainable": true}, "class_name": "Add"}, {"name": "activation_53", "inbound_nodes": [[["add_26", 0, 0, {}]]], "config": {"name": "activation_53", "trainable": true, "activation": "relu"}, "class_name": "Activation"}, {"name": "conv2d_55", "inbound_nodes": [[["activation_53", 0, 0, {}]]], "config": {"activity_regularizer": null, "kernel_initializer": {"class_name": "VarianceScaling", "config": {"mode": "fan_in", "distribution": "normal", "seed": null, "scale": 2.0}}, "filters": 32, "data_format": "channels_last", "name": "conv2d_55", "dilation_rate": [1, 1], "kernel_constraint": null, "bias_constraint": null, "activation": "linear", "strides": [1, 1], "kernel_size": [3, 3], "kernel_regularizer": {"class_name": "L1L2", "config": {"l2": 9.999999747378752e-05, "l1": 0.0}}, "bias_regularizer": null, "use_bias": true, "bias_initializer": {"class_name": "Zeros", "config": {}}, "trainable": true, "padding": "same"}, "class_name": "Conv2D"}, {"name": "batch_normalization_54", "inbound_nodes": [[["conv2d_55", 0, 0, {}]]], "config": {"moving_mean_initializer": {"class_name": "Zeros", "config": {}}, "beta_regularizer": null, "name": "batch_normalization_54", "gamma_initializer": {"class_name": "Ones", "config": {}}, "scale": true, "axis": -1, "beta_initializer": {"class_name": "Zeros", "config": {}}, "moving_variance_initializer": {"class_name": "Ones", "config": {}}, "epsilon": 0.001, "momentum": 0.99, "gamma_constraint": null, "gamma_regularizer": null, "center": true, "trainable": true, "beta_constraint": null}, "class_name": "BatchNormalization"}, {"name": "activation_54", "inbound_nodes": [[["batch_normalization_54", 0, 0, {}]]], "config": {"name": "activation_54", "trainable": true, "activation": "relu"}, "class_name": "Activation"}, {"name": "conv2d_56", "inbound_nodes": [[["activation_54", 0, 0, {}]]], "config": {"activity_regularizer": null, "kernel_initializer": {"class_name": "VarianceScaling", "config": {"mode": "fan_in", "distribution": "normal", "seed": null, "scale": 2.0}}, "filters": 32, "data_format": "channels_last", "name": "conv2d_56", "dilation_rate": [1, 1], "kernel_constraint": null, "bias_constraint": null, "activation": "linear", "strides": [1, 1], "kernel_size": [3, 3], "kernel_regularizer": {"class_name": "L1L2", "config": {"l2": 9.999999747378752e-05, "l1": 0.0}}, "bias_regularizer": null, "use_bias": true, "bias_initializer": {"class_name": "Zeros", "config": {}}, "trainable": true, "padding": "same"}, "class_name": "Conv2D"}, {"name": "batch_normalization_55", "inbound_nodes": [[["conv2d_56", 0, 0, {}]]], "config": {"moving_mean_initializer": {"class_name": "Zeros", "config": {}}, "beta_regularizer": null, "name": "batch_normalization_55", "gamma_initializer": {"class_name": "Ones", "config": {}}, "scale": true, "axis": -1, "beta_initializer": {"class_name": "Zeros", "config": {}}, "moving_variance_initializer": {"class_name": "Ones", "config": {}}, "epsilon": 0.001, "momentum": 0.99, "gamma_constraint": null, "gamma_regularizer": null, "center": true, "trainable": true, "beta_constraint": null}, "class_name": "BatchNormalization"}, {"name": "add_27", "inbound_nodes": [[["activation_53", 0, 0, {}], ["batch_normalization_55", 0, 0, {}]]], "config": {"name": "add_27", "trainable": true}, "class_name": "Add"}, {"name": "activation_55", "inbound_nodes": [[["add_27", 0, 0, {}]]], "config": {"name": "activation_55", "trainable": true, "activation": "relu"}, "class_name": "Activation"}, {"name": "conv2d_57", "inbound_nodes": [[["activation_55", 0, 0, {}]]], "config": {"activity_regularizer": null, "kernel_initializer": {"class_name": "VarianceScaling", "config": {"mode": "fan_in", "distribution": "normal", "seed": null, "scale": 2.0}}, "filters": 32, "data_format": "channels_last", "name": "conv2d_57", "dilation_rate": [1, 1], "kernel_constraint": null, "bias_constraint": null, "activation": "linear", "strides": [1, 1], "kernel_size": [3, 3], "kernel_regularizer": {"class_name": "L1L2", "config": {"l2": 9.999999747378752e-05, "l1": 0.0}}, "bias_regularizer": null, "use_bias": true, "bias_initializer": {"class_name": "Zeros", "config": {}}, "trainable": true, "padding": "same"}, "class_name": "Conv2D"}, {"name": "batch_normalization_56", "inbound_nodes": [[["conv2d_57", 0, 0, {}]]], "config": {"moving_mean_initializer": {"class_name": "Zeros", "config": {}}, "beta_regularizer": null, "name": "batch_normalization_56", "gamma_initializer": {"class_name": "Ones", "config": {}}, "scale": true, "axis": -1, "beta_initializer": {"class_name": "Zeros", "config": {}}, "moving_variance_initializer": {"class_name": "Ones", "config": {}}, "epsilon": 0.001, "momentum": 0.99, "gamma_constraint": null, "gamma_regularizer": null, "center": true, "trainable": true, "beta_constraint": null}, "class_name": "BatchNormalization"}, {"name": "activation_56", "inbound_nodes": [[["batch_normalization_56", 0, 0, {}]]], "config": {"name": "activation_56", "trainable": true, "activation": "relu"}, "class_name": "Activation"}, {"name": "conv2d_58", "inbound_nodes": [[["activation_56", 0, 0, {}]]], "config": {"activity_regularizer": null, "kernel_initializer": {"class_name": "VarianceScaling", "config": {"mode": "fan_in", "distribution": "normal", "seed": null, "scale": 2.0}}, "filters": 32, "data_format": "channels_last", "name": "conv2d_58", "dilation_rate": [1, 1], "kernel_constraint": null, "bias_constraint": null, "activation": "linear", "strides": [1, 1], "kernel_size": [3, 3], "kernel_regularizer": {"class_name": "L1L2", "config": {"l2": 9.999999747378752e-05, "l1": 0.0}}, "bias_regularizer": null, "use_bias": true, "bias_initializer": {"class_name": "Zeros", "config": {}}, "trainable": true, "padding": "same"}, "class_name": "Conv2D"}, {"name": "batch_normalization_57", "inbound_nodes": [[["conv2d_58", 0, 0, {}]]], "config": {"moving_mean_initializer": {"class_name": "Zeros", "config": {}}, "beta_regularizer": null, "name": "batch_normalization_57", "gamma_initializer": {"class_name": "Ones", "config": {}}, "scale": true, "axis": -1, "beta_initializer": {"class_name": "Zeros", "config": {}}, "moving_variance_initializer": {"class_name": "Ones", "config": {}}, "epsilon": 0.001, "momentum": 0.99, "gamma_constraint": null, "gamma_regularizer": null, "center": true, "trainable": true, "beta_constraint": null}, "class_name": "BatchNormalization"}, {"name": "add_28", "inbound_nodes": [[["activation_55", 0, 0, {}], ["batch_normalization_57", 0, 0, {}]]], "config": {"name": "add_28", "trainable": true}, "class_name": "Add"}, {"name": "activation_57", "inbound_nodes": [[["add_28", 0, 0, {}]]], "config": {"name": "activation_57", "trainable": true, "activation": "relu"}, "class_name": "Activation"}, {"name": "conv2d_59", "inbound_nodes": [[["activation_57", 0, 0, {}]]], "config": {"activity_regularizer": null, "kernel_initializer": {"class_name": "VarianceScaling", "config": {"mode": "fan_in", "distribution": "normal", "seed": null, "scale": 2.0}}, "filters": 32, "data_format": "channels_last", "name": "conv2d_59", "dilation_rate": [1, 1], "kernel_constraint": null, "bias_constraint": null, "activation": "linear", "strides": [1, 1], "kernel_size": [3, 3], "kernel_regularizer": {"class_name": "L1L2", "config": {"l2": 9.999999747378752e-05, "l1": 0.0}}, "bias_regularizer": null, "use_bias": true, "bias_initializer": {"class_name": "Zeros", "config": {}}, "trainable": true, "padding": "same"}, "class_name": "Conv2D"}, {"name": "batch_normalization_58", "inbound_nodes": [[["conv2d_59", 0, 0, {}]]], "config": {"moving_mean_initializer": {"class_name": "Zeros", "config": {}}, "beta_regularizer": null, "name": "batch_normalization_58", "gamma_initializer": {"class_name": "Ones", "config": {}}, "scale": true, "axis": -1, "beta_initializer": {"class_name": "Zeros", "config": {}}, "moving_variance_initializer": {"class_name": "Ones", "config": {}}, "epsilon": 0.001, "momentum": 0.99, "gamma_constraint": null, "gamma_regularizer": null, "center": true, "trainable": true, "beta_constraint": null}, "class_name": "BatchNormalization"}, {"name": "activation_58", "inbound_nodes": [[["batch_normalization_58", 0, 0, {}]]], "config": {"name": "activation_58", "trainable": true, "activation": "relu"}, "class_name": "Activation"}, {"name": "conv2d_60", "inbound_nodes": [[["activation_58", 0, 0, {}]]], "config": {"activity_regularizer": null, "kernel_initializer": {"class_name": "VarianceScaling", "config": {"mode": "fan_in", "distribution": "normal", "seed": null, "scale": 2.0}}, "filters": 32, "data_format": "channels_last", "name": "conv2d_60", "dilation_rate": [1, 1], "kernel_constraint": null, "bias_constraint": null, "activation": "linear", "strides": [1, 1], "kernel_size": [3, 3], "kernel_regularizer": {"class_name": "L1L2", "config": {"l2": 9.999999747378752e-05, "l1": 0.0}}, "bias_regularizer": null, "use_bias": true, "bias_initializer": {"class_name": "Zeros", "config": {}}, "trainable": true, "padding": "same"}, "class_name": "Conv2D"}, {"name": "batch_normalization_59", "inbound_nodes": [[["conv2d_60", 0, 0, {}]]], "config": {"moving_mean_initializer": {"class_name": "Zeros", "config": {}}, "beta_regularizer": null, "name": "batch_normalization_59", "gamma_initializer": {"class_name": "Ones", "config": {}}, "scale": true, "axis": -1, "beta_initializer": {"class_name": "Zeros", "config": {}}, "moving_variance_initializer": {"class_name": "Ones", "config": {}}, "epsilon": 0.001, "momentum": 0.99, "gamma_constraint": null, "gamma_regularizer": null, "center": true, "trainable": true, "beta_constraint": null}, "class_name": "BatchNormalization"}, {"name": "add_29", "inbound_nodes": [[["activation_57", 0, 0, {}], ["batch_normalization_59", 0, 0, {}]]], "config": {"name": "add_29", "trainable": true}, "class_name": "Add"}, {"name": "activation_59", "inbound_nodes": [[["add_29", 0, 0, {}]]], "config": {"name": "activation_59", "trainable": true, "activation": "relu"}, "class_name": "Activation"}, {"name": "conv2d_61", "inbound_nodes": [[["activation_59", 0, 0, {}]]], "config": {"activity_regularizer": null, "kernel_initializer": {"class_name": "VarianceScaling", "config": {"mode": "fan_in", "distribution": "normal", "seed": null, "scale": 2.0}}, "filters": 32, "data_format": "channels_last", "name": "conv2d_61", "dilation_rate": [1, 1], "kernel_constraint": null, "bias_constraint": null, "activation": "linear", "strides": [1, 1], "kernel_size": [3, 3], "kernel_regularizer": {"class_name": "L1L2", "config": {"l2": 9.999999747378752e-05, "l1": 0.0}}, "bias_regularizer": null, "use_bias": true, "bias_initializer": {"class_name": "Zeros", "config": {}}, "trainable": true, "padding": "same"}, "class_name": "Conv2D"}, {"name": "batch_normalization_60", "inbound_nodes": [[["conv2d_61", 0, 0, {}]]], "config": {"moving_mean_initializer": {"class_name": "Zeros", "config": {}}, "beta_regularizer": null, "name": "batch_normalization_60", "gamma_initializer": {"class_name": "Ones", "config": {}}, "scale": true, "axis": -1, "beta_initializer": {"class_name": "Zeros", "config": {}}, "moving_variance_initializer": {"class_name": "Ones", "config": {}}, "epsilon": 0.001, "momentum": 0.99, "gamma_constraint": null, "gamma_regularizer": null, "center": true, "trainable": true, "beta_constraint": null}, "class_name": "BatchNormalization"}, {"name": "activation_60", "inbound_nodes": [[["batch_normalization_60", 0, 0, {}]]], "config": {"name": "activation_60", "trainable": true, "activation": "relu"}, "class_name": "Activation"}, {"name": "conv2d_62", "inbound_nodes": [[["activation_60", 0, 0, {}]]], "config": {"activity_regularizer": null, "kernel_initializer": {"class_name": "VarianceScaling", "config": {"mode": "fan_in", "distribution": "normal", "seed": null, "scale": 2.0}}, "filters": 32, "data_format": "channels_last", "name": "conv2d_62", "dilation_rate": [1, 1], "kernel_constraint": null, "bias_constraint": null, "activation": "linear", "strides": [1, 1], "kernel_size": [3, 3], "kernel_regularizer": {"class_name": "L1L2", "config": {"l2": 9.999999747378752e-05, "l1": 0.0}}, "bias_regularizer": null, "use_bias": true, "bias_initializer": {"class_name": "Zeros", "config": {}}, "trainable": true, "padding": "same"}, "class_name": "Conv2D"}, {"name": "batch_normalization_61", "inbound_nodes": [[["conv2d_62", 0, 0, {}]]], "config": {"moving_mean_initializer": {"class_name": "Zeros", "config": {}}, "beta_regularizer": null, "name": "batch_normalization_61", "gamma_initializer": {"class_name": "Ones", "config": {}}, "scale": true, "axis": -1, "beta_initializer": {"class_name": "Zeros", "config": {}}, "moving_variance_initializer": {"class_name": "Ones", "config": {}}, "epsilon": 0.001, "momentum": 0.99, "gamma_constraint": null, "gamma_regularizer": null, "center": true, "trainable": true, "beta_constraint": null}, "class_name": "BatchNormalization"}, {"name": "add_30", "inbound_nodes": [[["activation_59", 0, 0, {}], ["batch_normalization_61", 0, 0, {}]]], "config": {"name": "add_30", "trainable": true}, "class_name": "Add"}, {"name": "activation_61", "inbound_nodes": [[["add_30", 0, 0, {}]]], "config": {"name": "activation_61", "trainable": true, "activation": "relu"}, "class_name": "Activation"}, {"name": "conv2d_63", "inbound_nodes": [[["activation_61", 0, 0, {}]]], "config": {"activity_regularizer": null, "kernel_initializer": {"class_name": "VarianceScaling", "config": {"mode": "fan_in", "distribution": "normal", "seed": null, "scale": 2.0}}, "filters": 32, "data_format": "channels_last", "name": "conv2d_63", "dilation_rate": [1, 1], "kernel_constraint": null, "bias_constraint": null, "activation": "linear", "strides": [1, 1], "kernel_size": [3, 3], "kernel_regularizer": {"class_name": "L1L2", "config": {"l2": 9.999999747378752e-05, "l1": 0.0}}, "bias_regularizer": null, "use_bias": true, "bias_initializer": {"class_name": "Zeros", "config": {}}, "trainable": true, "padding": "same"}, "class_name": "Conv2D"}, {"name": "batch_normalization_62", "inbound_nodes": [[["conv2d_63", 0, 0, {}]]], "config": {"moving_mean_initializer": {"class_name": "Zeros", "config": {}}, "beta_regularizer": null, "name": "batch_normalization_62", "gamma_initializer": {"class_name": "Ones", "config": {}}, "scale": true, "axis": -1, "beta_initializer": {"class_name": "Zeros", "config": {}}, "moving_variance_initializer": {"class_name": "Ones", "config": {}}, "epsilon": 0.001, "momentum": 0.99, "gamma_constraint": null, "gamma_regularizer": null, "center": true, "trainable": true, "beta_constraint": null}, "class_name": "BatchNormalization"}, {"name": "activation_62", "inbound_nodes": [[["batch_normalization_62", 0, 0, {}]]], "config": {"name": "activation_62", "trainable": true, "activation": "relu"}, "class_name": "Activation"}, {"name": "conv2d_64", "inbound_nodes": [[["activation_62", 0, 0, {}]]], "config": {"activity_regularizer": null, "kernel_initializer": {"class_name": "VarianceScaling", "config": {"mode": "fan_in", "distribution": "normal", "seed": null, "scale": 2.0}}, "filters": 32, "data_format": "channels_last", "name": "conv2d_64", "dilation_rate": [1, 1], "kernel_constraint": null, "bias_constraint": null, "activation": "linear", "strides": [1, 1], "kernel_size": [3, 3], "kernel_regularizer": {"class_name": "L1L2", "config": {"l2": 9.999999747378752e-05, "l1": 0.0}}, "bias_regularizer": null, "use_bias": true, "bias_initializer": {"class_name": "Zeros", "config": {}}, "trainable": true, "padding": "same"}, "class_name": "Conv2D"}, {"name": "batch_normalization_63", "inbound_nodes": [[["conv2d_64", 0, 0, {}]]], "config": {"moving_mean_initializer": {"class_name": "Zeros", "config": {}}, "beta_regularizer": null, "name": "batch_normalization_63", "gamma_initializer": {"class_name": "Ones", "config": {}}, "scale": true, "axis": -1, "beta_initializer": {"class_name": "Zeros", "config": {}}, "moving_variance_initializer": {"class_name": "Ones", "config": {}}, "epsilon": 0.001, "momentum": 0.99, "gamma_constraint": null, "gamma_regularizer": null, "center": true, "trainable": true, "beta_constraint": null}, "class_name": "BatchNormalization"}, {"name": "add_31", "inbound_nodes": [[["activation_61", 0, 0, {}], ["batch_normalization_63", 0, 0, {}]]], "config": {"name": "add_31", "trainable": true}, "class_name": "Add"}, {"name": "activation_63", "inbound_nodes": [[["add_31", 0, 0, {}]]], "config": {"name": "activation_63", "trainable": true, "activation": "relu"}, "class_name": "Activation"}, {"name": "conv2d_65", "inbound_nodes": [[["activation_63", 0, 0, {}]]], "config": {"activity_regularizer": null, "kernel_initializer": {"class_name": "VarianceScaling", "config": {"mode": "fan_in", "distribution": "normal", "seed": null, "scale": 2.0}}, "filters": 32, "data_format": "channels_last", "name": "conv2d_65", "dilation_rate": [1, 1], "kernel_constraint": null, "bias_constraint": null, "activation": "linear", "strides": [1, 1], "kernel_size": [3, 3], "kernel_regularizer": {"class_name": "L1L2", "config": {"l2": 9.999999747378752e-05, "l1": 0.0}}, "bias_regularizer": null, "use_bias": true, "bias_initializer": {"class_name": "Zeros", "config": {}}, "trainable": true, "padding": "same"}, "class_name": "Conv2D"}, {"name": "batch_normalization_64", "inbound_nodes": [[["conv2d_65", 0, 0, {}]]], "config": {"moving_mean_initializer": {"class_name": "Zeros", "config": {}}, "beta_regularizer": null, "name": "batch_normalization_64", "gamma_initializer": {"class_name": "Ones", "config": {}}, "scale": true, "axis": -1, "beta_initializer": {"class_name": "Zeros", "config": {}}, "moving_variance_initializer": {"class_name": "Ones", "config": {}}, "epsilon": 0.001, "momentum": 0.99, "gamma_constraint": null, "gamma_regularizer": null, "center": true, "trainable": true, "beta_constraint": null}, "class_name": "BatchNormalization"}, {"name": "activation_64", "inbound_nodes": [[["batch_normalization_64", 0, 0, {}]]], "config": {"name": "activation_64", "trainable": true, "activation": "relu"}, "class_name": "Activation"}, {"name": "conv2d_66", "inbound_nodes": [[["activation_64", 0, 0, {}]]], "config": {"activity_regularizer": null, "kernel_initializer": {"class_name": "VarianceScaling", "config": {"mode": "fan_in", "distribution": "normal", "seed": null, "scale": 2.0}}, "filters": 32, "data_format": "channels_last", "name": "conv2d_66", "dilation_rate": [1, 1], "kernel_constraint": null, "bias_constraint": null, "activation": "linear", "strides": [1, 1], "kernel_size": [3, 3], "kernel_regularizer": {"class_name": "L1L2", "config": {"l2": 9.999999747378752e-05, "l1": 0.0}}, "bias_regularizer": null, "use_bias": true, "bias_initializer": {"class_name": "Zeros", "config": {}}, "trainable": true, "padding": "same"}, "class_name": "Conv2D"}, {"name": "batch_normalization_65", "inbound_nodes": [[["conv2d_66", 0, 0, {}]]], "config": {"moving_mean_initializer": {"class_name": "Zeros", "config": {}}, "beta_regularizer": null, "name": "batch_normalization_65", "gamma_initializer": {"class_name": "Ones", "config": {}}, "scale": true, "axis": -1, "beta_initializer": {"class_name": "Zeros", "config": {}}, "moving_variance_initializer": {"class_name": "Ones", "config": {}}, "epsilon": 0.001, "momentum": 0.99, "gamma_constraint": null, "gamma_regularizer": null, "center": true, "trainable": true, "beta_constraint": null}, "class_name": "BatchNormalization"}, {"name": "add_32", "inbound_nodes": [[["activation_63", 0, 0, {}], ["batch_normalization_65", 0, 0, {}]]], "config": {"name": "add_32", "trainable": true}, "class_name": "Add"}, {"name": "activation_65", "inbound_nodes": [[["add_32", 0, 0, {}]]], "config": {"name": "activation_65", "trainable": true, "activation": "relu"}, "class_name": "Activation"}, {"name": "conv2d_67", "inbound_nodes": [[["activation_65", 0, 0, {}]]], "config": {"activity_regularizer": null, "kernel_initializer": {"class_name": "VarianceScaling", "config": {"mode": "fan_in", "distribution": "normal", "seed": null, "scale": 2.0}}, "filters": 32, "data_format": "channels_last", "name": "conv2d_67", "dilation_rate": [1, 1], "kernel_constraint": null, "bias_constraint": null, "activation": "linear", "strides": [1, 1], "kernel_size": [3, 3], "kernel_regularizer": {"class_name": "L1L2", "config": {"l2": 9.999999747378752e-05, "l1": 0.0}}, "bias_regularizer": null, "use_bias": true, "bias_initializer": {"class_name": "Zeros", "config": {}}, "trainable": true, "padding": "same"}, "class_name": "Conv2D"}, {"name": "batch_normalization_66", "inbound_nodes": [[["conv2d_67", 0, 0, {}]]], "config": {"moving_mean_initializer": {"class_name": "Zeros", "config": {}}, "beta_regularizer": null, "name": "batch_normalization_66", "gamma_initializer": {"class_name": "Ones", "config": {}}, "scale": true, "axis": -1, "beta_initializer": {"class_name": "Zeros", "config": {}}, "moving_variance_initializer": {"class_name": "Ones", "config": {}}, "epsilon": 0.001, "momentum": 0.99, "gamma_constraint": null, "gamma_regularizer": null, "center": true, "trainable": true, "beta_constraint": null}, "class_name": "BatchNormalization"}, {"name": "activation_66", "inbound_nodes": [[["batch_normalization_66", 0, 0, {}]]], "config": {"name": "activation_66", "trainable": true, "activation": "relu"}, "class_name": "Activation"}, {"name": "conv2d_68", "inbound_nodes": [[["activation_66", 0, 0, {}]]], "config": {"activity_regularizer": null, "kernel_initializer": {"class_name": "VarianceScaling", "config": {"mode": "fan_in", "distribution": "normal", "seed": null, "scale": 2.0}}, "filters": 32, "data_format": "channels_last", "name": "conv2d_68", "dilation_rate": [1, 1], "kernel_constraint": null, "bias_constraint": null, "activation": "linear", "strides": [1, 1], "kernel_size": [3, 3], "kernel_regularizer": {"class_name": "L1L2", "config": {"l2": 9.999999747378752e-05, "l1": 0.0}}, "bias_regularizer": null, "use_bias": true, "bias_initializer": {"class_name": "Zeros", "config": {}}, "trainable": true, "padding": "same"}, "class_name": "Conv2D"}, {"name": "batch_normalization_67", "inbound_nodes": [[["conv2d_68", 0, 0, {}]]], "config": {"moving_mean_initializer": {"class_name": "Zeros", "config": {}}, "beta_regularizer": null, "name": "batch_normalization_67", "gamma_initializer": {"class_name": "Ones", "config": {}}, "scale": true, "axis": -1, "beta_initializer": {"class_name": "Zeros", "config": {}}, "moving_variance_initializer": {"class_name": "Ones", "config": {}}, "epsilon": 0.001, "momentum": 0.99, "gamma_constraint": null, "gamma_regularizer": null, "center": true, "trainable": true, "beta_constraint": null}, "class_name": "BatchNormalization"}, {"name": "add_33", "inbound_nodes": [[["activation_65", 0, 0, {}], ["batch_normalization_67", 0, 0, {}]]], "config": {"name": "add_33", "trainable": true}, "class_name": "Add"}, {"name": "activation_67", "inbound_nodes": [[["add_33", 0, 0, {}]]], "config": {"name": "activation_67", "trainable": true, "activation": "relu"}, "class_name": "Activation"}, {"name": "conv2d_69", "inbound_nodes": [[["activation_67", 0, 0, {}]]], "config": {"activity_regularizer": null, "kernel_initializer": {"class_name": "VarianceScaling", "config": {"mode": "fan_in", "distribution": "normal", "seed": null, "scale": 2.0}}, "filters": 32, "data_format": "channels_last", "name": "conv2d_69", "dilation_rate": [1, 1], "kernel_constraint": null, "bias_constraint": null, "activation": "linear", "strides": [1, 1], "kernel_size": [3, 3], "kernel_regularizer": {"class_name": "L1L2", "config": {"l2": 9.999999747378752e-05, "l1": 0.0}}, "bias_regularizer": null, "use_bias": true, "bias_initializer": {"class_name": "Zeros", "config": {}}, "trainable": true, "padding": "same"}, "class_name": "Conv2D"}, {"name": "batch_normalization_68", "inbound_nodes": [[["conv2d_69", 0, 0, {}]]], "config": {"moving_mean_initializer": {"class_name": "Zeros", "config": {}}, "beta_regularizer": null, "name": "batch_normalization_68", "gamma_initializer": {"class_name": "Ones", "config": {}}, "scale": true, "axis": -1, "beta_initializer": {"class_name": "Zeros", "config": {}}, "moving_variance_initializer": {"class_name": "Ones", "config": {}}, "epsilon": 0.001, "momentum": 0.99, "gamma_constraint": null, "gamma_regularizer": null, "center": true, "trainable": true, "beta_constraint": null}, "class_name": "BatchNormalization"}, {"name": "activation_68", "inbound_nodes": [[["batch_normalization_68", 0, 0, {}]]], "config": {"name": "activation_68", "trainable": true, "activation": "relu"}, "class_name": "Activation"}, {"name": "conv2d_70", "inbound_nodes": [[["activation_68", 0, 0, {}]]], "config": {"activity_regularizer": null, "kernel_initializer": {"class_name": "VarianceScaling", "config": {"mode": "fan_in", "distribution": "normal", "seed": null, "scale": 2.0}}, "filters": 32, "data_format": "channels_last", "name": "conv2d_70", "dilation_rate": [1, 1], "kernel_constraint": null, "bias_constraint": null, "activation": "linear", "strides": [1, 1], "kernel_size": [3, 3], "kernel_regularizer": {"class_name": "L1L2", "config": {"l2": 9.999999747378752e-05, "l1": 0.0}}, "bias_regularizer": null, "use_bias": true, "bias_initializer": {"class_name": "Zeros", "config": {}}, "trainable": true, "padding": "same"}, "class_name": "Conv2D"}, {"name": "batch_normalization_69", "inbound_nodes": [[["conv2d_70", 0, 0, {}]]], "config": {"moving_mean_initializer": {"class_name": "Zeros", "config": {}}, "beta_regularizer": null, "name": "batch_normalization_69", "gamma_initializer": {"class_name": "Ones", "config": {}}, "scale": true, "axis": -1, "beta_initializer": {"class_name": "Zeros", "config": {}}, "moving_variance_initializer": {"class_name": "Ones", "config": {}}, "epsilon": 0.001, "momentum": 0.99, "gamma_constraint": null, "gamma_regularizer": null, "center": true, "trainable": true, "beta_constraint": null}, "class_name": "BatchNormalization"}, {"name": "add_34", "inbound_nodes": [[["activation_67", 0, 0, {}], ["batch_normalization_69", 0, 0, {}]]], "config": {"name": "add_34", "trainable": true}, "class_name": "Add"}, {"name": "activation_69", "inbound_nodes": [[["add_34", 0, 0, {}]]], "config": {"name": "activation_69", "trainable": true, "activation": "relu"}, "class_name": "Activation"}, {"name": "conv2d_71", "inbound_nodes": [[["activation_69", 0, 0, {}]]], "config": {"activity_regularizer": null, "kernel_initializer": {"class_name": "VarianceScaling", "config": {"mode": "fan_in", "distribution": "normal", "seed": null, "scale": 2.0}}, "filters": 32, "data_format": "channels_last", "name": "conv2d_71", "dilation_rate": [1, 1], "kernel_constraint": null, "bias_constraint": null, "activation": "linear", "strides": [1, 1], "kernel_size": [3, 3], "kernel_regularizer": {"class_name": "L1L2", "config": {"l2": 9.999999747378752e-05, "l1": 0.0}}, "bias_regularizer": null, "use_bias": true, "bias_initializer": {"class_name": "Zeros", "config": {}}, "trainable": true, "padding": "same"}, "class_name": "Conv2D"}, {"name": "batch_normalization_70", "inbound_nodes": [[["conv2d_71", 0, 0, {}]]], "config": {"moving_mean_initializer": {"class_name": "Zeros", "config": {}}, "beta_regularizer": null, "name": "batch_normalization_70", "gamma_initializer": {"class_name": "Ones", "config": {}}, "scale": true, "axis": -1, "beta_initializer": {"class_name": "Zeros", "config": {}}, "moving_variance_initializer": {"class_name": "Ones", "config": {}}, "epsilon": 0.001, "momentum": 0.99, "gamma_constraint": null, "gamma_regularizer": null, "center": true, "trainable": true, "beta_constraint": null}, "class_name": "BatchNormalization"}, {"name": "activation_70", "inbound_nodes": [[["batch_normalization_70", 0, 0, {}]]], "config": {"name": "activation_70", "trainable": true, "activation": "relu"}, "class_name": "Activation"}, {"name": "conv2d_72", "inbound_nodes": [[["activation_70", 0, 0, {}]]], "config": {"activity_regularizer": null, "kernel_initializer": {"class_name": "VarianceScaling", "config": {"mode": "fan_in", "distribution": "normal", "seed": null, "scale": 2.0}}, "filters": 32, "data_format": "channels_last", "name": "conv2d_72", "dilation_rate": [1, 1], "kernel_constraint": null, "bias_constraint": null, "activation": "linear", "strides": [1, 1], "kernel_size": [3, 3], "kernel_regularizer": {"class_name": "L1L2", "config": {"l2": 9.999999747378752e-05, "l1": 0.0}}, "bias_regularizer": null, "use_bias": true, "bias_initializer": {"class_name": "Zeros", "config": {}}, "trainable": true, "padding": "same"}, "class_name": "Conv2D"}, {"name": "batch_normalization_71", "inbound_nodes": [[["conv2d_72", 0, 0, {}]]], "config": {"moving_mean_initializer": {"class_name": "Zeros", "config": {}}, "beta_regularizer": null, "name": "batch_normalization_71", "gamma_initializer": {"class_name": "Ones", "config": {}}, "scale": true, "axis": -1, "beta_initializer": {"class_name": "Zeros", "config": {}}, "moving_variance_initializer": {"class_name": "Ones", "config": {}}, "epsilon": 0.001, "momentum": 0.99, "gamma_constraint": null, "gamma_regularizer": null, "center": true, "trainable": true, "beta_constraint": null}, "class_name": "BatchNormalization"}, {"name": "add_35", "inbound_nodes": [[["activation_69", 0, 0, {}], ["batch_normalization_71", 0, 0, {}]]], "config": {"name": "add_35", "trainable": true}, "class_name": "Add"}, {"name": "activation_71", "inbound_nodes": [[["add_35", 0, 0, {}]]], "config": {"name": "activation_71", "trainable": true, "activation": "relu"}, "class_name": "Activation"}, {"name": "conv2d_73", "inbound_nodes": [[["activation_71", 0, 0, {}]]], "config": {"activity_regularizer": null, "kernel_initializer": {"class_name": "VarianceScaling", "config": {"mode": "fan_in", "distribution": "normal", "seed": null, "scale": 2.0}}, "filters": 32, "data_format": "channels_last", "name": "conv2d_73", "dilation_rate": [1, 1], "kernel_constraint": null, "bias_constraint": null, "activation": "linear", "strides": [1, 1], "kernel_size": [3, 3], "kernel_regularizer": {"class_name": "L1L2", "config": {"l2": 9.999999747378752e-05, "l1": 0.0}}, "bias_regularizer": null, "use_bias": true, "bias_initializer": {"class_name": "Zeros", "config": {}}, "trainable": true, "padding": "same"}, "class_name": "Conv2D"}, {"name": "batch_normalization_72", "inbound_nodes": [[["conv2d_73", 0, 0, {}]]], "config": {"moving_mean_initializer": {"class_name": "Zeros", "config": {}}, "beta_regularizer": null, "name": "batch_normalization_72", "gamma_initializer": {"class_name": "Ones", "config": {}}, "scale": true, "axis": -1, "beta_initializer": {"class_name": "Zeros", "config": {}}, "moving_variance_initializer": {"class_name": "Ones", "config": {}}, "epsilon": 0.001, "momentum": 0.99, "gamma_constraint": null, "gamma_regularizer": null, "center": true, "trainable": true, "beta_constraint": null}, "class_name": "BatchNormalization"}, {"name": "activation_72", "inbound_nodes": [[["batch_normalization_72", 0, 0, {}]]], "config": {"name": "activation_72", "trainable": true, "activation": "relu"}, "class_name": "Activation"}, {"name": "conv2d_74", "inbound_nodes": [[["activation_72", 0, 0, {}]]], "config": {"activity_regularizer": null, "kernel_initializer": {"class_name": "VarianceScaling", "config": {"mode": "fan_in", "distribution": "normal", "seed": null, "scale": 2.0}}, "filters": 32, "data_format": "channels_last", "name": "conv2d_74", "dilation_rate": [1, 1], "kernel_constraint": null, "bias_constraint": null, "activation": "linear", "strides": [1, 1], "kernel_size": [3, 3], "kernel_regularizer": {"class_name": "L1L2", "config": {"l2": 9.999999747378752e-05, "l1": 0.0}}, "bias_regularizer": null, "use_bias": true, "bias_initializer": {"class_name": "Zeros", "config": {}}, "trainable": true, "padding": "same"}, "class_name": "Conv2D"}, {"name": "batch_normalization_73", "inbound_nodes": [[["conv2d_74", 0, 0, {}]]], "config": {"moving_mean_initializer": {"class_name": "Zeros", "config": {}}, "beta_regularizer": null, "name": "batch_normalization_73", "gamma_initializer": {"class_name": "Ones", "config": {}}, "scale": true, "axis": -1, "beta_initializer": {"class_name": "Zeros", "config": {}}, "moving_variance_initializer": {"class_name": "Ones", "config": {}}, "epsilon": 0.001, "momentum": 0.99, "gamma_constraint": null, "gamma_regularizer": null, "center": true, "trainable": true, "beta_constraint": null}, "class_name": "BatchNormalization"}, {"name": "add_36", "inbound_nodes": [[["activation_71", 0, 0, {}], ["batch_normalization_73", 0, 0, {}]]], "config": {"name": "add_36", "trainable": true}, "class_name": "Add"}, {"name": "activation_73", "inbound_nodes": [[["add_36", 0, 0, {}]]], "config": {"name": "activation_73", "trainable": true, "activation": "relu"}, "class_name": "Activation"}, {"name": "conv2d_75", "inbound_nodes": [[["activation_73", 0, 0, {}]]], "config": {"activity_regularizer": null, "kernel_initializer": {"class_name": "VarianceScaling", "config": {"mode": "fan_in", "distribution": "normal", "seed": null, "scale": 2.0}}, "filters": 64, "data_format": "channels_last", "name": "conv2d_75", "dilation_rate": [1, 1], "kernel_constraint": null, "bias_constraint": null, "activation": "linear", "strides": [2, 2], "kernel_size": [3, 3], "kernel_regularizer": {"class_name": "L1L2", "config": {"l2": 9.999999747378752e-05, "l1": 0.0}}, "bias_regularizer": null, "use_bias": true, "bias_initializer": {"class_name": "Zeros", "config": {}}, "trainable": true, "padding": "same"}, "class_name": "Conv2D"}, {"name": "batch_normalization_74", "inbound_nodes": [[["conv2d_75", 0, 0, {}]]], "config": {"moving_mean_initializer": {"class_name": "Zeros", "config": {}}, "beta_regularizer": null, "name": "batch_normalization_74", "gamma_initializer": {"class_name": "Ones", "config": {}}, "scale": true, "axis": -1, "beta_initializer": {"class_name": "Zeros", "config": {}}, "moving_variance_initializer": {"class_name": "Ones", "config": {}}, "epsilon": 0.001, "momentum": 0.99, "gamma_constraint": null, "gamma_regularizer": null, "center": true, "trainable": true, "beta_constraint": null}, "class_name": "BatchNormalization"}, {"name": "activation_74", "inbound_nodes": [[["batch_normalization_74", 0, 0, {}]]], "config": {"name": "activation_74", "trainable": true, "activation": "relu"}, "class_name": "Activation"}, {"name": "conv2d_76", "inbound_nodes": [[["activation_74", 0, 0, {}]]], "config": {"activity_regularizer": null, "kernel_initializer": {"class_name": "VarianceScaling", "config": {"mode": "fan_in", "distribution": "normal", "seed": null, "scale": 2.0}}, "filters": 64, "data_format": "channels_last", "name": "conv2d_76", "dilation_rate": [1, 1], "kernel_constraint": null, "bias_constraint": null, "activation": "linear", "strides": [1, 1], "kernel_size": [3, 3], "kernel_regularizer": {"class_name": "L1L2", "config": {"l2": 9.999999747378752e-05, "l1": 0.0}}, "bias_regularizer": null, "use_bias": true, "bias_initializer": {"class_name": "Zeros", "config": {}}, "trainable": true, "padding": "same"}, "class_name": "Conv2D"}, {"name": "conv2d_77", "inbound_nodes": [[["activation_73", 0, 0, {}]]], "config": {"activity_regularizer": null, "kernel_initializer": {"class_name": "VarianceScaling", "config": {"mode": "fan_in", "distribution": "normal", "seed": null, "scale": 2.0}}, "filters": 64, "data_format": "channels_last", "name": "conv2d_77", "dilation_rate": [1, 1], "kernel_constraint": null, "bias_constraint": null, "activation": "linear", "strides": [2, 2], "kernel_size": [1, 1], "kernel_regularizer": {"class_name": "L1L2", "config": {"l2": 9.999999747378752e-05, "l1": 0.0}}, "bias_regularizer": null, "use_bias": true, "bias_initializer": {"class_name": "Zeros", "config": {}}, "trainable": true, "padding": "same"}, "class_name": "Conv2D"}, {"name": "batch_normalization_75", "inbound_nodes": [[["conv2d_76", 0, 0, {}]]], "config": {"moving_mean_initializer": {"class_name": "Zeros", "config": {}}, "beta_regularizer": null, "name": "batch_normalization_75", "gamma_initializer": {"class_name": "Ones", "config": {}}, "scale": true, "axis": -1, "beta_initializer": {"class_name": "Zeros", "config": {}}, "moving_variance_initializer": {"class_name": "Ones", "config": {}}, "epsilon": 0.001, "momentum": 0.99, "gamma_constraint": null, "gamma_regularizer": null, "center": true, "trainable": true, "beta_constraint": null}, "class_name": "BatchNormalization"}, {"name": "add_37", "inbound_nodes": [[["conv2d_77", 0, 0, {}], ["batch_normalization_75", 0, 0, {}]]], "config": {"name": "add_37", "trainable": true}, "class_name": "Add"}, {"name": "LastAct", "inbound_nodes": [[["add_37", 0, 0, {}]]], "config": {"name": "LastAct", "trainable": true, "activation": "relu"}, "class_name": "Activation"}, {"name": "average_pooling2d_19", "inbound_nodes": [[["LastAct", 0, 0, {}]]], "config": {"strides": [8, 8], "data_format": "channels_last", "name": "average_pooling2d_19", "padding": "valid", "trainable": true, "pool_size": [8, 8]}, "class_name": "AveragePooling2D"}, {"name": "flatten_19", "inbound_nodes": [[["average_pooling2d_19", 0, 0, {}]]], "config": {"name": "flatten_19", "trainable": true}, "class_name": "Flatten"}, {"name": "dense_1", "inbound_nodes": [[["flatten_19", 0, 0, {}]]], "config": {"activity_regularizer": null, "kernel_initializer": {"class_name": "VarianceScaling", "config": {"mode": "fan_in", "distribution": "normal", "seed": null, "scale": 2.0}}, "name": "dense_1", "kernel_constraint": null, "bias_constraint": null, "activation": "softmax", "units": 10, "kernel_regularizer": null, "bias_regularizer": null, "use_bias": true, "bias_initializer": {"class_name": "Zeros", "config": {}}, "trainable": true}, "class_name": "Dense"}], "name": "model_2"}, "backend": "tensorflow"}