{"backend": "tensorflow", "config": {"name": "model_258", "layers": [{"name": "input_12", "config": {"name": "input_12", "dtype": "float32", "batch_input_shape": [null, 32, 32, 3], "sparse": false}, "inbound_nodes": [], "class_name": "InputLayer"}, {"name": "conv2d_1", "config": {"kernel_regularizer": {"config": {"l1": 0.0, "l2": 9.999999747378752e-05}, "class_name": "L1L2"}, "kernel_size": [3, 3], "filters": 16, "kernel_constraint": null, "name": "conv2d_1", "activation": "linear", "dilation_rate": [1, 1], "bias_regularizer": null, "trainable": true, "kernel_initializer": {"config": {"seed": null, "mode": "fan_avg", "scale": 1.0, "distribution": "uniform"}, "class_name": "VarianceScaling"}, "data_format": "channels_last", "bias_initializer": {"config": {}, "class_name": "Zeros"}, "padding": "same", "strides": [1, 1], "activity_regularizer": null, "bias_constraint": null, "use_bias": true}, "inbound_nodes": [[["input_12", 0, 0, {}]]], "class_name": "Conv2D"}, {"name": "batch_normalization_196", "config": {"momentum": 0.99, "moving_variance_initializer": {"config": {}, "class_name": "Ones"}, "name": "batch_normalization_196", "beta_regularizer": null, "moving_mean_initializer": {"config": {}, "class_name": "Zeros"}, "center": true, "gamma_constraint": null, "scale": true, "axis": -1, "trainable": true, "beta_initializer": {"config": {}, "class_name": "Zeros"}, "beta_constraint": null, "gamma_initializer": {"config": {}, "class_name": "Ones"}, "epsilon": 0.001, "gamma_regularizer": null}, "inbound_nodes": [[["conv2d_1", 0, 0, {}]]], "class_name": "BatchNormalization"}, {"name": "activation_1", "config": {"name": "activation_1", "activation": "relu", "trainable": true}, "inbound_nodes": [[["batch_normalization_196", 0, 0, {}]]], "class_name": "Activation"}, {"name": "conv2d_2", "config": {"kernel_regularizer": {"config": {"l1": 0.0, "l2": 9.999999747378752e-05}, "class_name": "L1L2"}, "kernel_size": [3, 3], "filters": 14, "kernel_constraint": null, "name": "conv2d_2", "activation": "linear", "dilation_rate": [1, 1], "bias_regularizer": null, "trainable": true, "kernel_initializer": {"config": {"seed": null, "mode": "fan_avg", "scale": 1.0, "distribution": "uniform"}, "class_name": "VarianceScaling"}, "data_format": "channels_last", "bias_initializer": {"config": {}, "class_name": "Zeros"}, "padding": "same", "strides": [1, 1], "activity_regularizer": null, "bias_constraint": null, "use_bias": true}, "inbound_nodes": [[["activation_1", 0, 0, {}]]], "class_name": "Conv2D"}, {"name": "batch_normalization_197", "config": {"momentum": 0.99, "moving_variance_initializer": {"config": {}, "class_name": "Ones"}, "name": "batch_normalization_197", "beta_regularizer": null, "moving_mean_initializer": {"config": {}, "class_name": "Zeros"}, "center": true, "gamma_constraint": null, "scale": true, "axis": -1, "trainable": true, "beta_initializer": {"config": {}, "class_name": "Zeros"}, "beta_constraint": null, "gamma_initializer": {"config": {}, "class_name": "Ones"}, "epsilon": 0.001, "gamma_regularizer": null}, "inbound_nodes": [[["conv2d_2", 0, 0, {}]]], "class_name": "BatchNormalization"}, {"name": "activation_2", "config": {"name": "activation_2", "activation": "relu", "trainable": true}, "inbound_nodes": [[["batch_normalization_197", 0, 0, {}]]], "class_name": "Activation"}, {"name": "conv2d_3", "config": {"kernel_regularizer": {"config": {"l1": 0.0, "l2": 9.999999747378752e-05}, "class_name": "L1L2"}, "kernel_size": [3, 3], "filters": 16, "kernel_constraint": null, "name": "conv2d_3", "activation": "linear", "dilation_rate": [1, 1], "bias_regularizer": null, "trainable": true, "kernel_initializer": {"config": {"seed": null, "mode": "fan_avg", "scale": 1.0, "distribution": "uniform"}, "class_name": "VarianceScaling"}, "data_format": "channels_last", "bias_initializer": {"config": {}, "class_name": "Zeros"}, "padding": "same", "strides": [1, 1], "activity_regularizer": null, "bias_constraint": null, "use_bias": true}, "inbound_nodes": [[["activation_2", 0, 0, {}]]], "class_name": "Conv2D"}, {"name": "batch_normalization_198", "config": {"momentum": 0.99, "moving_variance_initializer": {"config": {}, "class_name": "Ones"}, "name": "batch_normalization_198", "beta_regularizer": null, "moving_mean_initializer": {"config": {}, "class_name": "Zeros"}, "center": true, "gamma_constraint": null, "scale": true, "axis": -1, "trainable": true, "beta_initializer": {"config": {}, "class_name": "Zeros"}, "beta_constraint": null, "gamma_initializer": {"config": {}, "class_name": "Ones"}, "epsilon": 0.001, "gamma_regularizer": null}, "inbound_nodes": [[["conv2d_3", 0, 0, {}]]], "class_name": "BatchNormalization"}, {"name": "add_96", "config": {"name": "add_96", "trainable": true}, "inbound_nodes": [[["activation_1", 0, 0, {}], ["batch_normalization_198", 0, 0, {}]]], "class_name": "Add"}, {"name": "activation_3", "config": {"name": "activation_3", "activation": "relu", "trainable": true}, "inbound_nodes": [[["add_96", 0, 0, {}]]], "class_name": "Activation"}, {"name": "conv2d_4", "config": {"kernel_regularizer": {"config": {"l1": 0.0, "l2": 9.999999747378752e-05}, "class_name": "L1L2"}, "kernel_size": [3, 3], "filters": 9, "kernel_constraint": null, "name": "conv2d_4", "activation": "linear", "dilation_rate": [1, 1], "bias_regularizer": null, "trainable": true, "kernel_initializer": {"config": {"seed": null, "mode": "fan_avg", "scale": 1.0, "distribution": "uniform"}, "class_name": "VarianceScaling"}, "data_format": "channels_last", "bias_initializer": {"config": {}, "class_name": "Zeros"}, "padding": "same", "strides": [1, 1], "activity_regularizer": null, "bias_constraint": null, "use_bias": true}, "inbound_nodes": [[["activation_3", 0, 0, {}]]], "class_name": "Conv2D"}, {"name": "batch_normalization_199", "config": {"momentum": 0.99, "moving_variance_initializer": {"config": {}, "class_name": "Ones"}, "name": "batch_normalization_199", "beta_regularizer": null, "moving_mean_initializer": {"config": {}, "class_name": "Zeros"}, "center": true, "gamma_constraint": null, "scale": true, "axis": -1, "trainable": true, "beta_initializer": {"config": {}, "class_name": "Zeros"}, "beta_constraint": null, "gamma_initializer": {"config": {}, "class_name": "Ones"}, "epsilon": 0.001, "gamma_regularizer": null}, "inbound_nodes": [[["conv2d_4", 0, 0, {}]]], "class_name": "BatchNormalization"}, {"name": "activation_4", "config": {"name": "activation_4", "activation": "relu", "trainable": true}, "inbound_nodes": [[["batch_normalization_199", 0, 0, {}]]], "class_name": "Activation"}, {"name": "conv2d_5", "config": {"kernel_regularizer": {"config": {"l1": 0.0, "l2": 9.999999747378752e-05}, "class_name": "L1L2"}, "kernel_size": [3, 3], "filters": 16, "kernel_constraint": null, "name": "conv2d_5", "activation": "linear", "dilation_rate": [1, 1], "bias_regularizer": null, "trainable": true, "kernel_initializer": {"config": {"seed": null, "mode": "fan_avg", "scale": 1.0, "distribution": "uniform"}, "class_name": "VarianceScaling"}, "data_format": "channels_last", "bias_initializer": {"config": {}, "class_name": "Zeros"}, "padding": "same", "strides": [1, 1], "activity_regularizer": null, "bias_constraint": null, "use_bias": true}, "inbound_nodes": [[["activation_4", 0, 0, {}]]], "class_name": "Conv2D"}, {"name": "batch_normalization_200", "config": {"momentum": 0.99, "moving_variance_initializer": {"config": {}, "class_name": "Ones"}, "name": "batch_normalization_200", "beta_regularizer": null, "moving_mean_initializer": {"config": {}, "class_name": "Zeros"}, "center": true, "gamma_constraint": null, "scale": true, "axis": -1, "trainable": true, "beta_initializer": {"config": {}, "class_name": "Zeros"}, "beta_constraint": null, "gamma_initializer": {"config": {}, "class_name": "Ones"}, "epsilon": 0.001, "gamma_regularizer": null}, "inbound_nodes": [[["conv2d_5", 0, 0, {}]]], "class_name": "BatchNormalization"}, {"name": "add_97", "config": {"name": "add_97", "trainable": true}, "inbound_nodes": [[["activation_3", 0, 0, {}], ["batch_normalization_200", 0, 0, {}]]], "class_name": "Add"}, {"name": "activation_5", "config": {"name": "activation_5", "activation": "relu", "trainable": true}, "inbound_nodes": [[["add_97", 0, 0, {}]]], "class_name": "Activation"}, {"name": "conv2d_6", "config": {"kernel_regularizer": {"config": {"l1": 0.0, "l2": 9.999999747378752e-05}, "class_name": "L1L2"}, "kernel_size": [3, 3], "filters": 9, "kernel_constraint": null, "name": "conv2d_6", "activation": "linear", "dilation_rate": [1, 1], "bias_regularizer": null, "trainable": true, "kernel_initializer": {"config": {"seed": null, "mode": "fan_avg", "scale": 1.0, "distribution": "uniform"}, "class_name": "VarianceScaling"}, "data_format": "channels_last", "bias_initializer": {"config": {}, "class_name": "Zeros"}, "padding": "same", "strides": [1, 1], "activity_regularizer": null, "bias_constraint": null, "use_bias": true}, "inbound_nodes": [[["activation_5", 0, 0, {}]]], "class_name": "Conv2D"}, {"name": "batch_normalization_201", "config": {"momentum": 0.99, "moving_variance_initializer": {"config": {}, "class_name": "Ones"}, "name": "batch_normalization_201", "beta_regularizer": null, "moving_mean_initializer": {"config": {}, "class_name": "Zeros"}, "center": true, "gamma_constraint": null, "scale": true, "axis": -1, "trainable": true, "beta_initializer": {"config": {}, "class_name": "Zeros"}, "beta_constraint": null, "gamma_initializer": {"config": {}, "class_name": "Ones"}, "epsilon": 0.001, "gamma_regularizer": null}, "inbound_nodes": [[["conv2d_6", 0, 0, {}]]], "class_name": "BatchNormalization"}, {"name": "activation_6", "config": {"name": "activation_6", "activation": "relu", "trainable": true}, "inbound_nodes": [[["batch_normalization_201", 0, 0, {}]]], "class_name": "Activation"}, {"name": "conv2d_7", "config": {"kernel_regularizer": {"config": {"l1": 0.0, "l2": 9.999999747378752e-05}, "class_name": "L1L2"}, "kernel_size": [3, 3], "filters": 16, "kernel_constraint": null, "name": "conv2d_7", "activation": "linear", "dilation_rate": [1, 1], "bias_regularizer": null, "trainable": true, "kernel_initializer": {"config": {"seed": null, "mode": "fan_avg", "scale": 1.0, "distribution": "uniform"}, "class_name": "VarianceScaling"}, "data_format": "channels_last", "bias_initializer": {"config": {}, "class_name": "Zeros"}, "padding": "same", "strides": [1, 1], "activity_regularizer": null, "bias_constraint": null, "use_bias": true}, "inbound_nodes": [[["activation_6", 0, 0, {}]]], "class_name": "Conv2D"}, {"name": "batch_normalization_202", "config": {"momentum": 0.99, "moving_variance_initializer": {"config": {}, "class_name": "Ones"}, "name": "batch_normalization_202", "beta_regularizer": null, "moving_mean_initializer": {"config": {}, "class_name": "Zeros"}, "center": true, "gamma_constraint": null, "scale": true, "axis": -1, "trainable": true, "beta_initializer": {"config": {}, "class_name": "Zeros"}, "beta_constraint": null, "gamma_initializer": {"config": {}, "class_name": "Ones"}, "epsilon": 0.001, "gamma_regularizer": null}, "inbound_nodes": [[["conv2d_7", 0, 0, {}]]], "class_name": "BatchNormalization"}, {"name": "add_98", "config": {"name": "add_98", "trainable": true}, "inbound_nodes": [[["activation_5", 0, 0, {}], ["batch_normalization_202", 0, 0, {}]]], "class_name": "Add"}, {"name": "activation_7", "config": {"name": "activation_7", "activation": "relu", "trainable": true}, "inbound_nodes": [[["add_98", 0, 0, {}]]], "class_name": "Activation"}, {"name": "conv2d_8", "config": {"kernel_regularizer": {"config": {"l1": 0.0, "l2": 9.999999747378752e-05}, "class_name": "L1L2"}, "kernel_size": [3, 3], "filters": 9, "kernel_constraint": null, "name": "conv2d_8", "activation": "linear", "dilation_rate": [1, 1], "bias_regularizer": null, "trainable": true, "kernel_initializer": {"config": {"seed": null, "mode": "fan_avg", "scale": 1.0, "distribution": "uniform"}, "class_name": "VarianceScaling"}, "data_format": "channels_last", "bias_initializer": {"config": {}, "class_name": "Zeros"}, "padding": "same", "strides": [1, 1], "activity_regularizer": null, "bias_constraint": null, "use_bias": true}, "inbound_nodes": [[["activation_7", 0, 0, {}]]], "class_name": "Conv2D"}, {"name": "batch_normalization_203", "config": {"momentum": 0.99, "moving_variance_initializer": {"config": {}, "class_name": "Ones"}, "name": "batch_normalization_203", "beta_regularizer": null, "moving_mean_initializer": {"config": {}, "class_name": "Zeros"}, "center": true, "gamma_constraint": null, "scale": true, "axis": -1, "trainable": true, "beta_initializer": {"config": {}, "class_name": "Zeros"}, "beta_constraint": null, "gamma_initializer": {"config": {}, "class_name": "Ones"}, "epsilon": 0.001, "gamma_regularizer": null}, "inbound_nodes": [[["conv2d_8", 0, 0, {}]]], "class_name": "BatchNormalization"}, {"name": "activation_8", "config": {"name": "activation_8", "activation": "relu", "trainable": true}, "inbound_nodes": [[["batch_normalization_203", 0, 0, {}]]], "class_name": "Activation"}, {"name": "conv2d_9", "config": {"kernel_regularizer": {"config": {"l1": 0.0, "l2": 9.999999747378752e-05}, "class_name": "L1L2"}, "kernel_size": [3, 3], "filters": 16, "kernel_constraint": null, "name": "conv2d_9", "activation": "linear", "dilation_rate": [1, 1], "bias_regularizer": null, "trainable": true, "kernel_initializer": {"config": {"seed": null, "mode": "fan_avg", "scale": 1.0, "distribution": "uniform"}, "class_name": "VarianceScaling"}, "data_format": "channels_last", "bias_initializer": {"config": {}, "class_name": "Zeros"}, "padding": "same", "strides": [1, 1], "activity_regularizer": null, "bias_constraint": null, "use_bias": true}, "inbound_nodes": [[["activation_8", 0, 0, {}]]], "class_name": "Conv2D"}, {"name": "batch_normalization_204", "config": {"momentum": 0.99, "moving_variance_initializer": {"config": {}, "class_name": "Ones"}, "name": "batch_normalization_204", "beta_regularizer": null, "moving_mean_initializer": {"config": {}, "class_name": "Zeros"}, "center": true, "gamma_constraint": null, "scale": true, "axis": -1, "trainable": true, "beta_initializer": {"config": {}, "class_name": "Zeros"}, "beta_constraint": null, "gamma_initializer": {"config": {}, "class_name": "Ones"}, "epsilon": 0.001, "gamma_regularizer": null}, "inbound_nodes": [[["conv2d_9", 0, 0, {}]]], "class_name": "BatchNormalization"}, {"name": "add_99", "config": {"name": "add_99", "trainable": true}, "inbound_nodes": [[["activation_7", 0, 0, {}], ["batch_normalization_204", 0, 0, {}]]], "class_name": "Add"}, {"name": "activation_9", "config": {"name": "activation_9", "activation": "relu", "trainable": true}, "inbound_nodes": [[["add_99", 0, 0, {}]]], "class_name": "Activation"}, {"name": "conv2d_10", "config": {"kernel_regularizer": {"config": {"l1": 0.0, "l2": 9.999999747378752e-05}, "class_name": "L1L2"}, "kernel_size": [3, 3], "filters": 7, "kernel_constraint": null, "name": "conv2d_10", "activation": "linear", "dilation_rate": [1, 1], "bias_regularizer": null, "trainable": true, "kernel_initializer": {"config": {"seed": null, "mode": "fan_avg", "scale": 1.0, "distribution": "uniform"}, "class_name": "VarianceScaling"}, "data_format": "channels_last", "bias_initializer": {"config": {}, "class_name": "Zeros"}, "padding": "same", "strides": [1, 1], "activity_regularizer": null, "bias_constraint": null, "use_bias": true}, "inbound_nodes": [[["activation_9", 0, 0, {}]]], "class_name": "Conv2D"}, {"name": "batch_normalization_205", "config": {"momentum": 0.99, "moving_variance_initializer": {"config": {}, "class_name": "Ones"}, "name": "batch_normalization_205", "beta_regularizer": null, "moving_mean_initializer": {"config": {}, "class_name": "Zeros"}, "center": true, "gamma_constraint": null, "scale": true, "axis": -1, "trainable": true, "beta_initializer": {"config": {}, "class_name": "Zeros"}, "beta_constraint": null, "gamma_initializer": {"config": {}, "class_name": "Ones"}, "epsilon": 0.001, "gamma_regularizer": null}, "inbound_nodes": [[["conv2d_10", 0, 0, {}]]], "class_name": "BatchNormalization"}, {"name": "activation_10", "config": {"name": "activation_10", "activation": "relu", "trainable": true}, "inbound_nodes": [[["batch_normalization_205", 0, 0, {}]]], "class_name": "Activation"}, {"name": "conv2d_11", "config": {"kernel_regularizer": {"config": {"l1": 0.0, "l2": 9.999999747378752e-05}, "class_name": "L1L2"}, "kernel_size": [3, 3], "filters": 16, "kernel_constraint": null, "name": "conv2d_11", "activation": "linear", "dilation_rate": [1, 1], "bias_regularizer": null, "trainable": true, "kernel_initializer": {"config": {"seed": null, "mode": "fan_avg", "scale": 1.0, "distribution": "uniform"}, "class_name": "VarianceScaling"}, "data_format": "channels_last", "bias_initializer": {"config": {}, "class_name": "Zeros"}, "padding": "same", "strides": [1, 1], "activity_regularizer": null, "bias_constraint": null, "use_bias": true}, "inbound_nodes": [[["activation_10", 0, 0, {}]]], "class_name": "Conv2D"}, {"name": "batch_normalization_206", "config": {"momentum": 0.99, "moving_variance_initializer": {"config": {}, "class_name": "Ones"}, "name": "batch_normalization_206", "beta_regularizer": null, "moving_mean_initializer": {"config": {}, "class_name": "Zeros"}, "center": true, "gamma_constraint": null, "scale": true, "axis": -1, "trainable": true, "beta_initializer": {"config": {}, "class_name": "Zeros"}, "beta_constraint": null, "gamma_initializer": {"config": {}, "class_name": "Ones"}, "epsilon": 0.001, "gamma_regularizer": null}, "inbound_nodes": [[["conv2d_11", 0, 0, {}]]], "class_name": "BatchNormalization"}, {"name": "add_100", "config": {"name": "add_100", "trainable": true}, "inbound_nodes": [[["activation_9", 0, 0, {}], ["batch_normalization_206", 0, 0, {}]]], "class_name": "Add"}, {"name": "activation_11", "config": {"name": "activation_11", "activation": "relu", "trainable": true}, "inbound_nodes": [[["add_100", 0, 0, {}]]], "class_name": "Activation"}, {"name": "conv2d_12", "config": {"kernel_regularizer": {"config": {"l1": 0.0, "l2": 9.999999747378752e-05}, "class_name": "L1L2"}, "kernel_size": [3, 3], "filters": 3, "kernel_constraint": null, "name": "conv2d_12", "activation": "linear", "dilation_rate": [1, 1], "bias_regularizer": null, "trainable": true, "kernel_initializer": {"config": {"seed": null, "mode": "fan_avg", "scale": 1.0, "distribution": "uniform"}, "class_name": "VarianceScaling"}, "data_format": "channels_last", "bias_initializer": {"config": {}, "class_name": "Zeros"}, "padding": "same", "strides": [1, 1], "activity_regularizer": null, "bias_constraint": null, "use_bias": true}, "inbound_nodes": [[["activation_11", 0, 0, {}]]], "class_name": "Conv2D"}, {"name": "batch_normalization_207", "config": {"momentum": 0.99, "moving_variance_initializer": {"config": {}, "class_name": "Ones"}, "name": "batch_normalization_207", "beta_regularizer": null, "moving_mean_initializer": {"config": {}, "class_name": "Zeros"}, "center": true, "gamma_constraint": null, "scale": true, "axis": -1, "trainable": true, "beta_initializer": {"config": {}, "class_name": "Zeros"}, "beta_constraint": null, "gamma_initializer": {"config": {}, "class_name": "Ones"}, "epsilon": 0.001, "gamma_regularizer": null}, "inbound_nodes": [[["conv2d_12", 0, 0, {}]]], "class_name": "BatchNormalization"}, {"name": "activation_12", "config": {"name": "activation_12", "activation": "relu", "trainable": true}, "inbound_nodes": [[["batch_normalization_207", 0, 0, {}]]], "class_name": "Activation"}, {"name": "conv2d_13", "config": {"kernel_regularizer": {"config": {"l1": 0.0, "l2": 9.999999747378752e-05}, "class_name": "L1L2"}, "kernel_size": [3, 3], "filters": 16, "kernel_constraint": null, "name": "conv2d_13", "activation": "linear", "dilation_rate": [1, 1], "bias_regularizer": null, "trainable": true, "kernel_initializer": {"config": {"seed": null, "mode": "fan_avg", "scale": 1.0, "distribution": "uniform"}, "class_name": "VarianceScaling"}, "data_format": "channels_last", "bias_initializer": {"config": {}, "class_name": "Zeros"}, "padding": "same", "strides": [1, 1], "activity_regularizer": null, "bias_constraint": null, "use_bias": true}, "inbound_nodes": [[["activation_12", 0, 0, {}]]], "class_name": "Conv2D"}, {"name": "batch_normalization_208", "config": {"momentum": 0.99, "moving_variance_initializer": {"config": {}, "class_name": "Ones"}, "name": "batch_normalization_208", "beta_regularizer": null, "moving_mean_initializer": {"config": {}, "class_name": "Zeros"}, "center": true, "gamma_constraint": null, "scale": true, "axis": -1, "trainable": true, "beta_initializer": {"config": {}, "class_name": "Zeros"}, "beta_constraint": null, "gamma_initializer": {"config": {}, "class_name": "Ones"}, "epsilon": 0.001, "gamma_regularizer": null}, "inbound_nodes": [[["conv2d_13", 0, 0, {}]]], "class_name": "BatchNormalization"}, {"name": "add_101", "config": {"name": "add_101", "trainable": true}, "inbound_nodes": [[["activation_11", 0, 0, {}], ["batch_normalization_208", 0, 0, {}]]], "class_name": "Add"}, {"name": "activation_13", "config": {"name": "activation_13", "activation": "relu", "trainable": true}, "inbound_nodes": [[["add_101", 0, 0, {}]]], "class_name": "Activation"}, {"name": "conv2d_14", "config": {"kernel_regularizer": {"config": {"l1": 0.0, "l2": 9.999999747378752e-05}, "class_name": "L1L2"}, "kernel_size": [3, 3], "filters": 8, "kernel_constraint": null, "name": "conv2d_14", "activation": "linear", "dilation_rate": [1, 1], "bias_regularizer": null, "trainable": true, "kernel_initializer": {"config": {"seed": null, "mode": "fan_avg", "scale": 1.0, "distribution": "uniform"}, "class_name": "VarianceScaling"}, "data_format": "channels_last", "bias_initializer": {"config": {}, "class_name": "Zeros"}, "padding": "same", "strides": [1, 1], "activity_regularizer": null, "bias_constraint": null, "use_bias": true}, "inbound_nodes": [[["activation_13", 0, 0, {}]]], "class_name": "Conv2D"}, {"name": "batch_normalization_209", "config": {"momentum": 0.99, "moving_variance_initializer": {"config": {}, "class_name": "Ones"}, "name": "batch_normalization_209", "beta_regularizer": null, "moving_mean_initializer": {"config": {}, "class_name": "Zeros"}, "center": true, "gamma_constraint": null, "scale": true, "axis": -1, "trainable": true, "beta_initializer": {"config": {}, "class_name": "Zeros"}, "beta_constraint": null, "gamma_initializer": {"config": {}, "class_name": "Ones"}, "epsilon": 0.001, "gamma_regularizer": null}, "inbound_nodes": [[["conv2d_14", 0, 0, {}]]], "class_name": "BatchNormalization"}, {"name": "activation_14", "config": {"name": "activation_14", "activation": "relu", "trainable": true}, "inbound_nodes": [[["batch_normalization_209", 0, 0, {}]]], "class_name": "Activation"}, {"name": "conv2d_15", "config": {"kernel_regularizer": {"config": {"l1": 0.0, "l2": 9.999999747378752e-05}, "class_name": "L1L2"}, "kernel_size": [3, 3], "filters": 16, "kernel_constraint": null, "name": "conv2d_15", "activation": "linear", "dilation_rate": [1, 1], "bias_regularizer": null, "trainable": true, "kernel_initializer": {"config": {"seed": null, "mode": "fan_avg", "scale": 1.0, "distribution": "uniform"}, "class_name": "VarianceScaling"}, "data_format": "channels_last", "bias_initializer": {"config": {}, "class_name": "Zeros"}, "padding": "same", "strides": [1, 1], "activity_regularizer": null, "bias_constraint": null, "use_bias": true}, "inbound_nodes": [[["activation_14", 0, 0, {}]]], "class_name": "Conv2D"}, {"name": "batch_normalization_210", "config": {"momentum": 0.99, "moving_variance_initializer": {"config": {}, "class_name": "Ones"}, "name": "batch_normalization_210", "beta_regularizer": null, "moving_mean_initializer": {"config": {}, "class_name": "Zeros"}, "center": true, "gamma_constraint": null, "scale": true, "axis": -1, "trainable": true, "beta_initializer": {"config": {}, "class_name": "Zeros"}, "beta_constraint": null, "gamma_initializer": {"config": {}, "class_name": "Ones"}, "epsilon": 0.001, "gamma_regularizer": null}, "inbound_nodes": [[["conv2d_15", 0, 0, {}]]], "class_name": "BatchNormalization"}, {"name": "add_102", "config": {"name": "add_102", "trainable": true}, "inbound_nodes": [[["activation_13", 0, 0, {}], ["batch_normalization_210", 0, 0, {}]]], "class_name": "Add"}, {"name": "activation_15", "config": {"name": "activation_15", "activation": "relu", "trainable": true}, "inbound_nodes": [[["add_102", 0, 0, {}]]], "class_name": "Activation"}, {"name": "conv2d_16", "config": {"kernel_regularizer": {"config": {"l1": 0.0, "l2": 9.999999747378752e-05}, "class_name": "L1L2"}, "kernel_size": [3, 3], "filters": 8, "kernel_constraint": null, "name": "conv2d_16", "activation": "linear", "dilation_rate": [1, 1], "bias_regularizer": null, "trainable": true, "kernel_initializer": {"config": {"seed": null, "mode": "fan_avg", "scale": 1.0, "distribution": "uniform"}, "class_name": "VarianceScaling"}, "data_format": "channels_last", "bias_initializer": {"config": {}, "class_name": "Zeros"}, "padding": "same", "strides": [1, 1], "activity_regularizer": null, "bias_constraint": null, "use_bias": true}, "inbound_nodes": [[["activation_15", 0, 0, {}]]], "class_name": "Conv2D"}, {"name": "batch_normalization_211", "config": {"momentum": 0.99, "moving_variance_initializer": {"config": {}, "class_name": "Ones"}, "name": "batch_normalization_211", "beta_regularizer": null, "moving_mean_initializer": {"config": {}, "class_name": "Zeros"}, "center": true, "gamma_constraint": null, "scale": true, "axis": -1, "trainable": true, "beta_initializer": {"config": {}, "class_name": "Zeros"}, "beta_constraint": null, "gamma_initializer": {"config": {}, "class_name": "Ones"}, "epsilon": 0.001, "gamma_regularizer": null}, "inbound_nodes": [[["conv2d_16", 0, 0, {}]]], "class_name": "BatchNormalization"}, {"name": "activation_16", "config": {"name": "activation_16", "activation": "relu", "trainable": true}, "inbound_nodes": [[["batch_normalization_211", 0, 0, {}]]], "class_name": "Activation"}, {"name": "conv2d_17", "config": {"kernel_regularizer": {"config": {"l1": 0.0, "l2": 9.999999747378752e-05}, "class_name": "L1L2"}, "kernel_size": [3, 3], "filters": 16, "kernel_constraint": null, "name": "conv2d_17", "activation": "linear", "dilation_rate": [1, 1], "bias_regularizer": null, "trainable": true, "kernel_initializer": {"config": {"seed": null, "mode": "fan_avg", "scale": 1.0, "distribution": "uniform"}, "class_name": "VarianceScaling"}, "data_format": "channels_last", "bias_initializer": {"config": {}, "class_name": "Zeros"}, "padding": "same", "strides": [1, 1], "activity_regularizer": null, "bias_constraint": null, "use_bias": true}, "inbound_nodes": [[["activation_16", 0, 0, {}]]], "class_name": "Conv2D"}, {"name": "batch_normalization_212", "config": {"momentum": 0.99, "moving_variance_initializer": {"config": {}, "class_name": "Ones"}, "name": "batch_normalization_212", "beta_regularizer": null, "moving_mean_initializer": {"config": {}, "class_name": "Zeros"}, "center": true, "gamma_constraint": null, "scale": true, "axis": -1, "trainable": true, "beta_initializer": {"config": {}, "class_name": "Zeros"}, "beta_constraint": null, "gamma_initializer": {"config": {}, "class_name": "Ones"}, "epsilon": 0.001, "gamma_regularizer": null}, "inbound_nodes": [[["conv2d_17", 0, 0, {}]]], "class_name": "BatchNormalization"}, {"name": "add_103", "config": {"name": "add_103", "trainable": true}, "inbound_nodes": [[["activation_15", 0, 0, {}], ["batch_normalization_212", 0, 0, {}]]], "class_name": "Add"}, {"name": "activation_17", "config": {"name": "activation_17", "activation": "relu", "trainable": true}, "inbound_nodes": [[["add_103", 0, 0, {}]]], "class_name": "Activation"}, {"name": "conv2d_18", "config": {"kernel_regularizer": {"config": {"l1": 0.0, "l2": 9.999999747378752e-05}, "class_name": "L1L2"}, "kernel_size": [3, 3], "filters": 10, "kernel_constraint": null, "name": "conv2d_18", "activation": "linear", "dilation_rate": [1, 1], "bias_regularizer": null, "trainable": true, "kernel_initializer": {"config": {"seed": null, "mode": "fan_avg", "scale": 1.0, "distribution": "uniform"}, "class_name": "VarianceScaling"}, "data_format": "channels_last", "bias_initializer": {"config": {}, "class_name": "Zeros"}, "padding": "same", "strides": [1, 1], "activity_regularizer": null, "bias_constraint": null, "use_bias": true}, "inbound_nodes": [[["activation_17", 0, 0, {}]]], "class_name": "Conv2D"}, {"name": "batch_normalization_213", "config": {"momentum": 0.99, "moving_variance_initializer": {"config": {}, "class_name": "Ones"}, "name": "batch_normalization_213", "beta_regularizer": null, "moving_mean_initializer": {"config": {}, "class_name": "Zeros"}, "center": true, "gamma_constraint": null, "scale": true, "axis": -1, "trainable": true, "beta_initializer": {"config": {}, "class_name": "Zeros"}, "beta_constraint": null, "gamma_initializer": {"config": {}, "class_name": "Ones"}, "epsilon": 0.001, "gamma_regularizer": null}, "inbound_nodes": [[["conv2d_18", 0, 0, {}]]], "class_name": "BatchNormalization"}, {"name": "activation_18", "config": {"name": "activation_18", "activation": "relu", "trainable": true}, "inbound_nodes": [[["batch_normalization_213", 0, 0, {}]]], "class_name": "Activation"}, {"name": "conv2d_19", "config": {"kernel_regularizer": {"config": {"l1": 0.0, "l2": 9.999999747378752e-05}, "class_name": "L1L2"}, "kernel_size": [3, 3], "filters": 16, "kernel_constraint": null, "name": "conv2d_19", "activation": "linear", "dilation_rate": [1, 1], "bias_regularizer": null, "trainable": true, "kernel_initializer": {"config": {"seed": null, "mode": "fan_avg", "scale": 1.0, "distribution": "uniform"}, "class_name": "VarianceScaling"}, "data_format": "channels_last", "bias_initializer": {"config": {}, "class_name": "Zeros"}, "padding": "same", "strides": [1, 1], "activity_regularizer": null, "bias_constraint": null, "use_bias": true}, "inbound_nodes": [[["activation_18", 0, 0, {}]]], "class_name": "Conv2D"}, {"name": "batch_normalization_214", "config": {"momentum": 0.99, "moving_variance_initializer": {"config": {}, "class_name": "Ones"}, "name": "batch_normalization_214", "beta_regularizer": null, "moving_mean_initializer": {"config": {}, "class_name": "Zeros"}, "center": true, "gamma_constraint": null, "scale": true, "axis": -1, "trainable": true, "beta_initializer": {"config": {}, "class_name": "Zeros"}, "beta_constraint": null, "gamma_initializer": {"config": {}, "class_name": "Ones"}, "epsilon": 0.001, "gamma_regularizer": null}, "inbound_nodes": [[["conv2d_19", 0, 0, {}]]], "class_name": "BatchNormalization"}, {"name": "add_104", "config": {"name": "add_104", "trainable": true}, "inbound_nodes": [[["activation_17", 0, 0, {}], ["batch_normalization_214", 0, 0, {}]]], "class_name": "Add"}, {"name": "activation_19", "config": {"name": "activation_19", "activation": "relu", "trainable": true}, "inbound_nodes": [[["add_104", 0, 0, {}]]], "class_name": "Activation"}, {"name": "conv2d_20", "config": {"kernel_regularizer": {"config": {"l1": 0.0, "l2": 9.999999747378752e-05}, "class_name": "L1L2"}, "kernel_size": [3, 3], "filters": 24, "kernel_constraint": null, "name": "conv2d_20", "activation": "linear", "dilation_rate": [1, 1], "bias_regularizer": null, "trainable": true, "kernel_initializer": {"config": {"seed": null, "mode": "fan_avg", "scale": 1.0, "distribution": "uniform"}, "class_name": "VarianceScaling"}, "data_format": "channels_last", "bias_initializer": {"config": {}, "class_name": "Zeros"}, "padding": "same", "strides": [2, 2], "activity_regularizer": null, "bias_constraint": null, "use_bias": true}, "inbound_nodes": [[["activation_19", 0, 0, {}]]], "class_name": "Conv2D"}, {"name": "batch_normalization_215", "config": {"momentum": 0.99, "moving_variance_initializer": {"config": {}, "class_name": "Ones"}, "name": "batch_normalization_215", "beta_regularizer": null, "moving_mean_initializer": {"config": {}, "class_name": "Zeros"}, "center": true, "gamma_constraint": null, "scale": true, "axis": -1, "trainable": true, "beta_initializer": {"config": {}, "class_name": "Zeros"}, "beta_constraint": null, "gamma_initializer": {"config": {}, "class_name": "Ones"}, "epsilon": 0.001, "gamma_regularizer": null}, "inbound_nodes": [[["conv2d_20", 0, 0, {}]]], "class_name": "BatchNormalization"}, {"name": "activation_20", "config": {"name": "activation_20", "activation": "relu", "trainable": true}, "inbound_nodes": [[["batch_normalization_215", 0, 0, {}]]], "class_name": "Activation"}, {"name": "conv2d_21", "config": {"kernel_regularizer": {"config": {"l1": 0.0, "l2": 9.999999747378752e-05}, "class_name": "L1L2"}, "kernel_size": [3, 3], "filters": 32, "kernel_constraint": null, "name": "conv2d_21", "activation": "linear", "dilation_rate": [1, 1], "bias_regularizer": null, "trainable": true, "kernel_initializer": {"config": {"seed": null, "mode": "fan_avg", "scale": 1.0, "distribution": "uniform"}, "class_name": "VarianceScaling"}, "data_format": "channels_last", "bias_initializer": {"config": {}, "class_name": "Zeros"}, "padding": "same", "strides": [1, 1], "activity_regularizer": null, "bias_constraint": null, "use_bias": true}, "inbound_nodes": [[["activation_20", 0, 0, {}]]], "class_name": "Conv2D"}, {"name": "conv2d_22", "config": {"kernel_regularizer": {"config": {"l1": 0.0, "l2": 9.999999747378752e-05}, "class_name": "L1L2"}, "kernel_size": [1, 1], "filters": 32, "kernel_constraint": null, "name": "conv2d_22", "activation": "linear", "dilation_rate": [1, 1], "bias_regularizer": null, "trainable": true, "kernel_initializer": {"config": {"seed": null, "mode": "fan_avg", "scale": 1.0, "distribution": "uniform"}, "class_name": "VarianceScaling"}, "data_format": "channels_last", "bias_initializer": {"config": {}, "class_name": "Zeros"}, "padding": "same", "strides": [2, 2], "activity_regularizer": null, "bias_constraint": null, "use_bias": true}, "inbound_nodes": [[["activation_19", 0, 0, {}]]], "class_name": "Conv2D"}, {"name": "batch_normalization_216", "config": {"momentum": 0.99, "moving_variance_initializer": {"config": {}, "class_name": "Ones"}, "name": "batch_normalization_216", "beta_regularizer": null, "moving_mean_initializer": {"config": {}, "class_name": "Zeros"}, "center": true, "gamma_constraint": null, "scale": true, "axis": -1, "trainable": true, "beta_initializer": {"config": {}, "class_name": "Zeros"}, "beta_constraint": null, "gamma_initializer": {"config": {}, "class_name": "Ones"}, "epsilon": 0.001, "gamma_regularizer": null}, "inbound_nodes": [[["conv2d_21", 0, 0, {}]]], "class_name": "BatchNormalization"}, {"name": "add_105", "config": {"name": "add_105", "trainable": true}, "inbound_nodes": [[["conv2d_22", 0, 0, {}], ["batch_normalization_216", 0, 0, {}]]], "class_name": "Add"}, {"name": "activation_21", "config": {"name": "activation_21", "activation": "relu", "trainable": true}, "inbound_nodes": [[["add_105", 0, 0, {}]]], "class_name": "Activation"}, {"name": "conv2d_23", "config": {"kernel_regularizer": {"config": {"l1": 0.0, "l2": 9.999999747378752e-05}, "class_name": "L1L2"}, "kernel_size": [3, 3], "filters": 23, "kernel_constraint": null, "name": "conv2d_23", "activation": "linear", "dilation_rate": [1, 1], "bias_regularizer": null, "trainable": true, "kernel_initializer": {"config": {"seed": null, "mode": "fan_avg", "scale": 1.0, "distribution": "uniform"}, "class_name": "VarianceScaling"}, "data_format": "channels_last", "bias_initializer": {"config": {}, "class_name": "Zeros"}, "padding": "same", "strides": [1, 1], "activity_regularizer": null, "bias_constraint": null, "use_bias": true}, "inbound_nodes": [[["activation_21", 0, 0, {}]]], "class_name": "Conv2D"}, {"name": "batch_normalization_217", "config": {"momentum": 0.99, "moving_variance_initializer": {"config": {}, "class_name": "Ones"}, "name": "batch_normalization_217", "beta_regularizer": null, "moving_mean_initializer": {"config": {}, "class_name": "Zeros"}, "center": true, "gamma_constraint": null, "scale": true, "axis": -1, "trainable": true, "beta_initializer": {"config": {}, "class_name": "Zeros"}, "beta_constraint": null, "gamma_initializer": {"config": {}, "class_name": "Ones"}, "epsilon": 0.001, "gamma_regularizer": null}, "inbound_nodes": [[["conv2d_23", 0, 0, {}]]], "class_name": "BatchNormalization"}, {"name": "activation_22", "config": {"name": "activation_22", "activation": "relu", "trainable": true}, "inbound_nodes": [[["batch_normalization_217", 0, 0, {}]]], "class_name": "Activation"}, {"name": "conv2d_24", "config": {"kernel_regularizer": {"config": {"l1": 0.0, "l2": 9.999999747378752e-05}, "class_name": "L1L2"}, "kernel_size": [3, 3], "filters": 32, "kernel_constraint": null, "name": "conv2d_24", "activation": "linear", "dilation_rate": [1, 1], "bias_regularizer": null, "trainable": true, "kernel_initializer": {"config": {"seed": null, "mode": "fan_avg", "scale": 1.0, "distribution": "uniform"}, "class_name": "VarianceScaling"}, "data_format": "channels_last", "bias_initializer": {"config": {}, "class_name": "Zeros"}, "padding": "same", "strides": [1, 1], "activity_regularizer": null, "bias_constraint": null, "use_bias": true}, "inbound_nodes": [[["activation_22", 0, 0, {}]]], "class_name": "Conv2D"}, {"name": "batch_normalization_218", "config": {"momentum": 0.99, "moving_variance_initializer": {"config": {}, "class_name": "Ones"}, "name": "batch_normalization_218", "beta_regularizer": null, "moving_mean_initializer": {"config": {}, "class_name": "Zeros"}, "center": true, "gamma_constraint": null, "scale": true, "axis": -1, "trainable": true, "beta_initializer": {"config": {}, "class_name": "Zeros"}, "beta_constraint": null, "gamma_initializer": {"config": {}, "class_name": "Ones"}, "epsilon": 0.001, "gamma_regularizer": null}, "inbound_nodes": [[["conv2d_24", 0, 0, {}]]], "class_name": "BatchNormalization"}, {"name": "add_106", "config": {"name": "add_106", "trainable": true}, "inbound_nodes": [[["activation_21", 0, 0, {}], ["batch_normalization_218", 0, 0, {}]]], "class_name": "Add"}, {"name": "activation_23", "config": {"name": "activation_23", "activation": "relu", "trainable": true}, "inbound_nodes": [[["add_106", 0, 0, {}]]], "class_name": "Activation"}, {"name": "conv2d_25", "config": {"kernel_regularizer": {"config": {"l1": 0.0, "l2": 9.999999747378752e-05}, "class_name": "L1L2"}, "kernel_size": [3, 3], "filters": 16, "kernel_constraint": null, "name": "conv2d_25", "activation": "linear", "dilation_rate": [1, 1], "bias_regularizer": null, "trainable": true, "kernel_initializer": {"config": {"seed": null, "mode": "fan_avg", "scale": 1.0, "distribution": "uniform"}, "class_name": "VarianceScaling"}, "data_format": "channels_last", "bias_initializer": {"config": {}, "class_name": "Zeros"}, "padding": "same", "strides": [1, 1], "activity_regularizer": null, "bias_constraint": null, "use_bias": true}, "inbound_nodes": [[["activation_23", 0, 0, {}]]], "class_name": "Conv2D"}, {"name": "batch_normalization_219", "config": {"momentum": 0.99, "moving_variance_initializer": {"config": {}, "class_name": "Ones"}, "name": "batch_normalization_219", "beta_regularizer": null, "moving_mean_initializer": {"config": {}, "class_name": "Zeros"}, "center": true, "gamma_constraint": null, "scale": true, "axis": -1, "trainable": true, "beta_initializer": {"config": {}, "class_name": "Zeros"}, "beta_constraint": null, "gamma_initializer": {"config": {}, "class_name": "Ones"}, "epsilon": 0.001, "gamma_regularizer": null}, "inbound_nodes": [[["conv2d_25", 0, 0, {}]]], "class_name": "BatchNormalization"}, {"name": "activation_24", "config": {"name": "activation_24", "activation": "relu", "trainable": true}, "inbound_nodes": [[["batch_normalization_219", 0, 0, {}]]], "class_name": "Activation"}, {"name": "conv2d_26", "config": {"kernel_regularizer": {"config": {"l1": 0.0, "l2": 9.999999747378752e-05}, "class_name": "L1L2"}, "kernel_size": [3, 3], "filters": 32, "kernel_constraint": null, "name": "conv2d_26", "activation": "linear", "dilation_rate": [1, 1], "bias_regularizer": null, "trainable": true, "kernel_initializer": {"config": {"seed": null, "mode": "fan_avg", "scale": 1.0, "distribution": "uniform"}, "class_name": "VarianceScaling"}, "data_format": "channels_last", "bias_initializer": {"config": {}, "class_name": "Zeros"}, "padding": "same", "strides": [1, 1], "activity_regularizer": null, "bias_constraint": null, "use_bias": true}, "inbound_nodes": [[["activation_24", 0, 0, {}]]], "class_name": "Conv2D"}, {"name": "batch_normalization_220", "config": {"momentum": 0.99, "moving_variance_initializer": {"config": {}, "class_name": "Ones"}, "name": "batch_normalization_220", "beta_regularizer": null, "moving_mean_initializer": {"config": {}, "class_name": "Zeros"}, "center": true, "gamma_constraint": null, "scale": true, "axis": -1, "trainable": true, "beta_initializer": {"config": {}, "class_name": "Zeros"}, "beta_constraint": null, "gamma_initializer": {"config": {}, "class_name": "Ones"}, "epsilon": 0.001, "gamma_regularizer": null}, "inbound_nodes": [[["conv2d_26", 0, 0, {}]]], "class_name": "BatchNormalization"}, {"name": "add_107", "config": {"name": "add_107", "trainable": true}, "inbound_nodes": [[["activation_23", 0, 0, {}], ["batch_normalization_220", 0, 0, {}]]], "class_name": "Add"}, {"name": "activation_25", "config": {"name": "activation_25", "activation": "relu", "trainable": true}, "inbound_nodes": [[["add_107", 0, 0, {}]]], "class_name": "Activation"}, {"name": "conv2d_27", "config": {"kernel_regularizer": {"config": {"l1": 0.0, "l2": 9.999999747378752e-05}, "class_name": "L1L2"}, "kernel_size": [3, 3], "filters": 18, "kernel_constraint": null, "name": "conv2d_27", "activation": "linear", "dilation_rate": [1, 1], "bias_regularizer": null, "trainable": true, "kernel_initializer": {"config": {"seed": null, "mode": "fan_avg", "scale": 1.0, "distribution": "uniform"}, "class_name": "VarianceScaling"}, "data_format": "channels_last", "bias_initializer": {"config": {}, "class_name": "Zeros"}, "padding": "same", "strides": [1, 1], "activity_regularizer": null, "bias_constraint": null, "use_bias": true}, "inbound_nodes": [[["activation_25", 0, 0, {}]]], "class_name": "Conv2D"}, {"name": "batch_normalization_221", "config": {"momentum": 0.99, "moving_variance_initializer": {"config": {}, "class_name": "Ones"}, "name": "batch_normalization_221", "beta_regularizer": null, "moving_mean_initializer": {"config": {}, "class_name": "Zeros"}, "center": true, "gamma_constraint": null, "scale": true, "axis": -1, "trainable": true, "beta_initializer": {"config": {}, "class_name": "Zeros"}, "beta_constraint": null, "gamma_initializer": {"config": {}, "class_name": "Ones"}, "epsilon": 0.001, "gamma_regularizer": null}, "inbound_nodes": [[["conv2d_27", 0, 0, {}]]], "class_name": "BatchNormalization"}, {"name": "activation_26", "config": {"name": "activation_26", "activation": "relu", "trainable": true}, "inbound_nodes": [[["batch_normalization_221", 0, 0, {}]]], "class_name": "Activation"}, {"name": "conv2d_28", "config": {"kernel_regularizer": {"config": {"l1": 0.0, "l2": 9.999999747378752e-05}, "class_name": "L1L2"}, "kernel_size": [3, 3], "filters": 32, "kernel_constraint": null, "name": "conv2d_28", "activation": "linear", "dilation_rate": [1, 1], "bias_regularizer": null, "trainable": true, "kernel_initializer": {"config": {"seed": null, "mode": "fan_avg", "scale": 1.0, "distribution": "uniform"}, "class_name": "VarianceScaling"}, "data_format": "channels_last", "bias_initializer": {"config": {}, "class_name": "Zeros"}, "padding": "same", "strides": [1, 1], "activity_regularizer": null, "bias_constraint": null, "use_bias": true}, "inbound_nodes": [[["activation_26", 0, 0, {}]]], "class_name": "Conv2D"}, {"name": "batch_normalization_222", "config": {"momentum": 0.99, "moving_variance_initializer": {"config": {}, "class_name": "Ones"}, "name": "batch_normalization_222", "beta_regularizer": null, "moving_mean_initializer": {"config": {}, "class_name": "Zeros"}, "center": true, "gamma_constraint": null, "scale": true, "axis": -1, "trainable": true, "beta_initializer": {"config": {}, "class_name": "Zeros"}, "beta_constraint": null, "gamma_initializer": {"config": {}, "class_name": "Ones"}, "epsilon": 0.001, "gamma_regularizer": null}, "inbound_nodes": [[["conv2d_28", 0, 0, {}]]], "class_name": "BatchNormalization"}, {"name": "add_108", "config": {"name": "add_108", "trainable": true}, "inbound_nodes": [[["activation_25", 0, 0, {}], ["batch_normalization_222", 0, 0, {}]]], "class_name": "Add"}, {"name": "activation_27", "config": {"name": "activation_27", "activation": "relu", "trainable": true}, "inbound_nodes": [[["add_108", 0, 0, {}]]], "class_name": "Activation"}, {"name": "conv2d_29", "config": {"kernel_regularizer": {"config": {"l1": 0.0, "l2": 9.999999747378752e-05}, "class_name": "L1L2"}, "kernel_size": [3, 3], "filters": 12, "kernel_constraint": null, "name": "conv2d_29", "activation": "linear", "dilation_rate": [1, 1], "bias_regularizer": null, "trainable": true, "kernel_initializer": {"config": {"seed": null, "mode": "fan_avg", "scale": 1.0, "distribution": "uniform"}, "class_name": "VarianceScaling"}, "data_format": "channels_last", "bias_initializer": {"config": {}, "class_name": "Zeros"}, "padding": "same", "strides": [1, 1], "activity_regularizer": null, "bias_constraint": null, "use_bias": true}, "inbound_nodes": [[["activation_27", 0, 0, {}]]], "class_name": "Conv2D"}, {"name": "batch_normalization_223", "config": {"momentum": 0.99, "moving_variance_initializer": {"config": {}, "class_name": "Ones"}, "name": "batch_normalization_223", "beta_regularizer": null, "moving_mean_initializer": {"config": {}, "class_name": "Zeros"}, "center": true, "gamma_constraint": null, "scale": true, "axis": -1, "trainable": true, "beta_initializer": {"config": {}, "class_name": "Zeros"}, "beta_constraint": null, "gamma_initializer": {"config": {}, "class_name": "Ones"}, "epsilon": 0.001, "gamma_regularizer": null}, "inbound_nodes": [[["conv2d_29", 0, 0, {}]]], "class_name": "BatchNormalization"}, {"name": "activation_28", "config": {"name": "activation_28", "activation": "relu", "trainable": true}, "inbound_nodes": [[["batch_normalization_223", 0, 0, {}]]], "class_name": "Activation"}, {"name": "conv2d_30", "config": {"kernel_regularizer": {"config": {"l1": 0.0, "l2": 9.999999747378752e-05}, "class_name": "L1L2"}, "kernel_size": [3, 3], "filters": 32, "kernel_constraint": null, "name": "conv2d_30", "activation": "linear", "dilation_rate": [1, 1], "bias_regularizer": null, "trainable": true, "kernel_initializer": {"config": {"seed": null, "mode": "fan_avg", "scale": 1.0, "distribution": "uniform"}, "class_name": "VarianceScaling"}, "data_format": "channels_last", "bias_initializer": {"config": {}, "class_name": "Zeros"}, "padding": "same", "strides": [1, 1], "activity_regularizer": null, "bias_constraint": null, "use_bias": true}, "inbound_nodes": [[["activation_28", 0, 0, {}]]], "class_name": "Conv2D"}, {"name": "batch_normalization_224", "config": {"momentum": 0.99, "moving_variance_initializer": {"config": {}, "class_name": "Ones"}, "name": "batch_normalization_224", "beta_regularizer": null, "moving_mean_initializer": {"config": {}, "class_name": "Zeros"}, "center": true, "gamma_constraint": null, "scale": true, "axis": -1, "trainable": true, "beta_initializer": {"config": {}, "class_name": "Zeros"}, "beta_constraint": null, "gamma_initializer": {"config": {}, "class_name": "Ones"}, "epsilon": 0.001, "gamma_regularizer": null}, "inbound_nodes": [[["conv2d_30", 0, 0, {}]]], "class_name": "BatchNormalization"}, {"name": "add_109", "config": {"name": "add_109", "trainable": true}, "inbound_nodes": [[["activation_27", 0, 0, {}], ["batch_normalization_224", 0, 0, {}]]], "class_name": "Add"}, {"name": "activation_29", "config": {"name": "activation_29", "activation": "relu", "trainable": true}, "inbound_nodes": [[["add_109", 0, 0, {}]]], "class_name": "Activation"}, {"name": "conv2d_31", "config": {"kernel_regularizer": {"config": {"l1": 0.0, "l2": 9.999999747378752e-05}, "class_name": "L1L2"}, "kernel_size": [3, 3], "filters": 15, "kernel_constraint": null, "name": "conv2d_31", "activation": "linear", "dilation_rate": [1, 1], "bias_regularizer": null, "trainable": true, "kernel_initializer": {"config": {"seed": null, "mode": "fan_avg", "scale": 1.0, "distribution": "uniform"}, "class_name": "VarianceScaling"}, "data_format": "channels_last", "bias_initializer": {"config": {}, "class_name": "Zeros"}, "padding": "same", "strides": [1, 1], "activity_regularizer": null, "bias_constraint": null, "use_bias": true}, "inbound_nodes": [[["activation_29", 0, 0, {}]]], "class_name": "Conv2D"}, {"name": "batch_normalization_225", "config": {"momentum": 0.99, "moving_variance_initializer": {"config": {}, "class_name": "Ones"}, "name": "batch_normalization_225", "beta_regularizer": null, "moving_mean_initializer": {"config": {}, "class_name": "Zeros"}, "center": true, "gamma_constraint": null, "scale": true, "axis": -1, "trainable": true, "beta_initializer": {"config": {}, "class_name": "Zeros"}, "beta_constraint": null, "gamma_initializer": {"config": {}, "class_name": "Ones"}, "epsilon": 0.001, "gamma_regularizer": null}, "inbound_nodes": [[["conv2d_31", 0, 0, {}]]], "class_name": "BatchNormalization"}, {"name": "activation_30", "config": {"name": "activation_30", "activation": "relu", "trainable": true}, "inbound_nodes": [[["batch_normalization_225", 0, 0, {}]]], "class_name": "Activation"}, {"name": "conv2d_32", "config": {"kernel_regularizer": {"config": {"l1": 0.0, "l2": 9.999999747378752e-05}, "class_name": "L1L2"}, "kernel_size": [3, 3], "filters": 32, "kernel_constraint": null, "name": "conv2d_32", "activation": "linear", "dilation_rate": [1, 1], "bias_regularizer": null, "trainable": true, "kernel_initializer": {"config": {"seed": null, "mode": "fan_avg", "scale": 1.0, "distribution": "uniform"}, "class_name": "VarianceScaling"}, "data_format": "channels_last", "bias_initializer": {"config": {}, "class_name": "Zeros"}, "padding": "same", "strides": [1, 1], "activity_regularizer": null, "bias_constraint": null, "use_bias": true}, "inbound_nodes": [[["activation_30", 0, 0, {}]]], "class_name": "Conv2D"}, {"name": "batch_normalization_226", "config": {"momentum": 0.99, "moving_variance_initializer": {"config": {}, "class_name": "Ones"}, "name": "batch_normalization_226", "beta_regularizer": null, "moving_mean_initializer": {"config": {}, "class_name": "Zeros"}, "center": true, "gamma_constraint": null, "scale": true, "axis": -1, "trainable": true, "beta_initializer": {"config": {}, "class_name": "Zeros"}, "beta_constraint": null, "gamma_initializer": {"config": {}, "class_name": "Ones"}, "epsilon": 0.001, "gamma_regularizer": null}, "inbound_nodes": [[["conv2d_32", 0, 0, {}]]], "class_name": "BatchNormalization"}, {"name": "add_110", "config": {"name": "add_110", "trainable": true}, "inbound_nodes": [[["activation_29", 0, 0, {}], ["batch_normalization_226", 0, 0, {}]]], "class_name": "Add"}, {"name": "activation_31", "config": {"name": "activation_31", "activation": "relu", "trainable": true}, "inbound_nodes": [[["add_110", 0, 0, {}]]], "class_name": "Activation"}, {"name": "conv2d_33", "config": {"kernel_regularizer": {"config": {"l1": 0.0, "l2": 9.999999747378752e-05}, "class_name": "L1L2"}, "kernel_size": [3, 3], "filters": 12, "kernel_constraint": null, "name": "conv2d_33", "activation": "linear", "dilation_rate": [1, 1], "bias_regularizer": null, "trainable": true, "kernel_initializer": {"config": {"seed": null, "mode": "fan_avg", "scale": 1.0, "distribution": "uniform"}, "class_name": "VarianceScaling"}, "data_format": "channels_last", "bias_initializer": {"config": {}, "class_name": "Zeros"}, "padding": "same", "strides": [1, 1], "activity_regularizer": null, "bias_constraint": null, "use_bias": true}, "inbound_nodes": [[["activation_31", 0, 0, {}]]], "class_name": "Conv2D"}, {"name": "batch_normalization_227", "config": {"momentum": 0.99, "moving_variance_initializer": {"config": {}, "class_name": "Ones"}, "name": "batch_normalization_227", "beta_regularizer": null, "moving_mean_initializer": {"config": {}, "class_name": "Zeros"}, "center": true, "gamma_constraint": null, "scale": true, "axis": -1, "trainable": true, "beta_initializer": {"config": {}, "class_name": "Zeros"}, "beta_constraint": null, "gamma_initializer": {"config": {}, "class_name": "Ones"}, "epsilon": 0.001, "gamma_regularizer": null}, "inbound_nodes": [[["conv2d_33", 0, 0, {}]]], "class_name": "BatchNormalization"}, {"name": "activation_32", "config": {"name": "activation_32", "activation": "relu", "trainable": true}, "inbound_nodes": [[["batch_normalization_227", 0, 0, {}]]], "class_name": "Activation"}, {"name": "conv2d_34", "config": {"kernel_regularizer": {"config": {"l1": 0.0, "l2": 9.999999747378752e-05}, "class_name": "L1L2"}, "kernel_size": [3, 3], "filters": 32, "kernel_constraint": null, "name": "conv2d_34", "activation": "linear", "dilation_rate": [1, 1], "bias_regularizer": null, "trainable": true, "kernel_initializer": {"config": {"seed": null, "mode": "fan_avg", "scale": 1.0, "distribution": "uniform"}, "class_name": "VarianceScaling"}, "data_format": "channels_last", "bias_initializer": {"config": {}, "class_name": "Zeros"}, "padding": "same", "strides": [1, 1], "activity_regularizer": null, "bias_constraint": null, "use_bias": true}, "inbound_nodes": [[["activation_32", 0, 0, {}]]], "class_name": "Conv2D"}, {"name": "batch_normalization_228", "config": {"momentum": 0.99, "moving_variance_initializer": {"config": {}, "class_name": "Ones"}, "name": "batch_normalization_228", "beta_regularizer": null, "moving_mean_initializer": {"config": {}, "class_name": "Zeros"}, "center": true, "gamma_constraint": null, "scale": true, "axis": -1, "trainable": true, "beta_initializer": {"config": {}, "class_name": "Zeros"}, "beta_constraint": null, "gamma_initializer": {"config": {}, "class_name": "Ones"}, "epsilon": 0.001, "gamma_regularizer": null}, "inbound_nodes": [[["conv2d_34", 0, 0, {}]]], "class_name": "BatchNormalization"}, {"name": "add_111", "config": {"name": "add_111", "trainable": true}, "inbound_nodes": [[["activation_31", 0, 0, {}], ["batch_normalization_228", 0, 0, {}]]], "class_name": "Add"}, {"name": "activation_33", "config": {"name": "activation_33", "activation": "relu", "trainable": true}, "inbound_nodes": [[["add_111", 0, 0, {}]]], "class_name": "Activation"}, {"name": "conv2d_35", "config": {"kernel_regularizer": {"config": {"l1": 0.0, "l2": 9.999999747378752e-05}, "class_name": "L1L2"}, "kernel_size": [3, 3], "filters": 17, "kernel_constraint": null, "name": "conv2d_35", "activation": "linear", "dilation_rate": [1, 1], "bias_regularizer": null, "trainable": true, "kernel_initializer": {"config": {"seed": null, "mode": "fan_avg", "scale": 1.0, "distribution": "uniform"}, "class_name": "VarianceScaling"}, "data_format": "channels_last", "bias_initializer": {"config": {}, "class_name": "Zeros"}, "padding": "same", "strides": [1, 1], "activity_regularizer": null, "bias_constraint": null, "use_bias": true}, "inbound_nodes": [[["activation_33", 0, 0, {}]]], "class_name": "Conv2D"}, {"name": "batch_normalization_229", "config": {"momentum": 0.99, "moving_variance_initializer": {"config": {}, "class_name": "Ones"}, "name": "batch_normalization_229", "beta_regularizer": null, "moving_mean_initializer": {"config": {}, "class_name": "Zeros"}, "center": true, "gamma_constraint": null, "scale": true, "axis": -1, "trainable": true, "beta_initializer": {"config": {}, "class_name": "Zeros"}, "beta_constraint": null, "gamma_initializer": {"config": {}, "class_name": "Ones"}, "epsilon": 0.001, "gamma_regularizer": null}, "inbound_nodes": [[["conv2d_35", 0, 0, {}]]], "class_name": "BatchNormalization"}, {"name": "activation_34", "config": {"name": "activation_34", "activation": "relu", "trainable": true}, "inbound_nodes": [[["batch_normalization_229", 0, 0, {}]]], "class_name": "Activation"}, {"name": "conv2d_36", "config": {"kernel_regularizer": {"config": {"l1": 0.0, "l2": 9.999999747378752e-05}, "class_name": "L1L2"}, "kernel_size": [3, 3], "filters": 32, "kernel_constraint": null, "name": "conv2d_36", "activation": "linear", "dilation_rate": [1, 1], "bias_regularizer": null, "trainable": true, "kernel_initializer": {"config": {"seed": null, "mode": "fan_avg", "scale": 1.0, "distribution": "uniform"}, "class_name": "VarianceScaling"}, "data_format": "channels_last", "bias_initializer": {"config": {}, "class_name": "Zeros"}, "padding": "same", "strides": [1, 1], "activity_regularizer": null, "bias_constraint": null, "use_bias": true}, "inbound_nodes": [[["activation_34", 0, 0, {}]]], "class_name": "Conv2D"}, {"name": "batch_normalization_230", "config": {"momentum": 0.99, "moving_variance_initializer": {"config": {}, "class_name": "Ones"}, "name": "batch_normalization_230", "beta_regularizer": null, "moving_mean_initializer": {"config": {}, "class_name": "Zeros"}, "center": true, "gamma_constraint": null, "scale": true, "axis": -1, "trainable": true, "beta_initializer": {"config": {}, "class_name": "Zeros"}, "beta_constraint": null, "gamma_initializer": {"config": {}, "class_name": "Ones"}, "epsilon": 0.001, "gamma_regularizer": null}, "inbound_nodes": [[["conv2d_36", 0, 0, {}]]], "class_name": "BatchNormalization"}, {"name": "add_112", "config": {"name": "add_112", "trainable": true}, "inbound_nodes": [[["activation_33", 0, 0, {}], ["batch_normalization_230", 0, 0, {}]]], "class_name": "Add"}, {"name": "activation_35", "config": {"name": "activation_35", "activation": "relu", "trainable": true}, "inbound_nodes": [[["add_112", 0, 0, {}]]], "class_name": "Activation"}, {"name": "conv2d_37", "config": {"kernel_regularizer": {"config": {"l1": 0.0, "l2": 9.999999747378752e-05}, "class_name": "L1L2"}, "kernel_size": [3, 3], "filters": 16, "kernel_constraint": null, "name": "conv2d_37", "activation": "linear", "dilation_rate": [1, 1], "bias_regularizer": null, "trainable": true, "kernel_initializer": {"config": {"seed": null, "mode": "fan_avg", "scale": 1.0, "distribution": "uniform"}, "class_name": "VarianceScaling"}, "data_format": "channels_last", "bias_initializer": {"config": {}, "class_name": "Zeros"}, "padding": "same", "strides": [1, 1], "activity_regularizer": null, "bias_constraint": null, "use_bias": true}, "inbound_nodes": [[["activation_35", 0, 0, {}]]], "class_name": "Conv2D"}, {"name": "batch_normalization_231", "config": {"momentum": 0.99, "moving_variance_initializer": {"config": {}, "class_name": "Ones"}, "name": "batch_normalization_231", "beta_regularizer": null, "moving_mean_initializer": {"config": {}, "class_name": "Zeros"}, "center": true, "gamma_constraint": null, "scale": true, "axis": -1, "trainable": true, "beta_initializer": {"config": {}, "class_name": "Zeros"}, "beta_constraint": null, "gamma_initializer": {"config": {}, "class_name": "Ones"}, "epsilon": 0.001, "gamma_regularizer": null}, "inbound_nodes": [[["conv2d_37", 0, 0, {}]]], "class_name": "BatchNormalization"}, {"name": "activation_36", "config": {"name": "activation_36", "activation": "relu", "trainable": true}, "inbound_nodes": [[["batch_normalization_231", 0, 0, {}]]], "class_name": "Activation"}, {"name": "conv2d_38", "config": {"kernel_regularizer": {"config": {"l1": 0.0, "l2": 9.999999747378752e-05}, "class_name": "L1L2"}, "kernel_size": [3, 3], "filters": 32, "kernel_constraint": null, "name": "conv2d_38", "activation": "linear", "dilation_rate": [1, 1], "bias_regularizer": null, "trainable": true, "kernel_initializer": {"config": {"seed": null, "mode": "fan_avg", "scale": 1.0, "distribution": "uniform"}, "class_name": "VarianceScaling"}, "data_format": "channels_last", "bias_initializer": {"config": {}, "class_name": "Zeros"}, "padding": "same", "strides": [1, 1], "activity_regularizer": null, "bias_constraint": null, "use_bias": true}, "inbound_nodes": [[["activation_36", 0, 0, {}]]], "class_name": "Conv2D"}, {"name": "batch_normalization_232", "config": {"momentum": 0.99, "moving_variance_initializer": {"config": {}, "class_name": "Ones"}, "name": "batch_normalization_232", "beta_regularizer": null, "moving_mean_initializer": {"config": {}, "class_name": "Zeros"}, "center": true, "gamma_constraint": null, "scale": true, "axis": -1, "trainable": true, "beta_initializer": {"config": {}, "class_name": "Zeros"}, "beta_constraint": null, "gamma_initializer": {"config": {}, "class_name": "Ones"}, "epsilon": 0.001, "gamma_regularizer": null}, "inbound_nodes": [[["conv2d_38", 0, 0, {}]]], "class_name": "BatchNormalization"}, {"name": "add_113", "config": {"name": "add_113", "trainable": true}, "inbound_nodes": [[["activation_35", 0, 0, {}], ["batch_normalization_232", 0, 0, {}]]], "class_name": "Add"}, {"name": "activation_37", "config": {"name": "activation_37", "activation": "relu", "trainable": true}, "inbound_nodes": [[["add_113", 0, 0, {}]]], "class_name": "Activation"}, {"name": "conv2d_39", "config": {"kernel_regularizer": {"config": {"l1": 0.0, "l2": 9.999999747378752e-05}, "class_name": "L1L2"}, "kernel_size": [3, 3], "filters": 33, "kernel_constraint": null, "name": "conv2d_39", "activation": "linear", "dilation_rate": [1, 1], "bias_regularizer": null, "trainable": true, "kernel_initializer": {"config": {"seed": null, "mode": "fan_avg", "scale": 1.0, "distribution": "uniform"}, "class_name": "VarianceScaling"}, "data_format": "channels_last", "bias_initializer": {"config": {}, "class_name": "Zeros"}, "padding": "same", "strides": [2, 2], "activity_regularizer": null, "bias_constraint": null, "use_bias": true}, "inbound_nodes": [[["activation_37", 0, 0, {}]]], "class_name": "Conv2D"}, {"name": "batch_normalization_233", "config": {"momentum": 0.99, "moving_variance_initializer": {"config": {}, "class_name": "Ones"}, "name": "batch_normalization_233", "beta_regularizer": null, "moving_mean_initializer": {"config": {}, "class_name": "Zeros"}, "center": true, "gamma_constraint": null, "scale": true, "axis": -1, "trainable": true, "beta_initializer": {"config": {}, "class_name": "Zeros"}, "beta_constraint": null, "gamma_initializer": {"config": {}, "class_name": "Ones"}, "epsilon": 0.001, "gamma_regularizer": null}, "inbound_nodes": [[["conv2d_39", 0, 0, {}]]], "class_name": "BatchNormalization"}, {"name": "activation_38", "config": {"name": "activation_38", "activation": "relu", "trainable": true}, "inbound_nodes": [[["batch_normalization_233", 0, 0, {}]]], "class_name": "Activation"}, {"name": "conv2d_40", "config": {"kernel_regularizer": {"config": {"l1": 0.0, "l2": 9.999999747378752e-05}, "class_name": "L1L2"}, "kernel_size": [3, 3], "filters": 64, "kernel_constraint": null, "name": "conv2d_40", "activation": "linear", "dilation_rate": [1, 1], "bias_regularizer": null, "trainable": true, "kernel_initializer": {"config": {"seed": null, "mode": "fan_avg", "scale": 1.0, "distribution": "uniform"}, "class_name": "VarianceScaling"}, "data_format": "channels_last", "bias_initializer": {"config": {}, "class_name": "Zeros"}, "padding": "same", "strides": [1, 1], "activity_regularizer": null, "bias_constraint": null, "use_bias": true}, "inbound_nodes": [[["activation_38", 0, 0, {}]]], "class_name": "Conv2D"}, {"name": "conv2d_41", "config": {"kernel_regularizer": {"config": {"l1": 0.0, "l2": 9.999999747378752e-05}, "class_name": "L1L2"}, "kernel_size": [1, 1], "filters": 64, "kernel_constraint": null, "name": "conv2d_41", "activation": "linear", "dilation_rate": [1, 1], "bias_regularizer": null, "trainable": true, "kernel_initializer": {"config": {"seed": null, "mode": "fan_avg", "scale": 1.0, "distribution": "uniform"}, "class_name": "VarianceScaling"}, "data_format": "channels_last", "bias_initializer": {"config": {}, "class_name": "Zeros"}, "padding": "same", "strides": [2, 2], "activity_regularizer": null, "bias_constraint": null, "use_bias": true}, "inbound_nodes": [[["activation_37", 0, 0, {}]]], "class_name": "Conv2D"}, {"name": "batch_normalization_234", "config": {"momentum": 0.99, "moving_variance_initializer": {"config": {}, "class_name": "Ones"}, "name": "batch_normalization_234", "beta_regularizer": null, "moving_mean_initializer": {"config": {}, "class_name": "Zeros"}, "center": true, "gamma_constraint": null, "scale": true, "axis": -1, "trainable": true, "beta_initializer": {"config": {}, "class_name": "Zeros"}, "beta_constraint": null, "gamma_initializer": {"config": {}, "class_name": "Ones"}, "epsilon": 0.001, "gamma_regularizer": null}, "inbound_nodes": [[["conv2d_40", 0, 0, {}]]], "class_name": "BatchNormalization"}, {"name": "add_114", "config": {"name": "add_114", "trainable": true}, "inbound_nodes": [[["conv2d_41", 0, 0, {}], ["batch_normalization_234", 0, 0, {}]]], "class_name": "Add"}, {"name": "LastAct", "config": {"name": "LastAct", "activation": "relu", "trainable": true}, "inbound_nodes": [[["add_114", 0, 0, {}]]], "class_name": "Activation"}, {"name": "average_pooling2d_6", "config": {"data_format": "channels_last", "strides": [8, 8], "name": "average_pooling2d_6", "trainable": true, "padding": "valid", "pool_size": [8, 8]}, "inbound_nodes": [[["LastAct", 0, 0, {}]]], "class_name": "AveragePooling2D"}, {"name": "flatten_6", "config": {"name": "flatten_6", "trainable": true}, "inbound_nodes": [[["average_pooling2d_6", 0, 0, {}]]], "class_name": "Flatten"}, {"name": "dense_6", "config": {"kernel_regularizer": null, "bias_regularizer": null, "bias_constraint": null, "name": "dense_6", "activation": "softmax", "trainable": true, "kernel_initializer": {"config": {"seed": null, "mode": "fan_in", "scale": 2.0, "distribution": "normal"}, "class_name": "VarianceScaling"}, "kernel_constraint": null, "bias_initializer": {"config": {}, "class_name": "Zeros"}, "use_bias": true, "activity_regularizer": null, "units": 10}, "inbound_nodes": [[["flatten_6", 0, 0, {}]]], "class_name": "Dense"}], "output_layers": [["dense_6", 0, 0]], "input_layers": [["input_12", 0, 0]]}, "keras_version": "2.1.2", "class_name": "Model"}