{"backend": "tensorflow", "config": {"name": "model_86", "layers": [{"name": "input_4", "config": {"name": "input_4", "dtype": "float32", "batch_input_shape": [null, 32, 32, 3], "sparse": false}, "inbound_nodes": [], "class_name": "InputLayer"}, {"name": "conv2d_1", "config": {"kernel_regularizer": {"config": {"l1": 0.0, "l2": 9.999999747378752e-05}, "class_name": "L1L2"}, "kernel_size": [3, 3], "filters": 16, "kernel_constraint": null, "name": "conv2d_1", "activation": "linear", "dilation_rate": [1, 1], "bias_regularizer": null, "trainable": true, "kernel_initializer": {"config": {"seed": null, "mode": "fan_avg", "scale": 1.0, "distribution": "uniform"}, "class_name": "VarianceScaling"}, "data_format": "channels_last", "bias_initializer": {"config": {}, "class_name": "Zeros"}, "padding": "same", "strides": [1, 1], "activity_regularizer": null, "bias_constraint": null, "use_bias": true}, "inbound_nodes": [[["input_4", 0, 0, {}]]], "class_name": "Conv2D"}, {"name": "batch_normalization_40", "config": {"momentum": 0.99, "moving_variance_initializer": {"config": {}, "class_name": "Ones"}, "name": "batch_normalization_40", "beta_regularizer": null, "moving_mean_initializer": {"config": {}, "class_name": "Zeros"}, "center": true, "gamma_constraint": null, "scale": true, "axis": -1, "trainable": true, "beta_initializer": {"config": {}, "class_name": "Zeros"}, "beta_constraint": null, "gamma_initializer": {"config": {}, "class_name": "Ones"}, "epsilon": 0.001, "gamma_regularizer": null}, "inbound_nodes": [[["conv2d_1", 0, 0, {}]]], "class_name": "BatchNormalization"}, {"name": "activation_1", "config": {"name": "activation_1", "activation": "relu", "trainable": true}, "inbound_nodes": [[["batch_normalization_40", 0, 0, {}]]], "class_name": "Activation"}, {"name": "conv2d_2", "config": {"kernel_regularizer": {"config": {"l1": 0.0, "l2": 9.999999747378752e-05}, "class_name": "L1L2"}, "kernel_size": [3, 3], "filters": 16, "kernel_constraint": null, "name": "conv2d_2", "activation": "linear", "dilation_rate": [1, 1], "bias_regularizer": null, "trainable": true, "kernel_initializer": {"config": {"seed": null, "mode": "fan_avg", "scale": 1.0, "distribution": "uniform"}, "class_name": "VarianceScaling"}, "data_format": "channels_last", "bias_initializer": {"config": {}, "class_name": "Zeros"}, "padding": "same", "strides": [1, 1], "activity_regularizer": null, "bias_constraint": null, "use_bias": true}, "inbound_nodes": [[["activation_1", 0, 0, {}]]], "class_name": "Conv2D"}, {"name": "batch_normalization_41", "config": {"momentum": 0.99, "moving_variance_initializer": {"config": {}, "class_name": "Ones"}, "name": "batch_normalization_41", "beta_regularizer": null, "moving_mean_initializer": {"config": {}, "class_name": "Zeros"}, "center": true, "gamma_constraint": null, "scale": true, "axis": -1, "trainable": true, "beta_initializer": {"config": {}, "class_name": "Zeros"}, "beta_constraint": null, "gamma_initializer": {"config": {}, "class_name": "Ones"}, "epsilon": 0.001, "gamma_regularizer": null}, "inbound_nodes": [[["conv2d_2", 0, 0, {}]]], "class_name": "BatchNormalization"}, {"name": "activation_2", "config": {"name": "activation_2", "activation": "relu", "trainable": true}, "inbound_nodes": [[["batch_normalization_41", 0, 0, {}]]], "class_name": "Activation"}, {"name": "conv2d_3", "config": {"kernel_regularizer": {"config": {"l1": 0.0, "l2": 9.999999747378752e-05}, "class_name": "L1L2"}, "kernel_size": [3, 3], "filters": 16, "kernel_constraint": null, "name": "conv2d_3", "activation": "linear", "dilation_rate": [1, 1], "bias_regularizer": null, "trainable": true, "kernel_initializer": {"config": {"seed": null, "mode": "fan_avg", "scale": 1.0, "distribution": "uniform"}, "class_name": "VarianceScaling"}, "data_format": "channels_last", "bias_initializer": {"config": {}, "class_name": "Zeros"}, "padding": "same", "strides": [1, 1], "activity_regularizer": null, "bias_constraint": null, "use_bias": true}, "inbound_nodes": [[["activation_2", 0, 0, {}]]], "class_name": "Conv2D"}, {"name": "batch_normalization_42", "config": {"momentum": 0.99, "moving_variance_initializer": {"config": {}, "class_name": "Ones"}, "name": "batch_normalization_42", "beta_regularizer": null, "moving_mean_initializer": {"config": {}, "class_name": "Zeros"}, "center": true, "gamma_constraint": null, "scale": true, "axis": -1, "trainable": true, "beta_initializer": {"config": {}, "class_name": "Zeros"}, "beta_constraint": null, "gamma_initializer": {"config": {}, "class_name": "Ones"}, "epsilon": 0.001, "gamma_regularizer": null}, "inbound_nodes": [[["conv2d_3", 0, 0, {}]]], "class_name": "BatchNormalization"}, {"name": "add_20", "config": {"name": "add_20", "trainable": true}, "inbound_nodes": [[["activation_1", 0, 0, {}], ["batch_normalization_42", 0, 0, {}]]], "class_name": "Add"}, {"name": "activation_3", "config": {"name": "activation_3", "activation": "relu", "trainable": true}, "inbound_nodes": [[["add_20", 0, 0, {}]]], "class_name": "Activation"}, {"name": "conv2d_4", "config": {"kernel_regularizer": {"config": {"l1": 0.0, "l2": 9.999999747378752e-05}, "class_name": "L1L2"}, "kernel_size": [3, 3], "filters": 15, "kernel_constraint": null, "name": "conv2d_4", "activation": "linear", "dilation_rate": [1, 1], "bias_regularizer": null, "trainable": true, "kernel_initializer": {"config": {"seed": null, "mode": "fan_avg", "scale": 1.0, "distribution": "uniform"}, "class_name": "VarianceScaling"}, "data_format": "channels_last", "bias_initializer": {"config": {}, "class_name": "Zeros"}, "padding": "same", "strides": [1, 1], "activity_regularizer": null, "bias_constraint": null, "use_bias": true}, "inbound_nodes": [[["activation_3", 0, 0, {}]]], "class_name": "Conv2D"}, {"name": "batch_normalization_43", "config": {"momentum": 0.99, "moving_variance_initializer": {"config": {}, "class_name": "Ones"}, "name": "batch_normalization_43", "beta_regularizer": null, "moving_mean_initializer": {"config": {}, "class_name": "Zeros"}, "center": true, "gamma_constraint": null, "scale": true, "axis": -1, "trainable": true, "beta_initializer": {"config": {}, "class_name": "Zeros"}, "beta_constraint": null, "gamma_initializer": {"config": {}, "class_name": "Ones"}, "epsilon": 0.001, "gamma_regularizer": null}, "inbound_nodes": [[["conv2d_4", 0, 0, {}]]], "class_name": "BatchNormalization"}, {"name": "activation_4", "config": {"name": "activation_4", "activation": "relu", "trainable": true}, "inbound_nodes": [[["batch_normalization_43", 0, 0, {}]]], "class_name": "Activation"}, {"name": "conv2d_5", "config": {"kernel_regularizer": {"config": {"l1": 0.0, "l2": 9.999999747378752e-05}, "class_name": "L1L2"}, "kernel_size": [3, 3], "filters": 16, "kernel_constraint": null, "name": "conv2d_5", "activation": "linear", "dilation_rate": [1, 1], "bias_regularizer": null, "trainable": true, "kernel_initializer": {"config": {"seed": null, "mode": "fan_avg", "scale": 1.0, "distribution": "uniform"}, "class_name": "VarianceScaling"}, "data_format": "channels_last", "bias_initializer": {"config": {}, "class_name": "Zeros"}, "padding": "same", "strides": [1, 1], "activity_regularizer": null, "bias_constraint": null, "use_bias": true}, "inbound_nodes": [[["activation_4", 0, 0, {}]]], "class_name": "Conv2D"}, {"name": "batch_normalization_44", "config": {"momentum": 0.99, "moving_variance_initializer": {"config": {}, "class_name": "Ones"}, "name": "batch_normalization_44", "beta_regularizer": null, "moving_mean_initializer": {"config": {}, "class_name": "Zeros"}, "center": true, "gamma_constraint": null, "scale": true, "axis": -1, "trainable": true, "beta_initializer": {"config": {}, "class_name": "Zeros"}, "beta_constraint": null, "gamma_initializer": {"config": {}, "class_name": "Ones"}, "epsilon": 0.001, "gamma_regularizer": null}, "inbound_nodes": [[["conv2d_5", 0, 0, {}]]], "class_name": "BatchNormalization"}, {"name": "add_21", "config": {"name": "add_21", "trainable": true}, "inbound_nodes": [[["activation_3", 0, 0, {}], ["batch_normalization_44", 0, 0, {}]]], "class_name": "Add"}, {"name": "activation_5", "config": {"name": "activation_5", "activation": "relu", "trainable": true}, "inbound_nodes": [[["add_21", 0, 0, {}]]], "class_name": "Activation"}, {"name": "conv2d_6", "config": {"kernel_regularizer": {"config": {"l1": 0.0, "l2": 9.999999747378752e-05}, "class_name": "L1L2"}, "kernel_size": [3, 3], "filters": 15, "kernel_constraint": null, "name": "conv2d_6", "activation": "linear", "dilation_rate": [1, 1], "bias_regularizer": null, "trainable": true, "kernel_initializer": {"config": {"seed": null, "mode": "fan_avg", "scale": 1.0, "distribution": "uniform"}, "class_name": "VarianceScaling"}, "data_format": "channels_last", "bias_initializer": {"config": {}, "class_name": "Zeros"}, "padding": "same", "strides": [1, 1], "activity_regularizer": null, "bias_constraint": null, "use_bias": true}, "inbound_nodes": [[["activation_5", 0, 0, {}]]], "class_name": "Conv2D"}, {"name": "batch_normalization_45", "config": {"momentum": 0.99, "moving_variance_initializer": {"config": {}, "class_name": "Ones"}, "name": "batch_normalization_45", "beta_regularizer": null, "moving_mean_initializer": {"config": {}, "class_name": "Zeros"}, "center": true, "gamma_constraint": null, "scale": true, "axis": -1, "trainable": true, "beta_initializer": {"config": {}, "class_name": "Zeros"}, "beta_constraint": null, "gamma_initializer": {"config": {}, "class_name": "Ones"}, "epsilon": 0.001, "gamma_regularizer": null}, "inbound_nodes": [[["conv2d_6", 0, 0, {}]]], "class_name": "BatchNormalization"}, {"name": "activation_6", "config": {"name": "activation_6", "activation": "relu", "trainable": true}, "inbound_nodes": [[["batch_normalization_45", 0, 0, {}]]], "class_name": "Activation"}, {"name": "conv2d_7", "config": {"kernel_regularizer": {"config": {"l1": 0.0, "l2": 9.999999747378752e-05}, "class_name": "L1L2"}, "kernel_size": [3, 3], "filters": 16, "kernel_constraint": null, "name": "conv2d_7", "activation": "linear", "dilation_rate": [1, 1], "bias_regularizer": null, "trainable": true, "kernel_initializer": {"config": {"seed": null, "mode": "fan_avg", "scale": 1.0, "distribution": "uniform"}, "class_name": "VarianceScaling"}, "data_format": "channels_last", "bias_initializer": {"config": {}, "class_name": "Zeros"}, "padding": "same", "strides": [1, 1], "activity_regularizer": null, "bias_constraint": null, "use_bias": true}, "inbound_nodes": [[["activation_6", 0, 0, {}]]], "class_name": "Conv2D"}, {"name": "batch_normalization_46", "config": {"momentum": 0.99, "moving_variance_initializer": {"config": {}, "class_name": "Ones"}, "name": "batch_normalization_46", "beta_regularizer": null, "moving_mean_initializer": {"config": {}, "class_name": "Zeros"}, "center": true, "gamma_constraint": null, "scale": true, "axis": -1, "trainable": true, "beta_initializer": {"config": {}, "class_name": "Zeros"}, "beta_constraint": null, "gamma_initializer": {"config": {}, "class_name": "Ones"}, "epsilon": 0.001, "gamma_regularizer": null}, "inbound_nodes": [[["conv2d_7", 0, 0, {}]]], "class_name": "BatchNormalization"}, {"name": "add_22", "config": {"name": "add_22", "trainable": true}, "inbound_nodes": [[["activation_5", 0, 0, {}], ["batch_normalization_46", 0, 0, {}]]], "class_name": "Add"}, {"name": "activation_7", "config": {"name": "activation_7", "activation": "relu", "trainable": true}, "inbound_nodes": [[["add_22", 0, 0, {}]]], "class_name": "Activation"}, {"name": "conv2d_8", "config": {"kernel_regularizer": {"config": {"l1": 0.0, "l2": 9.999999747378752e-05}, "class_name": "L1L2"}, "kernel_size": [3, 3], "filters": 14, "kernel_constraint": null, "name": "conv2d_8", "activation": "linear", "dilation_rate": [1, 1], "bias_regularizer": null, "trainable": true, "kernel_initializer": {"config": {"seed": null, "mode": "fan_avg", "scale": 1.0, "distribution": "uniform"}, "class_name": "VarianceScaling"}, "data_format": "channels_last", "bias_initializer": {"config": {}, "class_name": "Zeros"}, "padding": "same", "strides": [1, 1], "activity_regularizer": null, "bias_constraint": null, "use_bias": true}, "inbound_nodes": [[["activation_7", 0, 0, {}]]], "class_name": "Conv2D"}, {"name": "batch_normalization_47", "config": {"momentum": 0.99, "moving_variance_initializer": {"config": {}, "class_name": "Ones"}, "name": "batch_normalization_47", "beta_regularizer": null, "moving_mean_initializer": {"config": {}, "class_name": "Zeros"}, "center": true, "gamma_constraint": null, "scale": true, "axis": -1, "trainable": true, "beta_initializer": {"config": {}, "class_name": "Zeros"}, "beta_constraint": null, "gamma_initializer": {"config": {}, "class_name": "Ones"}, "epsilon": 0.001, "gamma_regularizer": null}, "inbound_nodes": [[["conv2d_8", 0, 0, {}]]], "class_name": "BatchNormalization"}, {"name": "activation_8", "config": {"name": "activation_8", "activation": "relu", "trainable": true}, "inbound_nodes": [[["batch_normalization_47", 0, 0, {}]]], "class_name": "Activation"}, {"name": "conv2d_9", "config": {"kernel_regularizer": {"config": {"l1": 0.0, "l2": 9.999999747378752e-05}, "class_name": "L1L2"}, "kernel_size": [3, 3], "filters": 16, "kernel_constraint": null, "name": "conv2d_9", "activation": "linear", "dilation_rate": [1, 1], "bias_regularizer": null, "trainable": true, "kernel_initializer": {"config": {"seed": null, "mode": "fan_avg", "scale": 1.0, "distribution": "uniform"}, "class_name": "VarianceScaling"}, "data_format": "channels_last", "bias_initializer": {"config": {}, "class_name": "Zeros"}, "padding": "same", "strides": [1, 1], "activity_regularizer": null, "bias_constraint": null, "use_bias": true}, "inbound_nodes": [[["activation_8", 0, 0, {}]]], "class_name": "Conv2D"}, {"name": "batch_normalization_48", "config": {"momentum": 0.99, "moving_variance_initializer": {"config": {}, "class_name": "Ones"}, "name": "batch_normalization_48", "beta_regularizer": null, "moving_mean_initializer": {"config": {}, "class_name": "Zeros"}, "center": true, "gamma_constraint": null, "scale": true, "axis": -1, "trainable": true, "beta_initializer": {"config": {}, "class_name": "Zeros"}, "beta_constraint": null, "gamma_initializer": {"config": {}, "class_name": "Ones"}, "epsilon": 0.001, "gamma_regularizer": null}, "inbound_nodes": [[["conv2d_9", 0, 0, {}]]], "class_name": "BatchNormalization"}, {"name": "add_23", "config": {"name": "add_23", "trainable": true}, "inbound_nodes": [[["activation_7", 0, 0, {}], ["batch_normalization_48", 0, 0, {}]]], "class_name": "Add"}, {"name": "activation_9", "config": {"name": "activation_9", "activation": "relu", "trainable": true}, "inbound_nodes": [[["add_23", 0, 0, {}]]], "class_name": "Activation"}, {"name": "conv2d_10", "config": {"kernel_regularizer": {"config": {"l1": 0.0, "l2": 9.999999747378752e-05}, "class_name": "L1L2"}, "kernel_size": [3, 3], "filters": 11, "kernel_constraint": null, "name": "conv2d_10", "activation": "linear", "dilation_rate": [1, 1], "bias_regularizer": null, "trainable": true, "kernel_initializer": {"config": {"seed": null, "mode": "fan_avg", "scale": 1.0, "distribution": "uniform"}, "class_name": "VarianceScaling"}, "data_format": "channels_last", "bias_initializer": {"config": {}, "class_name": "Zeros"}, "padding": "same", "strides": [1, 1], "activity_regularizer": null, "bias_constraint": null, "use_bias": true}, "inbound_nodes": [[["activation_9", 0, 0, {}]]], "class_name": "Conv2D"}, {"name": "batch_normalization_49", "config": {"momentum": 0.99, "moving_variance_initializer": {"config": {}, "class_name": "Ones"}, "name": "batch_normalization_49", "beta_regularizer": null, "moving_mean_initializer": {"config": {}, "class_name": "Zeros"}, "center": true, "gamma_constraint": null, "scale": true, "axis": -1, "trainable": true, "beta_initializer": {"config": {}, "class_name": "Zeros"}, "beta_constraint": null, "gamma_initializer": {"config": {}, "class_name": "Ones"}, "epsilon": 0.001, "gamma_regularizer": null}, "inbound_nodes": [[["conv2d_10", 0, 0, {}]]], "class_name": "BatchNormalization"}, {"name": "activation_10", "config": {"name": "activation_10", "activation": "relu", "trainable": true}, "inbound_nodes": [[["batch_normalization_49", 0, 0, {}]]], "class_name": "Activation"}, {"name": "conv2d_11", "config": {"kernel_regularizer": {"config": {"l1": 0.0, "l2": 9.999999747378752e-05}, "class_name": "L1L2"}, "kernel_size": [3, 3], "filters": 16, "kernel_constraint": null, "name": "conv2d_11", "activation": "linear", "dilation_rate": [1, 1], "bias_regularizer": null, "trainable": true, "kernel_initializer": {"config": {"seed": null, "mode": "fan_avg", "scale": 1.0, "distribution": "uniform"}, "class_name": "VarianceScaling"}, "data_format": "channels_last", "bias_initializer": {"config": {}, "class_name": "Zeros"}, "padding": "same", "strides": [1, 1], "activity_regularizer": null, "bias_constraint": null, "use_bias": true}, "inbound_nodes": [[["activation_10", 0, 0, {}]]], "class_name": "Conv2D"}, {"name": "batch_normalization_50", "config": {"momentum": 0.99, "moving_variance_initializer": {"config": {}, "class_name": "Ones"}, "name": "batch_normalization_50", "beta_regularizer": null, "moving_mean_initializer": {"config": {}, "class_name": "Zeros"}, "center": true, "gamma_constraint": null, "scale": true, "axis": -1, "trainable": true, "beta_initializer": {"config": {}, "class_name": "Zeros"}, "beta_constraint": null, "gamma_initializer": {"config": {}, "class_name": "Ones"}, "epsilon": 0.001, "gamma_regularizer": null}, "inbound_nodes": [[["conv2d_11", 0, 0, {}]]], "class_name": "BatchNormalization"}, {"name": "add_24", "config": {"name": "add_24", "trainable": true}, "inbound_nodes": [[["activation_9", 0, 0, {}], ["batch_normalization_50", 0, 0, {}]]], "class_name": "Add"}, {"name": "activation_11", "config": {"name": "activation_11", "activation": "relu", "trainable": true}, "inbound_nodes": [[["add_24", 0, 0, {}]]], "class_name": "Activation"}, {"name": "conv2d_12", "config": {"kernel_regularizer": {"config": {"l1": 0.0, "l2": 9.999999747378752e-05}, "class_name": "L1L2"}, "kernel_size": [3, 3], "filters": 11, "kernel_constraint": null, "name": "conv2d_12", "activation": "linear", "dilation_rate": [1, 1], "bias_regularizer": null, "trainable": true, "kernel_initializer": {"config": {"seed": null, "mode": "fan_avg", "scale": 1.0, "distribution": "uniform"}, "class_name": "VarianceScaling"}, "data_format": "channels_last", "bias_initializer": {"config": {}, "class_name": "Zeros"}, "padding": "same", "strides": [1, 1], "activity_regularizer": null, "bias_constraint": null, "use_bias": true}, "inbound_nodes": [[["activation_11", 0, 0, {}]]], "class_name": "Conv2D"}, {"name": "batch_normalization_51", "config": {"momentum": 0.99, "moving_variance_initializer": {"config": {}, "class_name": "Ones"}, "name": "batch_normalization_51", "beta_regularizer": null, "moving_mean_initializer": {"config": {}, "class_name": "Zeros"}, "center": true, "gamma_constraint": null, "scale": true, "axis": -1, "trainable": true, "beta_initializer": {"config": {}, "class_name": "Zeros"}, "beta_constraint": null, "gamma_initializer": {"config": {}, "class_name": "Ones"}, "epsilon": 0.001, "gamma_regularizer": null}, "inbound_nodes": [[["conv2d_12", 0, 0, {}]]], "class_name": "BatchNormalization"}, {"name": "activation_12", "config": {"name": "activation_12", "activation": "relu", "trainable": true}, "inbound_nodes": [[["batch_normalization_51", 0, 0, {}]]], "class_name": "Activation"}, {"name": "conv2d_13", "config": {"kernel_regularizer": {"config": {"l1": 0.0, "l2": 9.999999747378752e-05}, "class_name": "L1L2"}, "kernel_size": [3, 3], "filters": 16, "kernel_constraint": null, "name": "conv2d_13", "activation": "linear", "dilation_rate": [1, 1], "bias_regularizer": null, "trainable": true, "kernel_initializer": {"config": {"seed": null, "mode": "fan_avg", "scale": 1.0, "distribution": "uniform"}, "class_name": "VarianceScaling"}, "data_format": "channels_last", "bias_initializer": {"config": {}, "class_name": "Zeros"}, "padding": "same", "strides": [1, 1], "activity_regularizer": null, "bias_constraint": null, "use_bias": true}, "inbound_nodes": [[["activation_12", 0, 0, {}]]], "class_name": "Conv2D"}, {"name": "batch_normalization_52", "config": {"momentum": 0.99, "moving_variance_initializer": {"config": {}, "class_name": "Ones"}, "name": "batch_normalization_52", "beta_regularizer": null, "moving_mean_initializer": {"config": {}, "class_name": "Zeros"}, "center": true, "gamma_constraint": null, "scale": true, "axis": -1, "trainable": true, "beta_initializer": {"config": {}, "class_name": "Zeros"}, "beta_constraint": null, "gamma_initializer": {"config": {}, "class_name": "Ones"}, "epsilon": 0.001, "gamma_regularizer": null}, "inbound_nodes": [[["conv2d_13", 0, 0, {}]]], "class_name": "BatchNormalization"}, {"name": "add_25", "config": {"name": "add_25", "trainable": true}, "inbound_nodes": [[["activation_11", 0, 0, {}], ["batch_normalization_52", 0, 0, {}]]], "class_name": "Add"}, {"name": "activation_13", "config": {"name": "activation_13", "activation": "relu", "trainable": true}, "inbound_nodes": [[["add_25", 0, 0, {}]]], "class_name": "Activation"}, {"name": "conv2d_14", "config": {"kernel_regularizer": {"config": {"l1": 0.0, "l2": 9.999999747378752e-05}, "class_name": "L1L2"}, "kernel_size": [3, 3], "filters": 14, "kernel_constraint": null, "name": "conv2d_14", "activation": "linear", "dilation_rate": [1, 1], "bias_regularizer": null, "trainable": true, "kernel_initializer": {"config": {"seed": null, "mode": "fan_avg", "scale": 1.0, "distribution": "uniform"}, "class_name": "VarianceScaling"}, "data_format": "channels_last", "bias_initializer": {"config": {}, "class_name": "Zeros"}, "padding": "same", "strides": [1, 1], "activity_regularizer": null, "bias_constraint": null, "use_bias": true}, "inbound_nodes": [[["activation_13", 0, 0, {}]]], "class_name": "Conv2D"}, {"name": "batch_normalization_53", "config": {"momentum": 0.99, "moving_variance_initializer": {"config": {}, "class_name": "Ones"}, "name": "batch_normalization_53", "beta_regularizer": null, "moving_mean_initializer": {"config": {}, "class_name": "Zeros"}, "center": true, "gamma_constraint": null, "scale": true, "axis": -1, "trainable": true, "beta_initializer": {"config": {}, "class_name": "Zeros"}, "beta_constraint": null, "gamma_initializer": {"config": {}, "class_name": "Ones"}, "epsilon": 0.001, "gamma_regularizer": null}, "inbound_nodes": [[["conv2d_14", 0, 0, {}]]], "class_name": "BatchNormalization"}, {"name": "activation_14", "config": {"name": "activation_14", "activation": "relu", "trainable": true}, "inbound_nodes": [[["batch_normalization_53", 0, 0, {}]]], "class_name": "Activation"}, {"name": "conv2d_15", "config": {"kernel_regularizer": {"config": {"l1": 0.0, "l2": 9.999999747378752e-05}, "class_name": "L1L2"}, "kernel_size": [3, 3], "filters": 16, "kernel_constraint": null, "name": "conv2d_15", "activation": "linear", "dilation_rate": [1, 1], "bias_regularizer": null, "trainable": true, "kernel_initializer": {"config": {"seed": null, "mode": "fan_avg", "scale": 1.0, "distribution": "uniform"}, "class_name": "VarianceScaling"}, "data_format": "channels_last", "bias_initializer": {"config": {}, "class_name": "Zeros"}, "padding": "same", "strides": [1, 1], "activity_regularizer": null, "bias_constraint": null, "use_bias": true}, "inbound_nodes": [[["activation_14", 0, 0, {}]]], "class_name": "Conv2D"}, {"name": "batch_normalization_54", "config": {"momentum": 0.99, "moving_variance_initializer": {"config": {}, "class_name": "Ones"}, "name": "batch_normalization_54", "beta_regularizer": null, "moving_mean_initializer": {"config": {}, "class_name": "Zeros"}, "center": true, "gamma_constraint": null, "scale": true, "axis": -1, "trainable": true, "beta_initializer": {"config": {}, "class_name": "Zeros"}, "beta_constraint": null, "gamma_initializer": {"config": {}, "class_name": "Ones"}, "epsilon": 0.001, "gamma_regularizer": null}, "inbound_nodes": [[["conv2d_15", 0, 0, {}]]], "class_name": "BatchNormalization"}, {"name": "add_26", "config": {"name": "add_26", "trainable": true}, "inbound_nodes": [[["activation_13", 0, 0, {}], ["batch_normalization_54", 0, 0, {}]]], "class_name": "Add"}, {"name": "activation_15", "config": {"name": "activation_15", "activation": "relu", "trainable": true}, "inbound_nodes": [[["add_26", 0, 0, {}]]], "class_name": "Activation"}, {"name": "conv2d_16", "config": {"kernel_regularizer": {"config": {"l1": 0.0, "l2": 9.999999747378752e-05}, "class_name": "L1L2"}, "kernel_size": [3, 3], "filters": 15, "kernel_constraint": null, "name": "conv2d_16", "activation": "linear", "dilation_rate": [1, 1], "bias_regularizer": null, "trainable": true, "kernel_initializer": {"config": {"seed": null, "mode": "fan_avg", "scale": 1.0, "distribution": "uniform"}, "class_name": "VarianceScaling"}, "data_format": "channels_last", "bias_initializer": {"config": {}, "class_name": "Zeros"}, "padding": "same", "strides": [1, 1], "activity_regularizer": null, "bias_constraint": null, "use_bias": true}, "inbound_nodes": [[["activation_15", 0, 0, {}]]], "class_name": "Conv2D"}, {"name": "batch_normalization_55", "config": {"momentum": 0.99, "moving_variance_initializer": {"config": {}, "class_name": "Ones"}, "name": "batch_normalization_55", "beta_regularizer": null, "moving_mean_initializer": {"config": {}, "class_name": "Zeros"}, "center": true, "gamma_constraint": null, "scale": true, "axis": -1, "trainable": true, "beta_initializer": {"config": {}, "class_name": "Zeros"}, "beta_constraint": null, "gamma_initializer": {"config": {}, "class_name": "Ones"}, "epsilon": 0.001, "gamma_regularizer": null}, "inbound_nodes": [[["conv2d_16", 0, 0, {}]]], "class_name": "BatchNormalization"}, {"name": "activation_16", "config": {"name": "activation_16", "activation": "relu", "trainable": true}, "inbound_nodes": [[["batch_normalization_55", 0, 0, {}]]], "class_name": "Activation"}, {"name": "conv2d_17", "config": {"kernel_regularizer": {"config": {"l1": 0.0, "l2": 9.999999747378752e-05}, "class_name": "L1L2"}, "kernel_size": [3, 3], "filters": 16, "kernel_constraint": null, "name": "conv2d_17", "activation": "linear", "dilation_rate": [1, 1], "bias_regularizer": null, "trainable": true, "kernel_initializer": {"config": {"seed": null, "mode": "fan_avg", "scale": 1.0, "distribution": "uniform"}, "class_name": "VarianceScaling"}, "data_format": "channels_last", "bias_initializer": {"config": {}, "class_name": "Zeros"}, "padding": "same", "strides": [1, 1], "activity_regularizer": null, "bias_constraint": null, "use_bias": true}, "inbound_nodes": [[["activation_16", 0, 0, {}]]], "class_name": "Conv2D"}, {"name": "batch_normalization_56", "config": {"momentum": 0.99, "moving_variance_initializer": {"config": {}, "class_name": "Ones"}, "name": "batch_normalization_56", "beta_regularizer": null, "moving_mean_initializer": {"config": {}, "class_name": "Zeros"}, "center": true, "gamma_constraint": null, "scale": true, "axis": -1, "trainable": true, "beta_initializer": {"config": {}, "class_name": "Zeros"}, "beta_constraint": null, "gamma_initializer": {"config": {}, "class_name": "Ones"}, "epsilon": 0.001, "gamma_regularizer": null}, "inbound_nodes": [[["conv2d_17", 0, 0, {}]]], "class_name": "BatchNormalization"}, {"name": "add_27", "config": {"name": "add_27", "trainable": true}, "inbound_nodes": [[["activation_15", 0, 0, {}], ["batch_normalization_56", 0, 0, {}]]], "class_name": "Add"}, {"name": "activation_17", "config": {"name": "activation_17", "activation": "relu", "trainable": true}, "inbound_nodes": [[["add_27", 0, 0, {}]]], "class_name": "Activation"}, {"name": "conv2d_18", "config": {"kernel_regularizer": {"config": {"l1": 0.0, "l2": 9.999999747378752e-05}, "class_name": "L1L2"}, "kernel_size": [3, 3], "filters": 14, "kernel_constraint": null, "name": "conv2d_18", "activation": "linear", "dilation_rate": [1, 1], "bias_regularizer": null, "trainable": true, "kernel_initializer": {"config": {"seed": null, "mode": "fan_avg", "scale": 1.0, "distribution": "uniform"}, "class_name": "VarianceScaling"}, "data_format": "channels_last", "bias_initializer": {"config": {}, "class_name": "Zeros"}, "padding": "same", "strides": [1, 1], "activity_regularizer": null, "bias_constraint": null, "use_bias": true}, "inbound_nodes": [[["activation_17", 0, 0, {}]]], "class_name": "Conv2D"}, {"name": "batch_normalization_57", "config": {"momentum": 0.99, "moving_variance_initializer": {"config": {}, "class_name": "Ones"}, "name": "batch_normalization_57", "beta_regularizer": null, "moving_mean_initializer": {"config": {}, "class_name": "Zeros"}, "center": true, "gamma_constraint": null, "scale": true, "axis": -1, "trainable": true, "beta_initializer": {"config": {}, "class_name": "Zeros"}, "beta_constraint": null, "gamma_initializer": {"config": {}, "class_name": "Ones"}, "epsilon": 0.001, "gamma_regularizer": null}, "inbound_nodes": [[["conv2d_18", 0, 0, {}]]], "class_name": "BatchNormalization"}, {"name": "activation_18", "config": {"name": "activation_18", "activation": "relu", "trainable": true}, "inbound_nodes": [[["batch_normalization_57", 0, 0, {}]]], "class_name": "Activation"}, {"name": "conv2d_19", "config": {"kernel_regularizer": {"config": {"l1": 0.0, "l2": 9.999999747378752e-05}, "class_name": "L1L2"}, "kernel_size": [3, 3], "filters": 16, "kernel_constraint": null, "name": "conv2d_19", "activation": "linear", "dilation_rate": [1, 1], "bias_regularizer": null, "trainable": true, "kernel_initializer": {"config": {"seed": null, "mode": "fan_avg", "scale": 1.0, "distribution": "uniform"}, "class_name": "VarianceScaling"}, "data_format": "channels_last", "bias_initializer": {"config": {}, "class_name": "Zeros"}, "padding": "same", "strides": [1, 1], "activity_regularizer": null, "bias_constraint": null, "use_bias": true}, "inbound_nodes": [[["activation_18", 0, 0, {}]]], "class_name": "Conv2D"}, {"name": "batch_normalization_58", "config": {"momentum": 0.99, "moving_variance_initializer": {"config": {}, "class_name": "Ones"}, "name": "batch_normalization_58", "beta_regularizer": null, "moving_mean_initializer": {"config": {}, "class_name": "Zeros"}, "center": true, "gamma_constraint": null, "scale": true, "axis": -1, "trainable": true, "beta_initializer": {"config": {}, "class_name": "Zeros"}, "beta_constraint": null, "gamma_initializer": {"config": {}, "class_name": "Ones"}, "epsilon": 0.001, "gamma_regularizer": null}, "inbound_nodes": [[["conv2d_19", 0, 0, {}]]], "class_name": "BatchNormalization"}, {"name": "add_28", "config": {"name": "add_28", "trainable": true}, "inbound_nodes": [[["activation_17", 0, 0, {}], ["batch_normalization_58", 0, 0, {}]]], "class_name": "Add"}, {"name": "activation_19", "config": {"name": "activation_19", "activation": "relu", "trainable": true}, "inbound_nodes": [[["add_28", 0, 0, {}]]], "class_name": "Activation"}, {"name": "conv2d_20", "config": {"kernel_regularizer": {"config": {"l1": 0.0, "l2": 9.999999747378752e-05}, "class_name": "L1L2"}, "kernel_size": [3, 3], "filters": 30, "kernel_constraint": null, "name": "conv2d_20", "activation": "linear", "dilation_rate": [1, 1], "bias_regularizer": null, "trainable": true, "kernel_initializer": {"config": {"seed": null, "mode": "fan_avg", "scale": 1.0, "distribution": "uniform"}, "class_name": "VarianceScaling"}, "data_format": "channels_last", "bias_initializer": {"config": {}, "class_name": "Zeros"}, "padding": "same", "strides": [2, 2], "activity_regularizer": null, "bias_constraint": null, "use_bias": true}, "inbound_nodes": [[["activation_19", 0, 0, {}]]], "class_name": "Conv2D"}, {"name": "batch_normalization_59", "config": {"momentum": 0.99, "moving_variance_initializer": {"config": {}, "class_name": "Ones"}, "name": "batch_normalization_59", "beta_regularizer": null, "moving_mean_initializer": {"config": {}, "class_name": "Zeros"}, "center": true, "gamma_constraint": null, "scale": true, "axis": -1, "trainable": true, "beta_initializer": {"config": {}, "class_name": "Zeros"}, "beta_constraint": null, "gamma_initializer": {"config": {}, "class_name": "Ones"}, "epsilon": 0.001, "gamma_regularizer": null}, "inbound_nodes": [[["conv2d_20", 0, 0, {}]]], "class_name": "BatchNormalization"}, {"name": "activation_20", "config": {"name": "activation_20", "activation": "relu", "trainable": true}, "inbound_nodes": [[["batch_normalization_59", 0, 0, {}]]], "class_name": "Activation"}, {"name": "conv2d_21", "config": {"kernel_regularizer": {"config": {"l1": 0.0, "l2": 9.999999747378752e-05}, "class_name": "L1L2"}, "kernel_size": [3, 3], "filters": 32, "kernel_constraint": null, "name": "conv2d_21", "activation": "linear", "dilation_rate": [1, 1], "bias_regularizer": null, "trainable": true, "kernel_initializer": {"config": {"seed": null, "mode": "fan_avg", "scale": 1.0, "distribution": "uniform"}, "class_name": "VarianceScaling"}, "data_format": "channels_last", "bias_initializer": {"config": {}, "class_name": "Zeros"}, "padding": "same", "strides": [1, 1], "activity_regularizer": null, "bias_constraint": null, "use_bias": true}, "inbound_nodes": [[["activation_20", 0, 0, {}]]], "class_name": "Conv2D"}, {"name": "conv2d_22", "config": {"kernel_regularizer": {"config": {"l1": 0.0, "l2": 9.999999747378752e-05}, "class_name": "L1L2"}, "kernel_size": [1, 1], "filters": 32, "kernel_constraint": null, "name": "conv2d_22", "activation": "linear", "dilation_rate": [1, 1], "bias_regularizer": null, "trainable": true, "kernel_initializer": {"config": {"seed": null, "mode": "fan_avg", "scale": 1.0, "distribution": "uniform"}, "class_name": "VarianceScaling"}, "data_format": "channels_last", "bias_initializer": {"config": {}, "class_name": "Zeros"}, "padding": "same", "strides": [2, 2], "activity_regularizer": null, "bias_constraint": null, "use_bias": true}, "inbound_nodes": [[["activation_19", 0, 0, {}]]], "class_name": "Conv2D"}, {"name": "batch_normalization_60", "config": {"momentum": 0.99, "moving_variance_initializer": {"config": {}, "class_name": "Ones"}, "name": "batch_normalization_60", "beta_regularizer": null, "moving_mean_initializer": {"config": {}, "class_name": "Zeros"}, "center": true, "gamma_constraint": null, "scale": true, "axis": -1, "trainable": true, "beta_initializer": {"config": {}, "class_name": "Zeros"}, "beta_constraint": null, "gamma_initializer": {"config": {}, "class_name": "Ones"}, "epsilon": 0.001, "gamma_regularizer": null}, "inbound_nodes": [[["conv2d_21", 0, 0, {}]]], "class_name": "BatchNormalization"}, {"name": "add_29", "config": {"name": "add_29", "trainable": true}, "inbound_nodes": [[["conv2d_22", 0, 0, {}], ["batch_normalization_60", 0, 0, {}]]], "class_name": "Add"}, {"name": "activation_21", "config": {"name": "activation_21", "activation": "relu", "trainable": true}, "inbound_nodes": [[["add_29", 0, 0, {}]]], "class_name": "Activation"}, {"name": "conv2d_23", "config": {"kernel_regularizer": {"config": {"l1": 0.0, "l2": 9.999999747378752e-05}, "class_name": "L1L2"}, "kernel_size": [3, 3], "filters": 29, "kernel_constraint": null, "name": "conv2d_23", "activation": "linear", "dilation_rate": [1, 1], "bias_regularizer": null, "trainable": true, "kernel_initializer": {"config": {"seed": null, "mode": "fan_avg", "scale": 1.0, "distribution": "uniform"}, "class_name": "VarianceScaling"}, "data_format": "channels_last", "bias_initializer": {"config": {}, "class_name": "Zeros"}, "padding": "same", "strides": [1, 1], "activity_regularizer": null, "bias_constraint": null, "use_bias": true}, "inbound_nodes": [[["activation_21", 0, 0, {}]]], "class_name": "Conv2D"}, {"name": "batch_normalization_61", "config": {"momentum": 0.99, "moving_variance_initializer": {"config": {}, "class_name": "Ones"}, "name": "batch_normalization_61", "beta_regularizer": null, "moving_mean_initializer": {"config": {}, "class_name": "Zeros"}, "center": true, "gamma_constraint": null, "scale": true, "axis": -1, "trainable": true, "beta_initializer": {"config": {}, "class_name": "Zeros"}, "beta_constraint": null, "gamma_initializer": {"config": {}, "class_name": "Ones"}, "epsilon": 0.001, "gamma_regularizer": null}, "inbound_nodes": [[["conv2d_23", 0, 0, {}]]], "class_name": "BatchNormalization"}, {"name": "activation_22", "config": {"name": "activation_22", "activation": "relu", "trainable": true}, "inbound_nodes": [[["batch_normalization_61", 0, 0, {}]]], "class_name": "Activation"}, {"name": "conv2d_24", "config": {"kernel_regularizer": {"config": {"l1": 0.0, "l2": 9.999999747378752e-05}, "class_name": "L1L2"}, "kernel_size": [3, 3], "filters": 32, "kernel_constraint": null, "name": "conv2d_24", "activation": "linear", "dilation_rate": [1, 1], "bias_regularizer": null, "trainable": true, "kernel_initializer": {"config": {"seed": null, "mode": "fan_avg", "scale": 1.0, "distribution": "uniform"}, "class_name": "VarianceScaling"}, "data_format": "channels_last", "bias_initializer": {"config": {}, "class_name": "Zeros"}, "padding": "same", "strides": [1, 1], "activity_regularizer": null, "bias_constraint": null, "use_bias": true}, "inbound_nodes": [[["activation_22", 0, 0, {}]]], "class_name": "Conv2D"}, {"name": "batch_normalization_62", "config": {"momentum": 0.99, "moving_variance_initializer": {"config": {}, "class_name": "Ones"}, "name": "batch_normalization_62", "beta_regularizer": null, "moving_mean_initializer": {"config": {}, "class_name": "Zeros"}, "center": true, "gamma_constraint": null, "scale": true, "axis": -1, "trainable": true, "beta_initializer": {"config": {}, "class_name": "Zeros"}, "beta_constraint": null, "gamma_initializer": {"config": {}, "class_name": "Ones"}, "epsilon": 0.001, "gamma_regularizer": null}, "inbound_nodes": [[["conv2d_24", 0, 0, {}]]], "class_name": "BatchNormalization"}, {"name": "add_30", "config": {"name": "add_30", "trainable": true}, "inbound_nodes": [[["activation_21", 0, 0, {}], ["batch_normalization_62", 0, 0, {}]]], "class_name": "Add"}, {"name": "activation_23", "config": {"name": "activation_23", "activation": "relu", "trainable": true}, "inbound_nodes": [[["add_30", 0, 0, {}]]], "class_name": "Activation"}, {"name": "conv2d_25", "config": {"kernel_regularizer": {"config": {"l1": 0.0, "l2": 9.999999747378752e-05}, "class_name": "L1L2"}, "kernel_size": [3, 3], "filters": 25, "kernel_constraint": null, "name": "conv2d_25", "activation": "linear", "dilation_rate": [1, 1], "bias_regularizer": null, "trainable": true, "kernel_initializer": {"config": {"seed": null, "mode": "fan_avg", "scale": 1.0, "distribution": "uniform"}, "class_name": "VarianceScaling"}, "data_format": "channels_last", "bias_initializer": {"config": {}, "class_name": "Zeros"}, "padding": "same", "strides": [1, 1], "activity_regularizer": null, "bias_constraint": null, "use_bias": true}, "inbound_nodes": [[["activation_23", 0, 0, {}]]], "class_name": "Conv2D"}, {"name": "batch_normalization_63", "config": {"momentum": 0.99, "moving_variance_initializer": {"config": {}, "class_name": "Ones"}, "name": "batch_normalization_63", "beta_regularizer": null, "moving_mean_initializer": {"config": {}, "class_name": "Zeros"}, "center": true, "gamma_constraint": null, "scale": true, "axis": -1, "trainable": true, "beta_initializer": {"config": {}, "class_name": "Zeros"}, "beta_constraint": null, "gamma_initializer": {"config": {}, "class_name": "Ones"}, "epsilon": 0.001, "gamma_regularizer": null}, "inbound_nodes": [[["conv2d_25", 0, 0, {}]]], "class_name": "BatchNormalization"}, {"name": "activation_24", "config": {"name": "activation_24", "activation": "relu", "trainable": true}, "inbound_nodes": [[["batch_normalization_63", 0, 0, {}]]], "class_name": "Activation"}, {"name": "conv2d_26", "config": {"kernel_regularizer": {"config": {"l1": 0.0, "l2": 9.999999747378752e-05}, "class_name": "L1L2"}, "kernel_size": [3, 3], "filters": 32, "kernel_constraint": null, "name": "conv2d_26", "activation": "linear", "dilation_rate": [1, 1], "bias_regularizer": null, "trainable": true, "kernel_initializer": {"config": {"seed": null, "mode": "fan_avg", "scale": 1.0, "distribution": "uniform"}, "class_name": "VarianceScaling"}, "data_format": "channels_last", "bias_initializer": {"config": {}, "class_name": "Zeros"}, "padding": "same", "strides": [1, 1], "activity_regularizer": null, "bias_constraint": null, "use_bias": true}, "inbound_nodes": [[["activation_24", 0, 0, {}]]], "class_name": "Conv2D"}, {"name": "batch_normalization_64", "config": {"momentum": 0.99, "moving_variance_initializer": {"config": {}, "class_name": "Ones"}, "name": "batch_normalization_64", "beta_regularizer": null, "moving_mean_initializer": {"config": {}, "class_name": "Zeros"}, "center": true, "gamma_constraint": null, "scale": true, "axis": -1, "trainable": true, "beta_initializer": {"config": {}, "class_name": "Zeros"}, "beta_constraint": null, "gamma_initializer": {"config": {}, "class_name": "Ones"}, "epsilon": 0.001, "gamma_regularizer": null}, "inbound_nodes": [[["conv2d_26", 0, 0, {}]]], "class_name": "BatchNormalization"}, {"name": "add_31", "config": {"name": "add_31", "trainable": true}, "inbound_nodes": [[["activation_23", 0, 0, {}], ["batch_normalization_64", 0, 0, {}]]], "class_name": "Add"}, {"name": "activation_25", "config": {"name": "activation_25", "activation": "relu", "trainable": true}, "inbound_nodes": [[["add_31", 0, 0, {}]]], "class_name": "Activation"}, {"name": "conv2d_27", "config": {"kernel_regularizer": {"config": {"l1": 0.0, "l2": 9.999999747378752e-05}, "class_name": "L1L2"}, "kernel_size": [3, 3], "filters": 26, "kernel_constraint": null, "name": "conv2d_27", "activation": "linear", "dilation_rate": [1, 1], "bias_regularizer": null, "trainable": true, "kernel_initializer": {"config": {"seed": null, "mode": "fan_avg", "scale": 1.0, "distribution": "uniform"}, "class_name": "VarianceScaling"}, "data_format": "channels_last", "bias_initializer": {"config": {}, "class_name": "Zeros"}, "padding": "same", "strides": [1, 1], "activity_regularizer": null, "bias_constraint": null, "use_bias": true}, "inbound_nodes": [[["activation_25", 0, 0, {}]]], "class_name": "Conv2D"}, {"name": "batch_normalization_65", "config": {"momentum": 0.99, "moving_variance_initializer": {"config": {}, "class_name": "Ones"}, "name": "batch_normalization_65", "beta_regularizer": null, "moving_mean_initializer": {"config": {}, "class_name": "Zeros"}, "center": true, "gamma_constraint": null, "scale": true, "axis": -1, "trainable": true, "beta_initializer": {"config": {}, "class_name": "Zeros"}, "beta_constraint": null, "gamma_initializer": {"config": {}, "class_name": "Ones"}, "epsilon": 0.001, "gamma_regularizer": null}, "inbound_nodes": [[["conv2d_27", 0, 0, {}]]], "class_name": "BatchNormalization"}, {"name": "activation_26", "config": {"name": "activation_26", "activation": "relu", "trainable": true}, "inbound_nodes": [[["batch_normalization_65", 0, 0, {}]]], "class_name": "Activation"}, {"name": "conv2d_28", "config": {"kernel_regularizer": {"config": {"l1": 0.0, "l2": 9.999999747378752e-05}, "class_name": "L1L2"}, "kernel_size": [3, 3], "filters": 32, "kernel_constraint": null, "name": "conv2d_28", "activation": "linear", "dilation_rate": [1, 1], "bias_regularizer": null, "trainable": true, "kernel_initializer": {"config": {"seed": null, "mode": "fan_avg", "scale": 1.0, "distribution": "uniform"}, "class_name": "VarianceScaling"}, "data_format": "channels_last", "bias_initializer": {"config": {}, "class_name": "Zeros"}, "padding": "same", "strides": [1, 1], "activity_regularizer": null, "bias_constraint": null, "use_bias": true}, "inbound_nodes": [[["activation_26", 0, 0, {}]]], "class_name": "Conv2D"}, {"name": "batch_normalization_66", "config": {"momentum": 0.99, "moving_variance_initializer": {"config": {}, "class_name": "Ones"}, "name": "batch_normalization_66", "beta_regularizer": null, "moving_mean_initializer": {"config": {}, "class_name": "Zeros"}, "center": true, "gamma_constraint": null, "scale": true, "axis": -1, "trainable": true, "beta_initializer": {"config": {}, "class_name": "Zeros"}, "beta_constraint": null, "gamma_initializer": {"config": {}, "class_name": "Ones"}, "epsilon": 0.001, "gamma_regularizer": null}, "inbound_nodes": [[["conv2d_28", 0, 0, {}]]], "class_name": "BatchNormalization"}, {"name": "add_32", "config": {"name": "add_32", "trainable": true}, "inbound_nodes": [[["activation_25", 0, 0, {}], ["batch_normalization_66", 0, 0, {}]]], "class_name": "Add"}, {"name": "activation_27", "config": {"name": "activation_27", "activation": "relu", "trainable": true}, "inbound_nodes": [[["add_32", 0, 0, {}]]], "class_name": "Activation"}, {"name": "conv2d_29", "config": {"kernel_regularizer": {"config": {"l1": 0.0, "l2": 9.999999747378752e-05}, "class_name": "L1L2"}, "kernel_size": [3, 3], "filters": 23, "kernel_constraint": null, "name": "conv2d_29", "activation": "linear", "dilation_rate": [1, 1], "bias_regularizer": null, "trainable": true, "kernel_initializer": {"config": {"seed": null, "mode": "fan_avg", "scale": 1.0, "distribution": "uniform"}, "class_name": "VarianceScaling"}, "data_format": "channels_last", "bias_initializer": {"config": {}, "class_name": "Zeros"}, "padding": "same", "strides": [1, 1], "activity_regularizer": null, "bias_constraint": null, "use_bias": true}, "inbound_nodes": [[["activation_27", 0, 0, {}]]], "class_name": "Conv2D"}, {"name": "batch_normalization_67", "config": {"momentum": 0.99, "moving_variance_initializer": {"config": {}, "class_name": "Ones"}, "name": "batch_normalization_67", "beta_regularizer": null, "moving_mean_initializer": {"config": {}, "class_name": "Zeros"}, "center": true, "gamma_constraint": null, "scale": true, "axis": -1, "trainable": true, "beta_initializer": {"config": {}, "class_name": "Zeros"}, "beta_constraint": null, "gamma_initializer": {"config": {}, "class_name": "Ones"}, "epsilon": 0.001, "gamma_regularizer": null}, "inbound_nodes": [[["conv2d_29", 0, 0, {}]]], "class_name": "BatchNormalization"}, {"name": "activation_28", "config": {"name": "activation_28", "activation": "relu", "trainable": true}, "inbound_nodes": [[["batch_normalization_67", 0, 0, {}]]], "class_name": "Activation"}, {"name": "conv2d_30", "config": {"kernel_regularizer": {"config": {"l1": 0.0, "l2": 9.999999747378752e-05}, "class_name": "L1L2"}, "kernel_size": [3, 3], "filters": 32, "kernel_constraint": null, "name": "conv2d_30", "activation": "linear", "dilation_rate": [1, 1], "bias_regularizer": null, "trainable": true, "kernel_initializer": {"config": {"seed": null, "mode": "fan_avg", "scale": 1.0, "distribution": "uniform"}, "class_name": "VarianceScaling"}, "data_format": "channels_last", "bias_initializer": {"config": {}, "class_name": "Zeros"}, "padding": "same", "strides": [1, 1], "activity_regularizer": null, "bias_constraint": null, "use_bias": true}, "inbound_nodes": [[["activation_28", 0, 0, {}]]], "class_name": "Conv2D"}, {"name": "batch_normalization_68", "config": {"momentum": 0.99, "moving_variance_initializer": {"config": {}, "class_name": "Ones"}, "name": "batch_normalization_68", "beta_regularizer": null, "moving_mean_initializer": {"config": {}, "class_name": "Zeros"}, "center": true, "gamma_constraint": null, "scale": true, "axis": -1, "trainable": true, "beta_initializer": {"config": {}, "class_name": "Zeros"}, "beta_constraint": null, "gamma_initializer": {"config": {}, "class_name": "Ones"}, "epsilon": 0.001, "gamma_regularizer": null}, "inbound_nodes": [[["conv2d_30", 0, 0, {}]]], "class_name": "BatchNormalization"}, {"name": "add_33", "config": {"name": "add_33", "trainable": true}, "inbound_nodes": [[["activation_27", 0, 0, {}], ["batch_normalization_68", 0, 0, {}]]], "class_name": "Add"}, {"name": "activation_29", "config": {"name": "activation_29", "activation": "relu", "trainable": true}, "inbound_nodes": [[["add_33", 0, 0, {}]]], "class_name": "Activation"}, {"name": "conv2d_31", "config": {"kernel_regularizer": {"config": {"l1": 0.0, "l2": 9.999999747378752e-05}, "class_name": "L1L2"}, "kernel_size": [3, 3], "filters": 23, "kernel_constraint": null, "name": "conv2d_31", "activation": "linear", "dilation_rate": [1, 1], "bias_regularizer": null, "trainable": true, "kernel_initializer": {"config": {"seed": null, "mode": "fan_avg", "scale": 1.0, "distribution": "uniform"}, "class_name": "VarianceScaling"}, "data_format": "channels_last", "bias_initializer": {"config": {}, "class_name": "Zeros"}, "padding": "same", "strides": [1, 1], "activity_regularizer": null, "bias_constraint": null, "use_bias": true}, "inbound_nodes": [[["activation_29", 0, 0, {}]]], "class_name": "Conv2D"}, {"name": "batch_normalization_69", "config": {"momentum": 0.99, "moving_variance_initializer": {"config": {}, "class_name": "Ones"}, "name": "batch_normalization_69", "beta_regularizer": null, "moving_mean_initializer": {"config": {}, "class_name": "Zeros"}, "center": true, "gamma_constraint": null, "scale": true, "axis": -1, "trainable": true, "beta_initializer": {"config": {}, "class_name": "Zeros"}, "beta_constraint": null, "gamma_initializer": {"config": {}, "class_name": "Ones"}, "epsilon": 0.001, "gamma_regularizer": null}, "inbound_nodes": [[["conv2d_31", 0, 0, {}]]], "class_name": "BatchNormalization"}, {"name": "activation_30", "config": {"name": "activation_30", "activation": "relu", "trainable": true}, "inbound_nodes": [[["batch_normalization_69", 0, 0, {}]]], "class_name": "Activation"}, {"name": "conv2d_32", "config": {"kernel_regularizer": {"config": {"l1": 0.0, "l2": 9.999999747378752e-05}, "class_name": "L1L2"}, "kernel_size": [3, 3], "filters": 32, "kernel_constraint": null, "name": "conv2d_32", "activation": "linear", "dilation_rate": [1, 1], "bias_regularizer": null, "trainable": true, "kernel_initializer": {"config": {"seed": null, "mode": "fan_avg", "scale": 1.0, "distribution": "uniform"}, "class_name": "VarianceScaling"}, "data_format": "channels_last", "bias_initializer": {"config": {}, "class_name": "Zeros"}, "padding": "same", "strides": [1, 1], "activity_regularizer": null, "bias_constraint": null, "use_bias": true}, "inbound_nodes": [[["activation_30", 0, 0, {}]]], "class_name": "Conv2D"}, {"name": "batch_normalization_70", "config": {"momentum": 0.99, "moving_variance_initializer": {"config": {}, "class_name": "Ones"}, "name": "batch_normalization_70", "beta_regularizer": null, "moving_mean_initializer": {"config": {}, "class_name": "Zeros"}, "center": true, "gamma_constraint": null, "scale": true, "axis": -1, "trainable": true, "beta_initializer": {"config": {}, "class_name": "Zeros"}, "beta_constraint": null, "gamma_initializer": {"config": {}, "class_name": "Ones"}, "epsilon": 0.001, "gamma_regularizer": null}, "inbound_nodes": [[["conv2d_32", 0, 0, {}]]], "class_name": "BatchNormalization"}, {"name": "add_34", "config": {"name": "add_34", "trainable": true}, "inbound_nodes": [[["activation_29", 0, 0, {}], ["batch_normalization_70", 0, 0, {}]]], "class_name": "Add"}, {"name": "activation_31", "config": {"name": "activation_31", "activation": "relu", "trainable": true}, "inbound_nodes": [[["add_34", 0, 0, {}]]], "class_name": "Activation"}, {"name": "conv2d_33", "config": {"kernel_regularizer": {"config": {"l1": 0.0, "l2": 9.999999747378752e-05}, "class_name": "L1L2"}, "kernel_size": [3, 3], "filters": 23, "kernel_constraint": null, "name": "conv2d_33", "activation": "linear", "dilation_rate": [1, 1], "bias_regularizer": null, "trainable": true, "kernel_initializer": {"config": {"seed": null, "mode": "fan_avg", "scale": 1.0, "distribution": "uniform"}, "class_name": "VarianceScaling"}, "data_format": "channels_last", "bias_initializer": {"config": {}, "class_name": "Zeros"}, "padding": "same", "strides": [1, 1], "activity_regularizer": null, "bias_constraint": null, "use_bias": true}, "inbound_nodes": [[["activation_31", 0, 0, {}]]], "class_name": "Conv2D"}, {"name": "batch_normalization_71", "config": {"momentum": 0.99, "moving_variance_initializer": {"config": {}, "class_name": "Ones"}, "name": "batch_normalization_71", "beta_regularizer": null, "moving_mean_initializer": {"config": {}, "class_name": "Zeros"}, "center": true, "gamma_constraint": null, "scale": true, "axis": -1, "trainable": true, "beta_initializer": {"config": {}, "class_name": "Zeros"}, "beta_constraint": null, "gamma_initializer": {"config": {}, "class_name": "Ones"}, "epsilon": 0.001, "gamma_regularizer": null}, "inbound_nodes": [[["conv2d_33", 0, 0, {}]]], "class_name": "BatchNormalization"}, {"name": "activation_32", "config": {"name": "activation_32", "activation": "relu", "trainable": true}, "inbound_nodes": [[["batch_normalization_71", 0, 0, {}]]], "class_name": "Activation"}, {"name": "conv2d_34", "config": {"kernel_regularizer": {"config": {"l1": 0.0, "l2": 9.999999747378752e-05}, "class_name": "L1L2"}, "kernel_size": [3, 3], "filters": 32, "kernel_constraint": null, "name": "conv2d_34", "activation": "linear", "dilation_rate": [1, 1], "bias_regularizer": null, "trainable": true, "kernel_initializer": {"config": {"seed": null, "mode": "fan_avg", "scale": 1.0, "distribution": "uniform"}, "class_name": "VarianceScaling"}, "data_format": "channels_last", "bias_initializer": {"config": {}, "class_name": "Zeros"}, "padding": "same", "strides": [1, 1], "activity_regularizer": null, "bias_constraint": null, "use_bias": true}, "inbound_nodes": [[["activation_32", 0, 0, {}]]], "class_name": "Conv2D"}, {"name": "batch_normalization_72", "config": {"momentum": 0.99, "moving_variance_initializer": {"config": {}, "class_name": "Ones"}, "name": "batch_normalization_72", "beta_regularizer": null, "moving_mean_initializer": {"config": {}, "class_name": "Zeros"}, "center": true, "gamma_constraint": null, "scale": true, "axis": -1, "trainable": true, "beta_initializer": {"config": {}, "class_name": "Zeros"}, "beta_constraint": null, "gamma_initializer": {"config": {}, "class_name": "Ones"}, "epsilon": 0.001, "gamma_regularizer": null}, "inbound_nodes": [[["conv2d_34", 0, 0, {}]]], "class_name": "BatchNormalization"}, {"name": "add_35", "config": {"name": "add_35", "trainable": true}, "inbound_nodes": [[["activation_31", 0, 0, {}], ["batch_normalization_72", 0, 0, {}]]], "class_name": "Add"}, {"name": "activation_33", "config": {"name": "activation_33", "activation": "relu", "trainable": true}, "inbound_nodes": [[["add_35", 0, 0, {}]]], "class_name": "Activation"}, {"name": "conv2d_35", "config": {"kernel_regularizer": {"config": {"l1": 0.0, "l2": 9.999999747378752e-05}, "class_name": "L1L2"}, "kernel_size": [3, 3], "filters": 26, "kernel_constraint": null, "name": "conv2d_35", "activation": "linear", "dilation_rate": [1, 1], "bias_regularizer": null, "trainable": true, "kernel_initializer": {"config": {"seed": null, "mode": "fan_avg", "scale": 1.0, "distribution": "uniform"}, "class_name": "VarianceScaling"}, "data_format": "channels_last", "bias_initializer": {"config": {}, "class_name": "Zeros"}, "padding": "same", "strides": [1, 1], "activity_regularizer": null, "bias_constraint": null, "use_bias": true}, "inbound_nodes": [[["activation_33", 0, 0, {}]]], "class_name": "Conv2D"}, {"name": "batch_normalization_73", "config": {"momentum": 0.99, "moving_variance_initializer": {"config": {}, "class_name": "Ones"}, "name": "batch_normalization_73", "beta_regularizer": null, "moving_mean_initializer": {"config": {}, "class_name": "Zeros"}, "center": true, "gamma_constraint": null, "scale": true, "axis": -1, "trainable": true, "beta_initializer": {"config": {}, "class_name": "Zeros"}, "beta_constraint": null, "gamma_initializer": {"config": {}, "class_name": "Ones"}, "epsilon": 0.001, "gamma_regularizer": null}, "inbound_nodes": [[["conv2d_35", 0, 0, {}]]], "class_name": "BatchNormalization"}, {"name": "activation_34", "config": {"name": "activation_34", "activation": "relu", "trainable": true}, "inbound_nodes": [[["batch_normalization_73", 0, 0, {}]]], "class_name": "Activation"}, {"name": "conv2d_36", "config": {"kernel_regularizer": {"config": {"l1": 0.0, "l2": 9.999999747378752e-05}, "class_name": "L1L2"}, "kernel_size": [3, 3], "filters": 32, "kernel_constraint": null, "name": "conv2d_36", "activation": "linear", "dilation_rate": [1, 1], "bias_regularizer": null, "trainable": true, "kernel_initializer": {"config": {"seed": null, "mode": "fan_avg", "scale": 1.0, "distribution": "uniform"}, "class_name": "VarianceScaling"}, "data_format": "channels_last", "bias_initializer": {"config": {}, "class_name": "Zeros"}, "padding": "same", "strides": [1, 1], "activity_regularizer": null, "bias_constraint": null, "use_bias": true}, "inbound_nodes": [[["activation_34", 0, 0, {}]]], "class_name": "Conv2D"}, {"name": "batch_normalization_74", "config": {"momentum": 0.99, "moving_variance_initializer": {"config": {}, "class_name": "Ones"}, "name": "batch_normalization_74", "beta_regularizer": null, "moving_mean_initializer": {"config": {}, "class_name": "Zeros"}, "center": true, "gamma_constraint": null, "scale": true, "axis": -1, "trainable": true, "beta_initializer": {"config": {}, "class_name": "Zeros"}, "beta_constraint": null, "gamma_initializer": {"config": {}, "class_name": "Ones"}, "epsilon": 0.001, "gamma_regularizer": null}, "inbound_nodes": [[["conv2d_36", 0, 0, {}]]], "class_name": "BatchNormalization"}, {"name": "add_36", "config": {"name": "add_36", "trainable": true}, "inbound_nodes": [[["activation_33", 0, 0, {}], ["batch_normalization_74", 0, 0, {}]]], "class_name": "Add"}, {"name": "activation_35", "config": {"name": "activation_35", "activation": "relu", "trainable": true}, "inbound_nodes": [[["add_36", 0, 0, {}]]], "class_name": "Activation"}, {"name": "conv2d_37", "config": {"kernel_regularizer": {"config": {"l1": 0.0, "l2": 9.999999747378752e-05}, "class_name": "L1L2"}, "kernel_size": [3, 3], "filters": 23, "kernel_constraint": null, "name": "conv2d_37", "activation": "linear", "dilation_rate": [1, 1], "bias_regularizer": null, "trainable": true, "kernel_initializer": {"config": {"seed": null, "mode": "fan_avg", "scale": 1.0, "distribution": "uniform"}, "class_name": "VarianceScaling"}, "data_format": "channels_last", "bias_initializer": {"config": {}, "class_name": "Zeros"}, "padding": "same", "strides": [1, 1], "activity_regularizer": null, "bias_constraint": null, "use_bias": true}, "inbound_nodes": [[["activation_35", 0, 0, {}]]], "class_name": "Conv2D"}, {"name": "batch_normalization_75", "config": {"momentum": 0.99, "moving_variance_initializer": {"config": {}, "class_name": "Ones"}, "name": "batch_normalization_75", "beta_regularizer": null, "moving_mean_initializer": {"config": {}, "class_name": "Zeros"}, "center": true, "gamma_constraint": null, "scale": true, "axis": -1, "trainable": true, "beta_initializer": {"config": {}, "class_name": "Zeros"}, "beta_constraint": null, "gamma_initializer": {"config": {}, "class_name": "Ones"}, "epsilon": 0.001, "gamma_regularizer": null}, "inbound_nodes": [[["conv2d_37", 0, 0, {}]]], "class_name": "BatchNormalization"}, {"name": "activation_36", "config": {"name": "activation_36", "activation": "relu", "trainable": true}, "inbound_nodes": [[["batch_normalization_75", 0, 0, {}]]], "class_name": "Activation"}, {"name": "conv2d_38", "config": {"kernel_regularizer": {"config": {"l1": 0.0, "l2": 9.999999747378752e-05}, "class_name": "L1L2"}, "kernel_size": [3, 3], "filters": 32, "kernel_constraint": null, "name": "conv2d_38", "activation": "linear", "dilation_rate": [1, 1], "bias_regularizer": null, "trainable": true, "kernel_initializer": {"config": {"seed": null, "mode": "fan_avg", "scale": 1.0, "distribution": "uniform"}, "class_name": "VarianceScaling"}, "data_format": "channels_last", "bias_initializer": {"config": {}, "class_name": "Zeros"}, "padding": "same", "strides": [1, 1], "activity_regularizer": null, "bias_constraint": null, "use_bias": true}, "inbound_nodes": [[["activation_36", 0, 0, {}]]], "class_name": "Conv2D"}, {"name": "batch_normalization_76", "config": {"momentum": 0.99, "moving_variance_initializer": {"config": {}, "class_name": "Ones"}, "name": "batch_normalization_76", "beta_regularizer": null, "moving_mean_initializer": {"config": {}, "class_name": "Zeros"}, "center": true, "gamma_constraint": null, "scale": true, "axis": -1, "trainable": true, "beta_initializer": {"config": {}, "class_name": "Zeros"}, "beta_constraint": null, "gamma_initializer": {"config": {}, "class_name": "Ones"}, "epsilon": 0.001, "gamma_regularizer": null}, "inbound_nodes": [[["conv2d_38", 0, 0, {}]]], "class_name": "BatchNormalization"}, {"name": "add_37", "config": {"name": "add_37", "trainable": true}, "inbound_nodes": [[["activation_35", 0, 0, {}], ["batch_normalization_76", 0, 0, {}]]], "class_name": "Add"}, {"name": "activation_37", "config": {"name": "activation_37", "activation": "relu", "trainable": true}, "inbound_nodes": [[["add_37", 0, 0, {}]]], "class_name": "Activation"}, {"name": "conv2d_39", "config": {"kernel_regularizer": {"config": {"l1": 0.0, "l2": 9.999999747378752e-05}, "class_name": "L1L2"}, "kernel_size": [3, 3], "filters": 48, "kernel_constraint": null, "name": "conv2d_39", "activation": "linear", "dilation_rate": [1, 1], "bias_regularizer": null, "trainable": true, "kernel_initializer": {"config": {"seed": null, "mode": "fan_avg", "scale": 1.0, "distribution": "uniform"}, "class_name": "VarianceScaling"}, "data_format": "channels_last", "bias_initializer": {"config": {}, "class_name": "Zeros"}, "padding": "same", "strides": [2, 2], "activity_regularizer": null, "bias_constraint": null, "use_bias": true}, "inbound_nodes": [[["activation_37", 0, 0, {}]]], "class_name": "Conv2D"}, {"name": "batch_normalization_77", "config": {"momentum": 0.99, "moving_variance_initializer": {"config": {}, "class_name": "Ones"}, "name": "batch_normalization_77", "beta_regularizer": null, "moving_mean_initializer": {"config": {}, "class_name": "Zeros"}, "center": true, "gamma_constraint": null, "scale": true, "axis": -1, "trainable": true, "beta_initializer": {"config": {}, "class_name": "Zeros"}, "beta_constraint": null, "gamma_initializer": {"config": {}, "class_name": "Ones"}, "epsilon": 0.001, "gamma_regularizer": null}, "inbound_nodes": [[["conv2d_39", 0, 0, {}]]], "class_name": "BatchNormalization"}, {"name": "activation_38", "config": {"name": "activation_38", "activation": "relu", "trainable": true}, "inbound_nodes": [[["batch_normalization_77", 0, 0, {}]]], "class_name": "Activation"}, {"name": "conv2d_40", "config": {"kernel_regularizer": {"config": {"l1": 0.0, "l2": 9.999999747378752e-05}, "class_name": "L1L2"}, "kernel_size": [3, 3], "filters": 64, "kernel_constraint": null, "name": "conv2d_40", "activation": "linear", "dilation_rate": [1, 1], "bias_regularizer": null, "trainable": true, "kernel_initializer": {"config": {"seed": null, "mode": "fan_avg", "scale": 1.0, "distribution": "uniform"}, "class_name": "VarianceScaling"}, "data_format": "channels_last", "bias_initializer": {"config": {}, "class_name": "Zeros"}, "padding": "same", "strides": [1, 1], "activity_regularizer": null, "bias_constraint": null, "use_bias": true}, "inbound_nodes": [[["activation_38", 0, 0, {}]]], "class_name": "Conv2D"}, {"name": "conv2d_41", "config": {"kernel_regularizer": {"config": {"l1": 0.0, "l2": 9.999999747378752e-05}, "class_name": "L1L2"}, "kernel_size": [1, 1], "filters": 64, "kernel_constraint": null, "name": "conv2d_41", "activation": "linear", "dilation_rate": [1, 1], "bias_regularizer": null, "trainable": true, "kernel_initializer": {"config": {"seed": null, "mode": "fan_avg", "scale": 1.0, "distribution": "uniform"}, "class_name": "VarianceScaling"}, "data_format": "channels_last", "bias_initializer": {"config": {}, "class_name": "Zeros"}, "padding": "same", "strides": [2, 2], "activity_regularizer": null, "bias_constraint": null, "use_bias": true}, "inbound_nodes": [[["activation_37", 0, 0, {}]]], "class_name": "Conv2D"}, {"name": "batch_normalization_78", "config": {"momentum": 0.99, "moving_variance_initializer": {"config": {}, "class_name": "Ones"}, "name": "batch_normalization_78", "beta_regularizer": null, "moving_mean_initializer": {"config": {}, "class_name": "Zeros"}, "center": true, "gamma_constraint": null, "scale": true, "axis": -1, "trainable": true, "beta_initializer": {"config": {}, "class_name": "Zeros"}, "beta_constraint": null, "gamma_initializer": {"config": {}, "class_name": "Ones"}, "epsilon": 0.001, "gamma_regularizer": null}, "inbound_nodes": [[["conv2d_40", 0, 0, {}]]], "class_name": "BatchNormalization"}, {"name": "add_38", "config": {"name": "add_38", "trainable": true}, "inbound_nodes": [[["conv2d_41", 0, 0, {}], ["batch_normalization_78", 0, 0, {}]]], "class_name": "Add"}, {"name": "LastAct", "config": {"name": "LastAct", "activation": "relu", "trainable": true}, "inbound_nodes": [[["add_38", 0, 0, {}]]], "class_name": "Activation"}, {"name": "average_pooling2d_2", "config": {"data_format": "channels_last", "strides": [8, 8], "name": "average_pooling2d_2", "trainable": true, "padding": "valid", "pool_size": [8, 8]}, "inbound_nodes": [[["LastAct", 0, 0, {}]]], "class_name": "AveragePooling2D"}, {"name": "flatten_2", "config": {"name": "flatten_2", "trainable": true}, "inbound_nodes": [[["average_pooling2d_2", 0, 0, {}]]], "class_name": "Flatten"}, {"name": "dense_2", "config": {"kernel_regularizer": null, "bias_regularizer": null, "bias_constraint": null, "name": "dense_2", "activation": "softmax", "trainable": true, "kernel_initializer": {"config": {"seed": null, "mode": "fan_in", "scale": 2.0, "distribution": "normal"}, "class_name": "VarianceScaling"}, "kernel_constraint": null, "bias_initializer": {"config": {}, "class_name": "Zeros"}, "use_bias": true, "activity_regularizer": null, "units": 10}, "inbound_nodes": [[["flatten_2", 0, 0, {}]]], "class_name": "Dense"}], "output_layers": [["dense_2", 0, 0]], "input_layers": [["input_4", 0, 0]]}, "keras_version": "2.1.2", "class_name": "Model"}