{"backend": "tensorflow", "config": {"name": "model_301", "layers": [{"name": "input_14", "config": {"name": "input_14", "dtype": "float32", "batch_input_shape": [null, 32, 32, 3], "sparse": false}, "inbound_nodes": [], "class_name": "InputLayer"}, {"name": "conv2d_1", "config": {"kernel_regularizer": {"config": {"l1": 0.0, "l2": 9.999999747378752e-05}, "class_name": "L1L2"}, "kernel_size": [3, 3], "filters": 16, "kernel_constraint": null, "name": "conv2d_1", "activation": "linear", "dilation_rate": [1, 1], "bias_regularizer": null, "trainable": true, "kernel_initializer": {"config": {"seed": null, "mode": "fan_avg", "scale": 1.0, "distribution": "uniform"}, "class_name": "VarianceScaling"}, "data_format": "channels_last", "bias_initializer": {"config": {}, "class_name": "Zeros"}, "padding": "same", "strides": [1, 1], "activity_regularizer": null, "bias_constraint": null, "use_bias": true}, "inbound_nodes": [[["input_14", 0, 0, {}]]], "class_name": "Conv2D"}, {"name": "batch_normalization_235", "config": {"momentum": 0.99, "moving_variance_initializer": {"config": {}, "class_name": "Ones"}, "name": "batch_normalization_235", "beta_regularizer": null, "moving_mean_initializer": {"config": {}, "class_name": "Zeros"}, "center": true, "gamma_constraint": null, "scale": true, "axis": -1, "trainable": true, "beta_initializer": {"config": {}, "class_name": "Zeros"}, "beta_constraint": null, "gamma_initializer": {"config": {}, "class_name": "Ones"}, "epsilon": 0.001, "gamma_regularizer": null}, "inbound_nodes": [[["conv2d_1", 0, 0, {}]]], "class_name": "BatchNormalization"}, {"name": "activation_1", "config": {"name": "activation_1", "activation": "relu", "trainable": true}, "inbound_nodes": [[["batch_normalization_235", 0, 0, {}]]], "class_name": "Activation"}, {"name": "conv2d_2", "config": {"kernel_regularizer": {"config": {"l1": 0.0, "l2": 9.999999747378752e-05}, "class_name": "L1L2"}, "kernel_size": [3, 3], "filters": 14, "kernel_constraint": null, "name": "conv2d_2", "activation": "linear", "dilation_rate": [1, 1], "bias_regularizer": null, "trainable": true, "kernel_initializer": {"config": {"seed": null, "mode": "fan_avg", "scale": 1.0, "distribution": "uniform"}, "class_name": "VarianceScaling"}, "data_format": "channels_last", "bias_initializer": {"config": {}, "class_name": "Zeros"}, "padding": "same", "strides": [1, 1], "activity_regularizer": null, "bias_constraint": null, "use_bias": true}, "inbound_nodes": [[["activation_1", 0, 0, {}]]], "class_name": "Conv2D"}, {"name": "batch_normalization_236", "config": {"momentum": 0.99, "moving_variance_initializer": {"config": {}, "class_name": "Ones"}, "name": "batch_normalization_236", "beta_regularizer": null, "moving_mean_initializer": {"config": {}, "class_name": "Zeros"}, "center": true, "gamma_constraint": null, "scale": true, "axis": -1, "trainable": true, "beta_initializer": {"config": {}, "class_name": "Zeros"}, "beta_constraint": null, "gamma_initializer": {"config": {}, "class_name": "Ones"}, "epsilon": 0.001, "gamma_regularizer": null}, "inbound_nodes": [[["conv2d_2", 0, 0, {}]]], "class_name": "BatchNormalization"}, {"name": "activation_2", "config": {"name": "activation_2", "activation": "relu", "trainable": true}, "inbound_nodes": [[["batch_normalization_236", 0, 0, {}]]], "class_name": "Activation"}, {"name": "conv2d_3", "config": {"kernel_regularizer": {"config": {"l1": 0.0, "l2": 9.999999747378752e-05}, "class_name": "L1L2"}, "kernel_size": [3, 3], "filters": 16, "kernel_constraint": null, "name": "conv2d_3", "activation": "linear", "dilation_rate": [1, 1], "bias_regularizer": null, "trainable": true, "kernel_initializer": {"config": {"seed": null, "mode": "fan_avg", "scale": 1.0, "distribution": "uniform"}, "class_name": "VarianceScaling"}, "data_format": "channels_last", "bias_initializer": {"config": {}, "class_name": "Zeros"}, "padding": "same", "strides": [1, 1], "activity_regularizer": null, "bias_constraint": null, "use_bias": true}, "inbound_nodes": [[["activation_2", 0, 0, {}]]], "class_name": "Conv2D"}, {"name": "batch_normalization_237", "config": {"momentum": 0.99, "moving_variance_initializer": {"config": {}, "class_name": "Ones"}, "name": "batch_normalization_237", "beta_regularizer": null, "moving_mean_initializer": {"config": {}, "class_name": "Zeros"}, "center": true, "gamma_constraint": null, "scale": true, "axis": -1, "trainable": true, "beta_initializer": {"config": {}, "class_name": "Zeros"}, "beta_constraint": null, "gamma_initializer": {"config": {}, "class_name": "Ones"}, "epsilon": 0.001, "gamma_regularizer": null}, "inbound_nodes": [[["conv2d_3", 0, 0, {}]]], "class_name": "BatchNormalization"}, {"name": "add_115", "config": {"name": "add_115", "trainable": true}, "inbound_nodes": [[["activation_1", 0, 0, {}], ["batch_normalization_237", 0, 0, {}]]], "class_name": "Add"}, {"name": "activation_3", "config": {"name": "activation_3", "activation": "relu", "trainable": true}, "inbound_nodes": [[["add_115", 0, 0, {}]]], "class_name": "Activation"}, {"name": "conv2d_4", "config": {"kernel_regularizer": {"config": {"l1": 0.0, "l2": 9.999999747378752e-05}, "class_name": "L1L2"}, "kernel_size": [3, 3], "filters": 8, "kernel_constraint": null, "name": "conv2d_4", "activation": "linear", "dilation_rate": [1, 1], "bias_regularizer": null, "trainable": true, "kernel_initializer": {"config": {"seed": null, "mode": "fan_avg", "scale": 1.0, "distribution": "uniform"}, "class_name": "VarianceScaling"}, "data_format": "channels_last", "bias_initializer": {"config": {}, "class_name": "Zeros"}, "padding": "same", "strides": [1, 1], "activity_regularizer": null, "bias_constraint": null, "use_bias": true}, "inbound_nodes": [[["activation_3", 0, 0, {}]]], "class_name": "Conv2D"}, {"name": "batch_normalization_238", "config": {"momentum": 0.99, "moving_variance_initializer": {"config": {}, "class_name": "Ones"}, "name": "batch_normalization_238", "beta_regularizer": null, "moving_mean_initializer": {"config": {}, "class_name": "Zeros"}, "center": true, "gamma_constraint": null, "scale": true, "axis": -1, "trainable": true, "beta_initializer": {"config": {}, "class_name": "Zeros"}, "beta_constraint": null, "gamma_initializer": {"config": {}, "class_name": "Ones"}, "epsilon": 0.001, "gamma_regularizer": null}, "inbound_nodes": [[["conv2d_4", 0, 0, {}]]], "class_name": "BatchNormalization"}, {"name": "activation_4", "config": {"name": "activation_4", "activation": "relu", "trainable": true}, "inbound_nodes": [[["batch_normalization_238", 0, 0, {}]]], "class_name": "Activation"}, {"name": "conv2d_5", "config": {"kernel_regularizer": {"config": {"l1": 0.0, "l2": 9.999999747378752e-05}, "class_name": "L1L2"}, "kernel_size": [3, 3], "filters": 16, "kernel_constraint": null, "name": "conv2d_5", "activation": "linear", "dilation_rate": [1, 1], "bias_regularizer": null, "trainable": true, "kernel_initializer": {"config": {"seed": null, "mode": "fan_avg", "scale": 1.0, "distribution": "uniform"}, "class_name": "VarianceScaling"}, "data_format": "channels_last", "bias_initializer": {"config": {}, "class_name": "Zeros"}, "padding": "same", "strides": [1, 1], "activity_regularizer": null, "bias_constraint": null, "use_bias": true}, "inbound_nodes": [[["activation_4", 0, 0, {}]]], "class_name": "Conv2D"}, {"name": "batch_normalization_239", "config": {"momentum": 0.99, "moving_variance_initializer": {"config": {}, "class_name": "Ones"}, "name": "batch_normalization_239", "beta_regularizer": null, "moving_mean_initializer": {"config": {}, "class_name": "Zeros"}, "center": true, "gamma_constraint": null, "scale": true, "axis": -1, "trainable": true, "beta_initializer": {"config": {}, "class_name": "Zeros"}, "beta_constraint": null, "gamma_initializer": {"config": {}, "class_name": "Ones"}, "epsilon": 0.001, "gamma_regularizer": null}, "inbound_nodes": [[["conv2d_5", 0, 0, {}]]], "class_name": "BatchNormalization"}, {"name": "add_116", "config": {"name": "add_116", "trainable": true}, "inbound_nodes": [[["activation_3", 0, 0, {}], ["batch_normalization_239", 0, 0, {}]]], "class_name": "Add"}, {"name": "activation_5", "config": {"name": "activation_5", "activation": "relu", "trainable": true}, "inbound_nodes": [[["add_116", 0, 0, {}]]], "class_name": "Activation"}, {"name": "conv2d_6", "config": {"kernel_regularizer": {"config": {"l1": 0.0, "l2": 9.999999747378752e-05}, "class_name": "L1L2"}, "kernel_size": [3, 3], "filters": 7, "kernel_constraint": null, "name": "conv2d_6", "activation": "linear", "dilation_rate": [1, 1], "bias_regularizer": null, "trainable": true, "kernel_initializer": {"config": {"seed": null, "mode": "fan_avg", "scale": 1.0, "distribution": "uniform"}, "class_name": "VarianceScaling"}, "data_format": "channels_last", "bias_initializer": {"config": {}, "class_name": "Zeros"}, "padding": "same", "strides": [1, 1], "activity_regularizer": null, "bias_constraint": null, "use_bias": true}, "inbound_nodes": [[["activation_5", 0, 0, {}]]], "class_name": "Conv2D"}, {"name": "batch_normalization_240", "config": {"momentum": 0.99, "moving_variance_initializer": {"config": {}, "class_name": "Ones"}, "name": "batch_normalization_240", "beta_regularizer": null, "moving_mean_initializer": {"config": {}, "class_name": "Zeros"}, "center": true, "gamma_constraint": null, "scale": true, "axis": -1, "trainable": true, "beta_initializer": {"config": {}, "class_name": "Zeros"}, "beta_constraint": null, "gamma_initializer": {"config": {}, "class_name": "Ones"}, "epsilon": 0.001, "gamma_regularizer": null}, "inbound_nodes": [[["conv2d_6", 0, 0, {}]]], "class_name": "BatchNormalization"}, {"name": "activation_6", "config": {"name": "activation_6", "activation": "relu", "trainable": true}, "inbound_nodes": [[["batch_normalization_240", 0, 0, {}]]], "class_name": "Activation"}, {"name": "conv2d_7", "config": {"kernel_regularizer": {"config": {"l1": 0.0, "l2": 9.999999747378752e-05}, "class_name": "L1L2"}, "kernel_size": [3, 3], "filters": 16, "kernel_constraint": null, "name": "conv2d_7", "activation": "linear", "dilation_rate": [1, 1], "bias_regularizer": null, "trainable": true, "kernel_initializer": {"config": {"seed": null, "mode": "fan_avg", "scale": 1.0, "distribution": "uniform"}, "class_name": "VarianceScaling"}, "data_format": "channels_last", "bias_initializer": {"config": {}, "class_name": "Zeros"}, "padding": "same", "strides": [1, 1], "activity_regularizer": null, "bias_constraint": null, "use_bias": true}, "inbound_nodes": [[["activation_6", 0, 0, {}]]], "class_name": "Conv2D"}, {"name": "batch_normalization_241", "config": {"momentum": 0.99, "moving_variance_initializer": {"config": {}, "class_name": "Ones"}, "name": "batch_normalization_241", "beta_regularizer": null, "moving_mean_initializer": {"config": {}, "class_name": "Zeros"}, "center": true, "gamma_constraint": null, "scale": true, "axis": -1, "trainable": true, "beta_initializer": {"config": {}, "class_name": "Zeros"}, "beta_constraint": null, "gamma_initializer": {"config": {}, "class_name": "Ones"}, "epsilon": 0.001, "gamma_regularizer": null}, "inbound_nodes": [[["conv2d_7", 0, 0, {}]]], "class_name": "BatchNormalization"}, {"name": "add_117", "config": {"name": "add_117", "trainable": true}, "inbound_nodes": [[["activation_5", 0, 0, {}], ["batch_normalization_241", 0, 0, {}]]], "class_name": "Add"}, {"name": "activation_7", "config": {"name": "activation_7", "activation": "relu", "trainable": true}, "inbound_nodes": [[["add_117", 0, 0, {}]]], "class_name": "Activation"}, {"name": "conv2d_8", "config": {"kernel_regularizer": {"config": {"l1": 0.0, "l2": 9.999999747378752e-05}, "class_name": "L1L2"}, "kernel_size": [3, 3], "filters": 9, "kernel_constraint": null, "name": "conv2d_8", "activation": "linear", "dilation_rate": [1, 1], "bias_regularizer": null, "trainable": true, "kernel_initializer": {"config": {"seed": null, "mode": "fan_avg", "scale": 1.0, "distribution": "uniform"}, "class_name": "VarianceScaling"}, "data_format": "channels_last", "bias_initializer": {"config": {}, "class_name": "Zeros"}, "padding": "same", "strides": [1, 1], "activity_regularizer": null, "bias_constraint": null, "use_bias": true}, "inbound_nodes": [[["activation_7", 0, 0, {}]]], "class_name": "Conv2D"}, {"name": "batch_normalization_242", "config": {"momentum": 0.99, "moving_variance_initializer": {"config": {}, "class_name": "Ones"}, "name": "batch_normalization_242", "beta_regularizer": null, "moving_mean_initializer": {"config": {}, "class_name": "Zeros"}, "center": true, "gamma_constraint": null, "scale": true, "axis": -1, "trainable": true, "beta_initializer": {"config": {}, "class_name": "Zeros"}, "beta_constraint": null, "gamma_initializer": {"config": {}, "class_name": "Ones"}, "epsilon": 0.001, "gamma_regularizer": null}, "inbound_nodes": [[["conv2d_8", 0, 0, {}]]], "class_name": "BatchNormalization"}, {"name": "activation_8", "config": {"name": "activation_8", "activation": "relu", "trainable": true}, "inbound_nodes": [[["batch_normalization_242", 0, 0, {}]]], "class_name": "Activation"}, {"name": "conv2d_9", "config": {"kernel_regularizer": {"config": {"l1": 0.0, "l2": 9.999999747378752e-05}, "class_name": "L1L2"}, "kernel_size": [3, 3], "filters": 16, "kernel_constraint": null, "name": "conv2d_9", "activation": "linear", "dilation_rate": [1, 1], "bias_regularizer": null, "trainable": true, "kernel_initializer": {"config": {"seed": null, "mode": "fan_avg", "scale": 1.0, "distribution": "uniform"}, "class_name": "VarianceScaling"}, "data_format": "channels_last", "bias_initializer": {"config": {}, "class_name": "Zeros"}, "padding": "same", "strides": [1, 1], "activity_regularizer": null, "bias_constraint": null, "use_bias": true}, "inbound_nodes": [[["activation_8", 0, 0, {}]]], "class_name": "Conv2D"}, {"name": "batch_normalization_243", "config": {"momentum": 0.99, "moving_variance_initializer": {"config": {}, "class_name": "Ones"}, "name": "batch_normalization_243", "beta_regularizer": null, "moving_mean_initializer": {"config": {}, "class_name": "Zeros"}, "center": true, "gamma_constraint": null, "scale": true, "axis": -1, "trainable": true, "beta_initializer": {"config": {}, "class_name": "Zeros"}, "beta_constraint": null, "gamma_initializer": {"config": {}, "class_name": "Ones"}, "epsilon": 0.001, "gamma_regularizer": null}, "inbound_nodes": [[["conv2d_9", 0, 0, {}]]], "class_name": "BatchNormalization"}, {"name": "add_118", "config": {"name": "add_118", "trainable": true}, "inbound_nodes": [[["activation_7", 0, 0, {}], ["batch_normalization_243", 0, 0, {}]]], "class_name": "Add"}, {"name": "activation_9", "config": {"name": "activation_9", "activation": "relu", "trainable": true}, "inbound_nodes": [[["add_118", 0, 0, {}]]], "class_name": "Activation"}, {"name": "conv2d_10", "config": {"kernel_regularizer": {"config": {"l1": 0.0, "l2": 9.999999747378752e-05}, "class_name": "L1L2"}, "kernel_size": [3, 3], "filters": 6, "kernel_constraint": null, "name": "conv2d_10", "activation": "linear", "dilation_rate": [1, 1], "bias_regularizer": null, "trainable": true, "kernel_initializer": {"config": {"seed": null, "mode": "fan_avg", "scale": 1.0, "distribution": "uniform"}, "class_name": "VarianceScaling"}, "data_format": "channels_last", "bias_initializer": {"config": {}, "class_name": "Zeros"}, "padding": "same", "strides": [1, 1], "activity_regularizer": null, "bias_constraint": null, "use_bias": true}, "inbound_nodes": [[["activation_9", 0, 0, {}]]], "class_name": "Conv2D"}, {"name": "batch_normalization_244", "config": {"momentum": 0.99, "moving_variance_initializer": {"config": {}, "class_name": "Ones"}, "name": "batch_normalization_244", "beta_regularizer": null, "moving_mean_initializer": {"config": {}, "class_name": "Zeros"}, "center": true, "gamma_constraint": null, "scale": true, "axis": -1, "trainable": true, "beta_initializer": {"config": {}, "class_name": "Zeros"}, "beta_constraint": null, "gamma_initializer": {"config": {}, "class_name": "Ones"}, "epsilon": 0.001, "gamma_regularizer": null}, "inbound_nodes": [[["conv2d_10", 0, 0, {}]]], "class_name": "BatchNormalization"}, {"name": "activation_10", "config": {"name": "activation_10", "activation": "relu", "trainable": true}, "inbound_nodes": [[["batch_normalization_244", 0, 0, {}]]], "class_name": "Activation"}, {"name": "conv2d_11", "config": {"kernel_regularizer": {"config": {"l1": 0.0, "l2": 9.999999747378752e-05}, "class_name": "L1L2"}, "kernel_size": [3, 3], "filters": 16, "kernel_constraint": null, "name": "conv2d_11", "activation": "linear", "dilation_rate": [1, 1], "bias_regularizer": null, "trainable": true, "kernel_initializer": {"config": {"seed": null, "mode": "fan_avg", "scale": 1.0, "distribution": "uniform"}, "class_name": "VarianceScaling"}, "data_format": "channels_last", "bias_initializer": {"config": {}, "class_name": "Zeros"}, "padding": "same", "strides": [1, 1], "activity_regularizer": null, "bias_constraint": null, "use_bias": true}, "inbound_nodes": [[["activation_10", 0, 0, {}]]], "class_name": "Conv2D"}, {"name": "batch_normalization_245", "config": {"momentum": 0.99, "moving_variance_initializer": {"config": {}, "class_name": "Ones"}, "name": "batch_normalization_245", "beta_regularizer": null, "moving_mean_initializer": {"config": {}, "class_name": "Zeros"}, "center": true, "gamma_constraint": null, "scale": true, "axis": -1, "trainable": true, "beta_initializer": {"config": {}, "class_name": "Zeros"}, "beta_constraint": null, "gamma_initializer": {"config": {}, "class_name": "Ones"}, "epsilon": 0.001, "gamma_regularizer": null}, "inbound_nodes": [[["conv2d_11", 0, 0, {}]]], "class_name": "BatchNormalization"}, {"name": "add_119", "config": {"name": "add_119", "trainable": true}, "inbound_nodes": [[["activation_9", 0, 0, {}], ["batch_normalization_245", 0, 0, {}]]], "class_name": "Add"}, {"name": "activation_11", "config": {"name": "activation_11", "activation": "relu", "trainable": true}, "inbound_nodes": [[["add_119", 0, 0, {}]]], "class_name": "Activation"}, {"name": "conv2d_12", "config": {"kernel_regularizer": {"config": {"l1": 0.0, "l2": 9.999999747378752e-05}, "class_name": "L1L2"}, "kernel_size": [3, 3], "filters": 2, "kernel_constraint": null, "name": "conv2d_12", "activation": "linear", "dilation_rate": [1, 1], "bias_regularizer": null, "trainable": true, "kernel_initializer": {"config": {"seed": null, "mode": "fan_avg", "scale": 1.0, "distribution": "uniform"}, "class_name": "VarianceScaling"}, "data_format": "channels_last", "bias_initializer": {"config": {}, "class_name": "Zeros"}, "padding": "same", "strides": [1, 1], "activity_regularizer": null, "bias_constraint": null, "use_bias": true}, "inbound_nodes": [[["activation_11", 0, 0, {}]]], "class_name": "Conv2D"}, {"name": "batch_normalization_246", "config": {"momentum": 0.99, "moving_variance_initializer": {"config": {}, "class_name": "Ones"}, "name": "batch_normalization_246", "beta_regularizer": null, "moving_mean_initializer": {"config": {}, "class_name": "Zeros"}, "center": true, "gamma_constraint": null, "scale": true, "axis": -1, "trainable": true, "beta_initializer": {"config": {}, "class_name": "Zeros"}, "beta_constraint": null, "gamma_initializer": {"config": {}, "class_name": "Ones"}, "epsilon": 0.001, "gamma_regularizer": null}, "inbound_nodes": [[["conv2d_12", 0, 0, {}]]], "class_name": "BatchNormalization"}, {"name": "activation_12", "config": {"name": "activation_12", "activation": "relu", "trainable": true}, "inbound_nodes": [[["batch_normalization_246", 0, 0, {}]]], "class_name": "Activation"}, {"name": "conv2d_13", "config": {"kernel_regularizer": {"config": {"l1": 0.0, "l2": 9.999999747378752e-05}, "class_name": "L1L2"}, "kernel_size": [3, 3], "filters": 16, "kernel_constraint": null, "name": "conv2d_13", "activation": "linear", "dilation_rate": [1, 1], "bias_regularizer": null, "trainable": true, "kernel_initializer": {"config": {"seed": null, "mode": "fan_avg", "scale": 1.0, "distribution": "uniform"}, "class_name": "VarianceScaling"}, "data_format": "channels_last", "bias_initializer": {"config": {}, "class_name": "Zeros"}, "padding": "same", "strides": [1, 1], "activity_regularizer": null, "bias_constraint": null, "use_bias": true}, "inbound_nodes": [[["activation_12", 0, 0, {}]]], "class_name": "Conv2D"}, {"name": "batch_normalization_247", "config": {"momentum": 0.99, "moving_variance_initializer": {"config": {}, "class_name": "Ones"}, "name": "batch_normalization_247", "beta_regularizer": null, "moving_mean_initializer": {"config": {}, "class_name": "Zeros"}, "center": true, "gamma_constraint": null, "scale": true, "axis": -1, "trainable": true, "beta_initializer": {"config": {}, "class_name": "Zeros"}, "beta_constraint": null, "gamma_initializer": {"config": {}, "class_name": "Ones"}, "epsilon": 0.001, "gamma_regularizer": null}, "inbound_nodes": [[["conv2d_13", 0, 0, {}]]], "class_name": "BatchNormalization"}, {"name": "add_120", "config": {"name": "add_120", "trainable": true}, "inbound_nodes": [[["activation_11", 0, 0, {}], ["batch_normalization_247", 0, 0, {}]]], "class_name": "Add"}, {"name": "activation_13", "config": {"name": "activation_13", "activation": "relu", "trainable": true}, "inbound_nodes": [[["add_120", 0, 0, {}]]], "class_name": "Activation"}, {"name": "conv2d_14", "config": {"kernel_regularizer": {"config": {"l1": 0.0, "l2": 9.999999747378752e-05}, "class_name": "L1L2"}, "kernel_size": [3, 3], "filters": 7, "kernel_constraint": null, "name": "conv2d_14", "activation": "linear", "dilation_rate": [1, 1], "bias_regularizer": null, "trainable": true, "kernel_initializer": {"config": {"seed": null, "mode": "fan_avg", "scale": 1.0, "distribution": "uniform"}, "class_name": "VarianceScaling"}, "data_format": "channels_last", "bias_initializer": {"config": {}, "class_name": "Zeros"}, "padding": "same", "strides": [1, 1], "activity_regularizer": null, "bias_constraint": null, "use_bias": true}, "inbound_nodes": [[["activation_13", 0, 0, {}]]], "class_name": "Conv2D"}, {"name": "batch_normalization_248", "config": {"momentum": 0.99, "moving_variance_initializer": {"config": {}, "class_name": "Ones"}, "name": "batch_normalization_248", "beta_regularizer": null, "moving_mean_initializer": {"config": {}, "class_name": "Zeros"}, "center": true, "gamma_constraint": null, "scale": true, "axis": -1, "trainable": true, "beta_initializer": {"config": {}, "class_name": "Zeros"}, "beta_constraint": null, "gamma_initializer": {"config": {}, "class_name": "Ones"}, "epsilon": 0.001, "gamma_regularizer": null}, "inbound_nodes": [[["conv2d_14", 0, 0, {}]]], "class_name": "BatchNormalization"}, {"name": "activation_14", "config": {"name": "activation_14", "activation": "relu", "trainable": true}, "inbound_nodes": [[["batch_normalization_248", 0, 0, {}]]], "class_name": "Activation"}, {"name": "conv2d_15", "config": {"kernel_regularizer": {"config": {"l1": 0.0, "l2": 9.999999747378752e-05}, "class_name": "L1L2"}, "kernel_size": [3, 3], "filters": 16, "kernel_constraint": null, "name": "conv2d_15", "activation": "linear", "dilation_rate": [1, 1], "bias_regularizer": null, "trainable": true, "kernel_initializer": {"config": {"seed": null, "mode": "fan_avg", "scale": 1.0, "distribution": "uniform"}, "class_name": "VarianceScaling"}, "data_format": "channels_last", "bias_initializer": {"config": {}, "class_name": "Zeros"}, "padding": "same", "strides": [1, 1], "activity_regularizer": null, "bias_constraint": null, "use_bias": true}, "inbound_nodes": [[["activation_14", 0, 0, {}]]], "class_name": "Conv2D"}, {"name": "batch_normalization_249", "config": {"momentum": 0.99, "moving_variance_initializer": {"config": {}, "class_name": "Ones"}, "name": "batch_normalization_249", "beta_regularizer": null, "moving_mean_initializer": {"config": {}, "class_name": "Zeros"}, "center": true, "gamma_constraint": null, "scale": true, "axis": -1, "trainable": true, "beta_initializer": {"config": {}, "class_name": "Zeros"}, "beta_constraint": null, "gamma_initializer": {"config": {}, "class_name": "Ones"}, "epsilon": 0.001, "gamma_regularizer": null}, "inbound_nodes": [[["conv2d_15", 0, 0, {}]]], "class_name": "BatchNormalization"}, {"name": "add_121", "config": {"name": "add_121", "trainable": true}, "inbound_nodes": [[["activation_13", 0, 0, {}], ["batch_normalization_249", 0, 0, {}]]], "class_name": "Add"}, {"name": "activation_15", "config": {"name": "activation_15", "activation": "relu", "trainable": true}, "inbound_nodes": [[["add_121", 0, 0, {}]]], "class_name": "Activation"}, {"name": "conv2d_16", "config": {"kernel_regularizer": {"config": {"l1": 0.0, "l2": 9.999999747378752e-05}, "class_name": "L1L2"}, "kernel_size": [3, 3], "filters": 6, "kernel_constraint": null, "name": "conv2d_16", "activation": "linear", "dilation_rate": [1, 1], "bias_regularizer": null, "trainable": true, "kernel_initializer": {"config": {"seed": null, "mode": "fan_avg", "scale": 1.0, "distribution": "uniform"}, "class_name": "VarianceScaling"}, "data_format": "channels_last", "bias_initializer": {"config": {}, "class_name": "Zeros"}, "padding": "same", "strides": [1, 1], "activity_regularizer": null, "bias_constraint": null, "use_bias": true}, "inbound_nodes": [[["activation_15", 0, 0, {}]]], "class_name": "Conv2D"}, {"name": "batch_normalization_250", "config": {"momentum": 0.99, "moving_variance_initializer": {"config": {}, "class_name": "Ones"}, "name": "batch_normalization_250", "beta_regularizer": null, "moving_mean_initializer": {"config": {}, "class_name": "Zeros"}, "center": true, "gamma_constraint": null, "scale": true, "axis": -1, "trainable": true, "beta_initializer": {"config": {}, "class_name": "Zeros"}, "beta_constraint": null, "gamma_initializer": {"config": {}, "class_name": "Ones"}, "epsilon": 0.001, "gamma_regularizer": null}, "inbound_nodes": [[["conv2d_16", 0, 0, {}]]], "class_name": "BatchNormalization"}, {"name": "activation_16", "config": {"name": "activation_16", "activation": "relu", "trainable": true}, "inbound_nodes": [[["batch_normalization_250", 0, 0, {}]]], "class_name": "Activation"}, {"name": "conv2d_17", "config": {"kernel_regularizer": {"config": {"l1": 0.0, "l2": 9.999999747378752e-05}, "class_name": "L1L2"}, "kernel_size": [3, 3], "filters": 16, "kernel_constraint": null, "name": "conv2d_17", "activation": "linear", "dilation_rate": [1, 1], "bias_regularizer": null, "trainable": true, "kernel_initializer": {"config": {"seed": null, "mode": "fan_avg", "scale": 1.0, "distribution": "uniform"}, "class_name": "VarianceScaling"}, "data_format": "channels_last", "bias_initializer": {"config": {}, "class_name": "Zeros"}, "padding": "same", "strides": [1, 1], "activity_regularizer": null, "bias_constraint": null, "use_bias": true}, "inbound_nodes": [[["activation_16", 0, 0, {}]]], "class_name": "Conv2D"}, {"name": "batch_normalization_251", "config": {"momentum": 0.99, "moving_variance_initializer": {"config": {}, "class_name": "Ones"}, "name": "batch_normalization_251", "beta_regularizer": null, "moving_mean_initializer": {"config": {}, "class_name": "Zeros"}, "center": true, "gamma_constraint": null, "scale": true, "axis": -1, "trainable": true, "beta_initializer": {"config": {}, "class_name": "Zeros"}, "beta_constraint": null, "gamma_initializer": {"config": {}, "class_name": "Ones"}, "epsilon": 0.001, "gamma_regularizer": null}, "inbound_nodes": [[["conv2d_17", 0, 0, {}]]], "class_name": "BatchNormalization"}, {"name": "add_122", "config": {"name": "add_122", "trainable": true}, "inbound_nodes": [[["activation_15", 0, 0, {}], ["batch_normalization_251", 0, 0, {}]]], "class_name": "Add"}, {"name": "activation_17", "config": {"name": "activation_17", "activation": "relu", "trainable": true}, "inbound_nodes": [[["add_122", 0, 0, {}]]], "class_name": "Activation"}, {"name": "conv2d_18", "config": {"kernel_regularizer": {"config": {"l1": 0.0, "l2": 9.999999747378752e-05}, "class_name": "L1L2"}, "kernel_size": [3, 3], "filters": 8, "kernel_constraint": null, "name": "conv2d_18", "activation": "linear", "dilation_rate": [1, 1], "bias_regularizer": null, "trainable": true, "kernel_initializer": {"config": {"seed": null, "mode": "fan_avg", "scale": 1.0, "distribution": "uniform"}, "class_name": "VarianceScaling"}, "data_format": "channels_last", "bias_initializer": {"config": {}, "class_name": "Zeros"}, "padding": "same", "strides": [1, 1], "activity_regularizer": null, "bias_constraint": null, "use_bias": true}, "inbound_nodes": [[["activation_17", 0, 0, {}]]], "class_name": "Conv2D"}, {"name": "batch_normalization_252", "config": {"momentum": 0.99, "moving_variance_initializer": {"config": {}, "class_name": "Ones"}, "name": "batch_normalization_252", "beta_regularizer": null, "moving_mean_initializer": {"config": {}, "class_name": "Zeros"}, "center": true, "gamma_constraint": null, "scale": true, "axis": -1, "trainable": true, "beta_initializer": {"config": {}, "class_name": "Zeros"}, "beta_constraint": null, "gamma_initializer": {"config": {}, "class_name": "Ones"}, "epsilon": 0.001, "gamma_regularizer": null}, "inbound_nodes": [[["conv2d_18", 0, 0, {}]]], "class_name": "BatchNormalization"}, {"name": "activation_18", "config": {"name": "activation_18", "activation": "relu", "trainable": true}, "inbound_nodes": [[["batch_normalization_252", 0, 0, {}]]], "class_name": "Activation"}, {"name": "conv2d_19", "config": {"kernel_regularizer": {"config": {"l1": 0.0, "l2": 9.999999747378752e-05}, "class_name": "L1L2"}, "kernel_size": [3, 3], "filters": 16, "kernel_constraint": null, "name": "conv2d_19", "activation": "linear", "dilation_rate": [1, 1], "bias_regularizer": null, "trainable": true, "kernel_initializer": {"config": {"seed": null, "mode": "fan_avg", "scale": 1.0, "distribution": "uniform"}, "class_name": "VarianceScaling"}, "data_format": "channels_last", "bias_initializer": {"config": {}, "class_name": "Zeros"}, "padding": "same", "strides": [1, 1], "activity_regularizer": null, "bias_constraint": null, "use_bias": true}, "inbound_nodes": [[["activation_18", 0, 0, {}]]], "class_name": "Conv2D"}, {"name": "batch_normalization_253", "config": {"momentum": 0.99, "moving_variance_initializer": {"config": {}, "class_name": "Ones"}, "name": "batch_normalization_253", "beta_regularizer": null, "moving_mean_initializer": {"config": {}, "class_name": "Zeros"}, "center": true, "gamma_constraint": null, "scale": true, "axis": -1, "trainable": true, "beta_initializer": {"config": {}, "class_name": "Zeros"}, "beta_constraint": null, "gamma_initializer": {"config": {}, "class_name": "Ones"}, "epsilon": 0.001, "gamma_regularizer": null}, "inbound_nodes": [[["conv2d_19", 0, 0, {}]]], "class_name": "BatchNormalization"}, {"name": "add_123", "config": {"name": "add_123", "trainable": true}, "inbound_nodes": [[["activation_17", 0, 0, {}], ["batch_normalization_253", 0, 0, {}]]], "class_name": "Add"}, {"name": "activation_19", "config": {"name": "activation_19", "activation": "relu", "trainable": true}, "inbound_nodes": [[["add_123", 0, 0, {}]]], "class_name": "Activation"}, {"name": "conv2d_20", "config": {"kernel_regularizer": {"config": {"l1": 0.0, "l2": 9.999999747378752e-05}, "class_name": "L1L2"}, "kernel_size": [3, 3], "filters": 23, "kernel_constraint": null, "name": "conv2d_20", "activation": "linear", "dilation_rate": [1, 1], "bias_regularizer": null, "trainable": true, "kernel_initializer": {"config": {"seed": null, "mode": "fan_avg", "scale": 1.0, "distribution": "uniform"}, "class_name": "VarianceScaling"}, "data_format": "channels_last", "bias_initializer": {"config": {}, "class_name": "Zeros"}, "padding": "same", "strides": [2, 2], "activity_regularizer": null, "bias_constraint": null, "use_bias": true}, "inbound_nodes": [[["activation_19", 0, 0, {}]]], "class_name": "Conv2D"}, {"name": "batch_normalization_254", "config": {"momentum": 0.99, "moving_variance_initializer": {"config": {}, "class_name": "Ones"}, "name": "batch_normalization_254", "beta_regularizer": null, "moving_mean_initializer": {"config": {}, "class_name": "Zeros"}, "center": true, "gamma_constraint": null, "scale": true, "axis": -1, "trainable": true, "beta_initializer": {"config": {}, "class_name": "Zeros"}, "beta_constraint": null, "gamma_initializer": {"config": {}, "class_name": "Ones"}, "epsilon": 0.001, "gamma_regularizer": null}, "inbound_nodes": [[["conv2d_20", 0, 0, {}]]], "class_name": "BatchNormalization"}, {"name": "activation_20", "config": {"name": "activation_20", "activation": "relu", "trainable": true}, "inbound_nodes": [[["batch_normalization_254", 0, 0, {}]]], "class_name": "Activation"}, {"name": "conv2d_21", "config": {"kernel_regularizer": {"config": {"l1": 0.0, "l2": 9.999999747378752e-05}, "class_name": "L1L2"}, "kernel_size": [3, 3], "filters": 32, "kernel_constraint": null, "name": "conv2d_21", "activation": "linear", "dilation_rate": [1, 1], "bias_regularizer": null, "trainable": true, "kernel_initializer": {"config": {"seed": null, "mode": "fan_avg", "scale": 1.0, "distribution": "uniform"}, "class_name": "VarianceScaling"}, "data_format": "channels_last", "bias_initializer": {"config": {}, "class_name": "Zeros"}, "padding": "same", "strides": [1, 1], "activity_regularizer": null, "bias_constraint": null, "use_bias": true}, "inbound_nodes": [[["activation_20", 0, 0, {}]]], "class_name": "Conv2D"}, {"name": "conv2d_22", "config": {"kernel_regularizer": {"config": {"l1": 0.0, "l2": 9.999999747378752e-05}, "class_name": "L1L2"}, "kernel_size": [1, 1], "filters": 32, "kernel_constraint": null, "name": "conv2d_22", "activation": "linear", "dilation_rate": [1, 1], "bias_regularizer": null, "trainable": true, "kernel_initializer": {"config": {"seed": null, "mode": "fan_avg", "scale": 1.0, "distribution": "uniform"}, "class_name": "VarianceScaling"}, "data_format": "channels_last", "bias_initializer": {"config": {}, "class_name": "Zeros"}, "padding": "same", "strides": [2, 2], "activity_regularizer": null, "bias_constraint": null, "use_bias": true}, "inbound_nodes": [[["activation_19", 0, 0, {}]]], "class_name": "Conv2D"}, {"name": "batch_normalization_255", "config": {"momentum": 0.99, "moving_variance_initializer": {"config": {}, "class_name": "Ones"}, "name": "batch_normalization_255", "beta_regularizer": null, "moving_mean_initializer": {"config": {}, "class_name": "Zeros"}, "center": true, "gamma_constraint": null, "scale": true, "axis": -1, "trainable": true, "beta_initializer": {"config": {}, "class_name": "Zeros"}, "beta_constraint": null, "gamma_initializer": {"config": {}, "class_name": "Ones"}, "epsilon": 0.001, "gamma_regularizer": null}, "inbound_nodes": [[["conv2d_21", 0, 0, {}]]], "class_name": "BatchNormalization"}, {"name": "add_124", "config": {"name": "add_124", "trainable": true}, "inbound_nodes": [[["conv2d_22", 0, 0, {}], ["batch_normalization_255", 0, 0, {}]]], "class_name": "Add"}, {"name": "activation_21", "config": {"name": "activation_21", "activation": "relu", "trainable": true}, "inbound_nodes": [[["add_124", 0, 0, {}]]], "class_name": "Activation"}, {"name": "conv2d_23", "config": {"kernel_regularizer": {"config": {"l1": 0.0, "l2": 9.999999747378752e-05}, "class_name": "L1L2"}, "kernel_size": [3, 3], "filters": 20, "kernel_constraint": null, "name": "conv2d_23", "activation": "linear", "dilation_rate": [1, 1], "bias_regularizer": null, "trainable": true, "kernel_initializer": {"config": {"seed": null, "mode": "fan_avg", "scale": 1.0, "distribution": "uniform"}, "class_name": "VarianceScaling"}, "data_format": "channels_last", "bias_initializer": {"config": {}, "class_name": "Zeros"}, "padding": "same", "strides": [1, 1], "activity_regularizer": null, "bias_constraint": null, "use_bias": true}, "inbound_nodes": [[["activation_21", 0, 0, {}]]], "class_name": "Conv2D"}, {"name": "batch_normalization_256", "config": {"momentum": 0.99, "moving_variance_initializer": {"config": {}, "class_name": "Ones"}, "name": "batch_normalization_256", "beta_regularizer": null, "moving_mean_initializer": {"config": {}, "class_name": "Zeros"}, "center": true, "gamma_constraint": null, "scale": true, "axis": -1, "trainable": true, "beta_initializer": {"config": {}, "class_name": "Zeros"}, "beta_constraint": null, "gamma_initializer": {"config": {}, "class_name": "Ones"}, "epsilon": 0.001, "gamma_regularizer": null}, "inbound_nodes": [[["conv2d_23", 0, 0, {}]]], "class_name": "BatchNormalization"}, {"name": "activation_22", "config": {"name": "activation_22", "activation": "relu", "trainable": true}, "inbound_nodes": [[["batch_normalization_256", 0, 0, {}]]], "class_name": "Activation"}, {"name": "conv2d_24", "config": {"kernel_regularizer": {"config": {"l1": 0.0, "l2": 9.999999747378752e-05}, "class_name": "L1L2"}, "kernel_size": [3, 3], "filters": 32, "kernel_constraint": null, "name": "conv2d_24", "activation": "linear", "dilation_rate": [1, 1], "bias_regularizer": null, "trainable": true, "kernel_initializer": {"config": {"seed": null, "mode": "fan_avg", "scale": 1.0, "distribution": "uniform"}, "class_name": "VarianceScaling"}, "data_format": "channels_last", "bias_initializer": {"config": {}, "class_name": "Zeros"}, "padding": "same", "strides": [1, 1], "activity_regularizer": null, "bias_constraint": null, "use_bias": true}, "inbound_nodes": [[["activation_22", 0, 0, {}]]], "class_name": "Conv2D"}, {"name": "batch_normalization_257", "config": {"momentum": 0.99, "moving_variance_initializer": {"config": {}, "class_name": "Ones"}, "name": "batch_normalization_257", "beta_regularizer": null, "moving_mean_initializer": {"config": {}, "class_name": "Zeros"}, "center": true, "gamma_constraint": null, "scale": true, "axis": -1, "trainable": true, "beta_initializer": {"config": {}, "class_name": "Zeros"}, "beta_constraint": null, "gamma_initializer": {"config": {}, "class_name": "Ones"}, "epsilon": 0.001, "gamma_regularizer": null}, "inbound_nodes": [[["conv2d_24", 0, 0, {}]]], "class_name": "BatchNormalization"}, {"name": "add_125", "config": {"name": "add_125", "trainable": true}, "inbound_nodes": [[["activation_21", 0, 0, {}], ["batch_normalization_257", 0, 0, {}]]], "class_name": "Add"}, {"name": "activation_23", "config": {"name": "activation_23", "activation": "relu", "trainable": true}, "inbound_nodes": [[["add_125", 0, 0, {}]]], "class_name": "Activation"}, {"name": "conv2d_25", "config": {"kernel_regularizer": {"config": {"l1": 0.0, "l2": 9.999999747378752e-05}, "class_name": "L1L2"}, "kernel_size": [3, 3], "filters": 14, "kernel_constraint": null, "name": "conv2d_25", "activation": "linear", "dilation_rate": [1, 1], "bias_regularizer": null, "trainable": true, "kernel_initializer": {"config": {"seed": null, "mode": "fan_avg", "scale": 1.0, "distribution": "uniform"}, "class_name": "VarianceScaling"}, "data_format": "channels_last", "bias_initializer": {"config": {}, "class_name": "Zeros"}, "padding": "same", "strides": [1, 1], "activity_regularizer": null, "bias_constraint": null, "use_bias": true}, "inbound_nodes": [[["activation_23", 0, 0, {}]]], "class_name": "Conv2D"}, {"name": "batch_normalization_258", "config": {"momentum": 0.99, "moving_variance_initializer": {"config": {}, "class_name": "Ones"}, "name": "batch_normalization_258", "beta_regularizer": null, "moving_mean_initializer": {"config": {}, "class_name": "Zeros"}, "center": true, "gamma_constraint": null, "scale": true, "axis": -1, "trainable": true, "beta_initializer": {"config": {}, "class_name": "Zeros"}, "beta_constraint": null, "gamma_initializer": {"config": {}, "class_name": "Ones"}, "epsilon": 0.001, "gamma_regularizer": null}, "inbound_nodes": [[["conv2d_25", 0, 0, {}]]], "class_name": "BatchNormalization"}, {"name": "activation_24", "config": {"name": "activation_24", "activation": "relu", "trainable": true}, "inbound_nodes": [[["batch_normalization_258", 0, 0, {}]]], "class_name": "Activation"}, {"name": "conv2d_26", "config": {"kernel_regularizer": {"config": {"l1": 0.0, "l2": 9.999999747378752e-05}, "class_name": "L1L2"}, "kernel_size": [3, 3], "filters": 32, "kernel_constraint": null, "name": "conv2d_26", "activation": "linear", "dilation_rate": [1, 1], "bias_regularizer": null, "trainable": true, "kernel_initializer": {"config": {"seed": null, "mode": "fan_avg", "scale": 1.0, "distribution": "uniform"}, "class_name": "VarianceScaling"}, "data_format": "channels_last", "bias_initializer": {"config": {}, "class_name": "Zeros"}, "padding": "same", "strides": [1, 1], "activity_regularizer": null, "bias_constraint": null, "use_bias": true}, "inbound_nodes": [[["activation_24", 0, 0, {}]]], "class_name": "Conv2D"}, {"name": "batch_normalization_259", "config": {"momentum": 0.99, "moving_variance_initializer": {"config": {}, "class_name": "Ones"}, "name": "batch_normalization_259", "beta_regularizer": null, "moving_mean_initializer": {"config": {}, "class_name": "Zeros"}, "center": true, "gamma_constraint": null, "scale": true, "axis": -1, "trainable": true, "beta_initializer": {"config": {}, "class_name": "Zeros"}, "beta_constraint": null, "gamma_initializer": {"config": {}, "class_name": "Ones"}, "epsilon": 0.001, "gamma_regularizer": null}, "inbound_nodes": [[["conv2d_26", 0, 0, {}]]], "class_name": "BatchNormalization"}, {"name": "add_126", "config": {"name": "add_126", "trainable": true}, "inbound_nodes": [[["activation_23", 0, 0, {}], ["batch_normalization_259", 0, 0, {}]]], "class_name": "Add"}, {"name": "activation_25", "config": {"name": "activation_25", "activation": "relu", "trainable": true}, "inbound_nodes": [[["add_126", 0, 0, {}]]], "class_name": "Activation"}, {"name": "conv2d_27", "config": {"kernel_regularizer": {"config": {"l1": 0.0, "l2": 9.999999747378752e-05}, "class_name": "L1L2"}, "kernel_size": [3, 3], "filters": 14, "kernel_constraint": null, "name": "conv2d_27", "activation": "linear", "dilation_rate": [1, 1], "bias_regularizer": null, "trainable": true, "kernel_initializer": {"config": {"seed": null, "mode": "fan_avg", "scale": 1.0, "distribution": "uniform"}, "class_name": "VarianceScaling"}, "data_format": "channels_last", "bias_initializer": {"config": {}, "class_name": "Zeros"}, "padding": "same", "strides": [1, 1], "activity_regularizer": null, "bias_constraint": null, "use_bias": true}, "inbound_nodes": [[["activation_25", 0, 0, {}]]], "class_name": "Conv2D"}, {"name": "batch_normalization_260", "config": {"momentum": 0.99, "moving_variance_initializer": {"config": {}, "class_name": "Ones"}, "name": "batch_normalization_260", "beta_regularizer": null, "moving_mean_initializer": {"config": {}, "class_name": "Zeros"}, "center": true, "gamma_constraint": null, "scale": true, "axis": -1, "trainable": true, "beta_initializer": {"config": {}, "class_name": "Zeros"}, "beta_constraint": null, "gamma_initializer": {"config": {}, "class_name": "Ones"}, "epsilon": 0.001, "gamma_regularizer": null}, "inbound_nodes": [[["conv2d_27", 0, 0, {}]]], "class_name": "BatchNormalization"}, {"name": "activation_26", "config": {"name": "activation_26", "activation": "relu", "trainable": true}, "inbound_nodes": [[["batch_normalization_260", 0, 0, {}]]], "class_name": "Activation"}, {"name": "conv2d_28", "config": {"kernel_regularizer": {"config": {"l1": 0.0, "l2": 9.999999747378752e-05}, "class_name": "L1L2"}, "kernel_size": [3, 3], "filters": 32, "kernel_constraint": null, "name": "conv2d_28", "activation": "linear", "dilation_rate": [1, 1], "bias_regularizer": null, "trainable": true, "kernel_initializer": {"config": {"seed": null, "mode": "fan_avg", "scale": 1.0, "distribution": "uniform"}, "class_name": "VarianceScaling"}, "data_format": "channels_last", "bias_initializer": {"config": {}, "class_name": "Zeros"}, "padding": "same", "strides": [1, 1], "activity_regularizer": null, "bias_constraint": null, "use_bias": true}, "inbound_nodes": [[["activation_26", 0, 0, {}]]], "class_name": "Conv2D"}, {"name": "batch_normalization_261", "config": {"momentum": 0.99, "moving_variance_initializer": {"config": {}, "class_name": "Ones"}, "name": "batch_normalization_261", "beta_regularizer": null, "moving_mean_initializer": {"config": {}, "class_name": "Zeros"}, "center": true, "gamma_constraint": null, "scale": true, "axis": -1, "trainable": true, "beta_initializer": {"config": {}, "class_name": "Zeros"}, "beta_constraint": null, "gamma_initializer": {"config": {}, "class_name": "Ones"}, "epsilon": 0.001, "gamma_regularizer": null}, "inbound_nodes": [[["conv2d_28", 0, 0, {}]]], "class_name": "BatchNormalization"}, {"name": "add_127", "config": {"name": "add_127", "trainable": true}, "inbound_nodes": [[["activation_25", 0, 0, {}], ["batch_normalization_261", 0, 0, {}]]], "class_name": "Add"}, {"name": "activation_27", "config": {"name": "activation_27", "activation": "relu", "trainable": true}, "inbound_nodes": [[["add_127", 0, 0, {}]]], "class_name": "Activation"}, {"name": "conv2d_29", "config": {"kernel_regularizer": {"config": {"l1": 0.0, "l2": 9.999999747378752e-05}, "class_name": "L1L2"}, "kernel_size": [3, 3], "filters": 12, "kernel_constraint": null, "name": "conv2d_29", "activation": "linear", "dilation_rate": [1, 1], "bias_regularizer": null, "trainable": true, "kernel_initializer": {"config": {"seed": null, "mode": "fan_avg", "scale": 1.0, "distribution": "uniform"}, "class_name": "VarianceScaling"}, "data_format": "channels_last", "bias_initializer": {"config": {}, "class_name": "Zeros"}, "padding": "same", "strides": [1, 1], "activity_regularizer": null, "bias_constraint": null, "use_bias": true}, "inbound_nodes": [[["activation_27", 0, 0, {}]]], "class_name": "Conv2D"}, {"name": "batch_normalization_262", "config": {"momentum": 0.99, "moving_variance_initializer": {"config": {}, "class_name": "Ones"}, "name": "batch_normalization_262", "beta_regularizer": null, "moving_mean_initializer": {"config": {}, "class_name": "Zeros"}, "center": true, "gamma_constraint": null, "scale": true, "axis": -1, "trainable": true, "beta_initializer": {"config": {}, "class_name": "Zeros"}, "beta_constraint": null, "gamma_initializer": {"config": {}, "class_name": "Ones"}, "epsilon": 0.001, "gamma_regularizer": null}, "inbound_nodes": [[["conv2d_29", 0, 0, {}]]], "class_name": "BatchNormalization"}, {"name": "activation_28", "config": {"name": "activation_28", "activation": "relu", "trainable": true}, "inbound_nodes": [[["batch_normalization_262", 0, 0, {}]]], "class_name": "Activation"}, {"name": "conv2d_30", "config": {"kernel_regularizer": {"config": {"l1": 0.0, "l2": 9.999999747378752e-05}, "class_name": "L1L2"}, "kernel_size": [3, 3], "filters": 32, "kernel_constraint": null, "name": "conv2d_30", "activation": "linear", "dilation_rate": [1, 1], "bias_regularizer": null, "trainable": true, "kernel_initializer": {"config": {"seed": null, "mode": "fan_avg", "scale": 1.0, "distribution": "uniform"}, "class_name": "VarianceScaling"}, "data_format": "channels_last", "bias_initializer": {"config": {}, "class_name": "Zeros"}, "padding": "same", "strides": [1, 1], "activity_regularizer": null, "bias_constraint": null, "use_bias": true}, "inbound_nodes": [[["activation_28", 0, 0, {}]]], "class_name": "Conv2D"}, {"name": "batch_normalization_263", "config": {"momentum": 0.99, "moving_variance_initializer": {"config": {}, "class_name": "Ones"}, "name": "batch_normalization_263", "beta_regularizer": null, "moving_mean_initializer": {"config": {}, "class_name": "Zeros"}, "center": true, "gamma_constraint": null, "scale": true, "axis": -1, "trainable": true, "beta_initializer": {"config": {}, "class_name": "Zeros"}, "beta_constraint": null, "gamma_initializer": {"config": {}, "class_name": "Ones"}, "epsilon": 0.001, "gamma_regularizer": null}, "inbound_nodes": [[["conv2d_30", 0, 0, {}]]], "class_name": "BatchNormalization"}, {"name": "add_128", "config": {"name": "add_128", "trainable": true}, "inbound_nodes": [[["activation_27", 0, 0, {}], ["batch_normalization_263", 0, 0, {}]]], "class_name": "Add"}, {"name": "activation_29", "config": {"name": "activation_29", "activation": "relu", "trainable": true}, "inbound_nodes": [[["add_128", 0, 0, {}]]], "class_name": "Activation"}, {"name": "conv2d_31", "config": {"kernel_regularizer": {"config": {"l1": 0.0, "l2": 9.999999747378752e-05}, "class_name": "L1L2"}, "kernel_size": [3, 3], "filters": 14, "kernel_constraint": null, "name": "conv2d_31", "activation": "linear", "dilation_rate": [1, 1], "bias_regularizer": null, "trainable": true, "kernel_initializer": {"config": {"seed": null, "mode": "fan_avg", "scale": 1.0, "distribution": "uniform"}, "class_name": "VarianceScaling"}, "data_format": "channels_last", "bias_initializer": {"config": {}, "class_name": "Zeros"}, "padding": "same", "strides": [1, 1], "activity_regularizer": null, "bias_constraint": null, "use_bias": true}, "inbound_nodes": [[["activation_29", 0, 0, {}]]], "class_name": "Conv2D"}, {"name": "batch_normalization_264", "config": {"momentum": 0.99, "moving_variance_initializer": {"config": {}, "class_name": "Ones"}, "name": "batch_normalization_264", "beta_regularizer": null, "moving_mean_initializer": {"config": {}, "class_name": "Zeros"}, "center": true, "gamma_constraint": null, "scale": true, "axis": -1, "trainable": true, "beta_initializer": {"config": {}, "class_name": "Zeros"}, "beta_constraint": null, "gamma_initializer": {"config": {}, "class_name": "Ones"}, "epsilon": 0.001, "gamma_regularizer": null}, "inbound_nodes": [[["conv2d_31", 0, 0, {}]]], "class_name": "BatchNormalization"}, {"name": "activation_30", "config": {"name": "activation_30", "activation": "relu", "trainable": true}, "inbound_nodes": [[["batch_normalization_264", 0, 0, {}]]], "class_name": "Activation"}, {"name": "conv2d_32", "config": {"kernel_regularizer": {"config": {"l1": 0.0, "l2": 9.999999747378752e-05}, "class_name": "L1L2"}, "kernel_size": [3, 3], "filters": 32, "kernel_constraint": null, "name": "conv2d_32", "activation": "linear", "dilation_rate": [1, 1], "bias_regularizer": null, "trainable": true, "kernel_initializer": {"config": {"seed": null, "mode": "fan_avg", "scale": 1.0, "distribution": "uniform"}, "class_name": "VarianceScaling"}, "data_format": "channels_last", "bias_initializer": {"config": {}, "class_name": "Zeros"}, "padding": "same", "strides": [1, 1], "activity_regularizer": null, "bias_constraint": null, "use_bias": true}, "inbound_nodes": [[["activation_30", 0, 0, {}]]], "class_name": "Conv2D"}, {"name": "batch_normalization_265", "config": {"momentum": 0.99, "moving_variance_initializer": {"config": {}, "class_name": "Ones"}, "name": "batch_normalization_265", "beta_regularizer": null, "moving_mean_initializer": {"config": {}, "class_name": "Zeros"}, "center": true, "gamma_constraint": null, "scale": true, "axis": -1, "trainable": true, "beta_initializer": {"config": {}, "class_name": "Zeros"}, "beta_constraint": null, "gamma_initializer": {"config": {}, "class_name": "Ones"}, "epsilon": 0.001, "gamma_regularizer": null}, "inbound_nodes": [[["conv2d_32", 0, 0, {}]]], "class_name": "BatchNormalization"}, {"name": "add_129", "config": {"name": "add_129", "trainable": true}, "inbound_nodes": [[["activation_29", 0, 0, {}], ["batch_normalization_265", 0, 0, {}]]], "class_name": "Add"}, {"name": "activation_31", "config": {"name": "activation_31", "activation": "relu", "trainable": true}, "inbound_nodes": [[["add_129", 0, 0, {}]]], "class_name": "Activation"}, {"name": "conv2d_33", "config": {"kernel_regularizer": {"config": {"l1": 0.0, "l2": 9.999999747378752e-05}, "class_name": "L1L2"}, "kernel_size": [3, 3], "filters": 11, "kernel_constraint": null, "name": "conv2d_33", "activation": "linear", "dilation_rate": [1, 1], "bias_regularizer": null, "trainable": true, "kernel_initializer": {"config": {"seed": null, "mode": "fan_avg", "scale": 1.0, "distribution": "uniform"}, "class_name": "VarianceScaling"}, "data_format": "channels_last", "bias_initializer": {"config": {}, "class_name": "Zeros"}, "padding": "same", "strides": [1, 1], "activity_regularizer": null, "bias_constraint": null, "use_bias": true}, "inbound_nodes": [[["activation_31", 0, 0, {}]]], "class_name": "Conv2D"}, {"name": "batch_normalization_266", "config": {"momentum": 0.99, "moving_variance_initializer": {"config": {}, "class_name": "Ones"}, "name": "batch_normalization_266", "beta_regularizer": null, "moving_mean_initializer": {"config": {}, "class_name": "Zeros"}, "center": true, "gamma_constraint": null, "scale": true, "axis": -1, "trainable": true, "beta_initializer": {"config": {}, "class_name": "Zeros"}, "beta_constraint": null, "gamma_initializer": {"config": {}, "class_name": "Ones"}, "epsilon": 0.001, "gamma_regularizer": null}, "inbound_nodes": [[["conv2d_33", 0, 0, {}]]], "class_name": "BatchNormalization"}, {"name": "activation_32", "config": {"name": "activation_32", "activation": "relu", "trainable": true}, "inbound_nodes": [[["batch_normalization_266", 0, 0, {}]]], "class_name": "Activation"}, {"name": "conv2d_34", "config": {"kernel_regularizer": {"config": {"l1": 0.0, "l2": 9.999999747378752e-05}, "class_name": "L1L2"}, "kernel_size": [3, 3], "filters": 32, "kernel_constraint": null, "name": "conv2d_34", "activation": "linear", "dilation_rate": [1, 1], "bias_regularizer": null, "trainable": true, "kernel_initializer": {"config": {"seed": null, "mode": "fan_avg", "scale": 1.0, "distribution": "uniform"}, "class_name": "VarianceScaling"}, "data_format": "channels_last", "bias_initializer": {"config": {}, "class_name": "Zeros"}, "padding": "same", "strides": [1, 1], "activity_regularizer": null, "bias_constraint": null, "use_bias": true}, "inbound_nodes": [[["activation_32", 0, 0, {}]]], "class_name": "Conv2D"}, {"name": "batch_normalization_267", "config": {"momentum": 0.99, "moving_variance_initializer": {"config": {}, "class_name": "Ones"}, "name": "batch_normalization_267", "beta_regularizer": null, "moving_mean_initializer": {"config": {}, "class_name": "Zeros"}, "center": true, "gamma_constraint": null, "scale": true, "axis": -1, "trainable": true, "beta_initializer": {"config": {}, "class_name": "Zeros"}, "beta_constraint": null, "gamma_initializer": {"config": {}, "class_name": "Ones"}, "epsilon": 0.001, "gamma_regularizer": null}, "inbound_nodes": [[["conv2d_34", 0, 0, {}]]], "class_name": "BatchNormalization"}, {"name": "add_130", "config": {"name": "add_130", "trainable": true}, "inbound_nodes": [[["activation_31", 0, 0, {}], ["batch_normalization_267", 0, 0, {}]]], "class_name": "Add"}, {"name": "activation_33", "config": {"name": "activation_33", "activation": "relu", "trainable": true}, "inbound_nodes": [[["add_130", 0, 0, {}]]], "class_name": "Activation"}, {"name": "conv2d_35", "config": {"kernel_regularizer": {"config": {"l1": 0.0, "l2": 9.999999747378752e-05}, "class_name": "L1L2"}, "kernel_size": [3, 3], "filters": 17, "kernel_constraint": null, "name": "conv2d_35", "activation": "linear", "dilation_rate": [1, 1], "bias_regularizer": null, "trainable": true, "kernel_initializer": {"config": {"seed": null, "mode": "fan_avg", "scale": 1.0, "distribution": "uniform"}, "class_name": "VarianceScaling"}, "data_format": "channels_last", "bias_initializer": {"config": {}, "class_name": "Zeros"}, "padding": "same", "strides": [1, 1], "activity_regularizer": null, "bias_constraint": null, "use_bias": true}, "inbound_nodes": [[["activation_33", 0, 0, {}]]], "class_name": "Conv2D"}, {"name": "batch_normalization_268", "config": {"momentum": 0.99, "moving_variance_initializer": {"config": {}, "class_name": "Ones"}, "name": "batch_normalization_268", "beta_regularizer": null, "moving_mean_initializer": {"config": {}, "class_name": "Zeros"}, "center": true, "gamma_constraint": null, "scale": true, "axis": -1, "trainable": true, "beta_initializer": {"config": {}, "class_name": "Zeros"}, "beta_constraint": null, "gamma_initializer": {"config": {}, "class_name": "Ones"}, "epsilon": 0.001, "gamma_regularizer": null}, "inbound_nodes": [[["conv2d_35", 0, 0, {}]]], "class_name": "BatchNormalization"}, {"name": "activation_34", "config": {"name": "activation_34", "activation": "relu", "trainable": true}, "inbound_nodes": [[["batch_normalization_268", 0, 0, {}]]], "class_name": "Activation"}, {"name": "conv2d_36", "config": {"kernel_regularizer": {"config": {"l1": 0.0, "l2": 9.999999747378752e-05}, "class_name": "L1L2"}, "kernel_size": [3, 3], "filters": 32, "kernel_constraint": null, "name": "conv2d_36", "activation": "linear", "dilation_rate": [1, 1], "bias_regularizer": null, "trainable": true, "kernel_initializer": {"config": {"seed": null, "mode": "fan_avg", "scale": 1.0, "distribution": "uniform"}, "class_name": "VarianceScaling"}, "data_format": "channels_last", "bias_initializer": {"config": {}, "class_name": "Zeros"}, "padding": "same", "strides": [1, 1], "activity_regularizer": null, "bias_constraint": null, "use_bias": true}, "inbound_nodes": [[["activation_34", 0, 0, {}]]], "class_name": "Conv2D"}, {"name": "batch_normalization_269", "config": {"momentum": 0.99, "moving_variance_initializer": {"config": {}, "class_name": "Ones"}, "name": "batch_normalization_269", "beta_regularizer": null, "moving_mean_initializer": {"config": {}, "class_name": "Zeros"}, "center": true, "gamma_constraint": null, "scale": true, "axis": -1, "trainable": true, "beta_initializer": {"config": {}, "class_name": "Zeros"}, "beta_constraint": null, "gamma_initializer": {"config": {}, "class_name": "Ones"}, "epsilon": 0.001, "gamma_regularizer": null}, "inbound_nodes": [[["conv2d_36", 0, 0, {}]]], "class_name": "BatchNormalization"}, {"name": "add_131", "config": {"name": "add_131", "trainable": true}, "inbound_nodes": [[["activation_33", 0, 0, {}], ["batch_normalization_269", 0, 0, {}]]], "class_name": "Add"}, {"name": "activation_35", "config": {"name": "activation_35", "activation": "relu", "trainable": true}, "inbound_nodes": [[["add_131", 0, 0, {}]]], "class_name": "Activation"}, {"name": "conv2d_37", "config": {"kernel_regularizer": {"config": {"l1": 0.0, "l2": 9.999999747378752e-05}, "class_name": "L1L2"}, "kernel_size": [3, 3], "filters": 14, "kernel_constraint": null, "name": "conv2d_37", "activation": "linear", "dilation_rate": [1, 1], "bias_regularizer": null, "trainable": true, "kernel_initializer": {"config": {"seed": null, "mode": "fan_avg", "scale": 1.0, "distribution": "uniform"}, "class_name": "VarianceScaling"}, "data_format": "channels_last", "bias_initializer": {"config": {}, "class_name": "Zeros"}, "padding": "same", "strides": [1, 1], "activity_regularizer": null, "bias_constraint": null, "use_bias": true}, "inbound_nodes": [[["activation_35", 0, 0, {}]]], "class_name": "Conv2D"}, {"name": "batch_normalization_270", "config": {"momentum": 0.99, "moving_variance_initializer": {"config": {}, "class_name": "Ones"}, "name": "batch_normalization_270", "beta_regularizer": null, "moving_mean_initializer": {"config": {}, "class_name": "Zeros"}, "center": true, "gamma_constraint": null, "scale": true, "axis": -1, "trainable": true, "beta_initializer": {"config": {}, "class_name": "Zeros"}, "beta_constraint": null, "gamma_initializer": {"config": {}, "class_name": "Ones"}, "epsilon": 0.001, "gamma_regularizer": null}, "inbound_nodes": [[["conv2d_37", 0, 0, {}]]], "class_name": "BatchNormalization"}, {"name": "activation_36", "config": {"name": "activation_36", "activation": "relu", "trainable": true}, "inbound_nodes": [[["batch_normalization_270", 0, 0, {}]]], "class_name": "Activation"}, {"name": "conv2d_38", "config": {"kernel_regularizer": {"config": {"l1": 0.0, "l2": 9.999999747378752e-05}, "class_name": "L1L2"}, "kernel_size": [3, 3], "filters": 32, "kernel_constraint": null, "name": "conv2d_38", "activation": "linear", "dilation_rate": [1, 1], "bias_regularizer": null, "trainable": true, "kernel_initializer": {"config": {"seed": null, "mode": "fan_avg", "scale": 1.0, "distribution": "uniform"}, "class_name": "VarianceScaling"}, "data_format": "channels_last", "bias_initializer": {"config": {}, "class_name": "Zeros"}, "padding": "same", "strides": [1, 1], "activity_regularizer": null, "bias_constraint": null, "use_bias": true}, "inbound_nodes": [[["activation_36", 0, 0, {}]]], "class_name": "Conv2D"}, {"name": "batch_normalization_271", "config": {"momentum": 0.99, "moving_variance_initializer": {"config": {}, "class_name": "Ones"}, "name": "batch_normalization_271", "beta_regularizer": null, "moving_mean_initializer": {"config": {}, "class_name": "Zeros"}, "center": true, "gamma_constraint": null, "scale": true, "axis": -1, "trainable": true, "beta_initializer": {"config": {}, "class_name": "Zeros"}, "beta_constraint": null, "gamma_initializer": {"config": {}, "class_name": "Ones"}, "epsilon": 0.001, "gamma_regularizer": null}, "inbound_nodes": [[["conv2d_38", 0, 0, {}]]], "class_name": "BatchNormalization"}, {"name": "add_132", "config": {"name": "add_132", "trainable": true}, "inbound_nodes": [[["activation_35", 0, 0, {}], ["batch_normalization_271", 0, 0, {}]]], "class_name": "Add"}, {"name": "activation_37", "config": {"name": "activation_37", "activation": "relu", "trainable": true}, "inbound_nodes": [[["add_132", 0, 0, {}]]], "class_name": "Activation"}, {"name": "conv2d_39", "config": {"kernel_regularizer": {"config": {"l1": 0.0, "l2": 9.999999747378752e-05}, "class_name": "L1L2"}, "kernel_size": [3, 3], "filters": 31, "kernel_constraint": null, "name": "conv2d_39", "activation": "linear", "dilation_rate": [1, 1], "bias_regularizer": null, "trainable": true, "kernel_initializer": {"config": {"seed": null, "mode": "fan_avg", "scale": 1.0, "distribution": "uniform"}, "class_name": "VarianceScaling"}, "data_format": "channels_last", "bias_initializer": {"config": {}, "class_name": "Zeros"}, "padding": "same", "strides": [2, 2], "activity_regularizer": null, "bias_constraint": null, "use_bias": true}, "inbound_nodes": [[["activation_37", 0, 0, {}]]], "class_name": "Conv2D"}, {"name": "batch_normalization_272", "config": {"momentum": 0.99, "moving_variance_initializer": {"config": {}, "class_name": "Ones"}, "name": "batch_normalization_272", "beta_regularizer": null, "moving_mean_initializer": {"config": {}, "class_name": "Zeros"}, "center": true, "gamma_constraint": null, "scale": true, "axis": -1, "trainable": true, "beta_initializer": {"config": {}, "class_name": "Zeros"}, "beta_constraint": null, "gamma_initializer": {"config": {}, "class_name": "Ones"}, "epsilon": 0.001, "gamma_regularizer": null}, "inbound_nodes": [[["conv2d_39", 0, 0, {}]]], "class_name": "BatchNormalization"}, {"name": "activation_38", "config": {"name": "activation_38", "activation": "relu", "trainable": true}, "inbound_nodes": [[["batch_normalization_272", 0, 0, {}]]], "class_name": "Activation"}, {"name": "conv2d_40", "config": {"kernel_regularizer": {"config": {"l1": 0.0, "l2": 9.999999747378752e-05}, "class_name": "L1L2"}, "kernel_size": [3, 3], "filters": 64, "kernel_constraint": null, "name": "conv2d_40", "activation": "linear", "dilation_rate": [1, 1], "bias_regularizer": null, "trainable": true, "kernel_initializer": {"config": {"seed": null, "mode": "fan_avg", "scale": 1.0, "distribution": "uniform"}, "class_name": "VarianceScaling"}, "data_format": "channels_last", "bias_initializer": {"config": {}, "class_name": "Zeros"}, "padding": "same", "strides": [1, 1], "activity_regularizer": null, "bias_constraint": null, "use_bias": true}, "inbound_nodes": [[["activation_38", 0, 0, {}]]], "class_name": "Conv2D"}, {"name": "conv2d_41", "config": {"kernel_regularizer": {"config": {"l1": 0.0, "l2": 9.999999747378752e-05}, "class_name": "L1L2"}, "kernel_size": [1, 1], "filters": 64, "kernel_constraint": null, "name": "conv2d_41", "activation": "linear", "dilation_rate": [1, 1], "bias_regularizer": null, "trainable": true, "kernel_initializer": {"config": {"seed": null, "mode": "fan_avg", "scale": 1.0, "distribution": "uniform"}, "class_name": "VarianceScaling"}, "data_format": "channels_last", "bias_initializer": {"config": {}, "class_name": "Zeros"}, "padding": "same", "strides": [2, 2], "activity_regularizer": null, "bias_constraint": null, "use_bias": true}, "inbound_nodes": [[["activation_37", 0, 0, {}]]], "class_name": "Conv2D"}, {"name": "batch_normalization_273", "config": {"momentum": 0.99, "moving_variance_initializer": {"config": {}, "class_name": "Ones"}, "name": "batch_normalization_273", "beta_regularizer": null, "moving_mean_initializer": {"config": {}, "class_name": "Zeros"}, "center": true, "gamma_constraint": null, "scale": true, "axis": -1, "trainable": true, "beta_initializer": {"config": {}, "class_name": "Zeros"}, "beta_constraint": null, "gamma_initializer": {"config": {}, "class_name": "Ones"}, "epsilon": 0.001, "gamma_regularizer": null}, "inbound_nodes": [[["conv2d_40", 0, 0, {}]]], "class_name": "BatchNormalization"}, {"name": "add_133", "config": {"name": "add_133", "trainable": true}, "inbound_nodes": [[["conv2d_41", 0, 0, {}], ["batch_normalization_273", 0, 0, {}]]], "class_name": "Add"}, {"name": "LastAct", "config": {"name": "LastAct", "activation": "relu", "trainable": true}, "inbound_nodes": [[["add_133", 0, 0, {}]]], "class_name": "Activation"}, {"name": "average_pooling2d_7", "config": {"data_format": "channels_last", "strides": [8, 8], "name": "average_pooling2d_7", "trainable": true, "padding": "valid", "pool_size": [8, 8]}, "inbound_nodes": [[["LastAct", 0, 0, {}]]], "class_name": "AveragePooling2D"}, {"name": "flatten_7", "config": {"name": "flatten_7", "trainable": true}, "inbound_nodes": [[["average_pooling2d_7", 0, 0, {}]]], "class_name": "Flatten"}, {"name": "dense_7", "config": {"kernel_regularizer": null, "bias_regularizer": null, "bias_constraint": null, "name": "dense_7", "activation": "softmax", "trainable": true, "kernel_initializer": {"config": {"seed": null, "mode": "fan_in", "scale": 2.0, "distribution": "normal"}, "class_name": "VarianceScaling"}, "kernel_constraint": null, "bias_initializer": {"config": {}, "class_name": "Zeros"}, "use_bias": true, "activity_regularizer": null, "units": 10}, "inbound_nodes": [[["flatten_7", 0, 0, {}]]], "class_name": "Dense"}], "output_layers": [["dense_7", 0, 0]], "input_layers": [["input_14", 0, 0]]}, "keras_version": "2.1.2", "class_name": "Model"}