{"keras_version": "2.1.2", "backend": "tensorflow", "config": {"output_layers": [["dense_1", 0, 0]], "name": "model_2", "layers": [{"config": {"batch_input_shape": [null, 32, 32, 3], "sparse": false, "name": "input_1", "dtype": "float32"}, "name": "input_1", "inbound_nodes": [], "class_name": "InputLayer"}, {"config": {"activity_regularizer": null, "activation": "linear", "kernel_size": [3, 3], "name": "conv2d_1", "dilation_rate": [1, 1], "kernel_constraint": null, "trainable": true, "bias_initializer": {"config": {}, "class_name": "Zeros"}, "kernel_initializer": {"config": {"scale": 2.0, "seed": null, "mode": "fan_in", "distribution": "normal"}, "class_name": "VarianceScaling"}, "filters": 16, "kernel_regularizer": {"config": {"l2": 9.999999747378752e-05, "l1": 0.0}, "class_name": "L1L2"}, "bias_constraint": null, "padding": "same", "strides": [1, 1], "use_bias": true, "data_format": "channels_last", "bias_regularizer": null}, "name": "conv2d_1", "inbound_nodes": [[["input_1", 0, 0, {}]]], "class_name": "Conv2D"}, {"config": {"name": "batch_normalization_1", "beta_initializer": {"config": {}, "class_name": "Zeros"}, "gamma_constraint": null, "epsilon": 0.001, "trainable": true, "gamma_regularizer": null, "beta_regularizer": null, "momentum": 0.99, "center": true, "beta_constraint": null, "gamma_initializer": {"config": {}, "class_name": "Ones"}, "scale": true, "axis": -1, "moving_variance_initializer": {"config": {}, "class_name": "Ones"}, "moving_mean_initializer": {"config": {}, "class_name": "Zeros"}}, "name": "batch_normalization_1", "inbound_nodes": [[["conv2d_1", 0, 0, {}]]], "class_name": "BatchNormalization"}, {"config": {"activation": "relu", "name": "activation_1", "trainable": true}, "name": "activation_1", "inbound_nodes": [[["batch_normalization_1", 0, 0, {}]]], "class_name": "Activation"}, {"config": {"activity_regularizer": null, "activation": "linear", "kernel_size": [3, 3], "name": "conv2d_2", "dilation_rate": [1, 1], "kernel_constraint": null, "trainable": true, "bias_initializer": {"config": {}, "class_name": "Zeros"}, "kernel_initializer": {"config": {"scale": 2.0, "seed": null, "mode": "fan_in", "distribution": "normal"}, "class_name": "VarianceScaling"}, "filters": 16, "kernel_regularizer": {"config": {"l2": 9.999999747378752e-05, "l1": 0.0}, "class_name": "L1L2"}, "bias_constraint": null, "padding": "same", "strides": [1, 1], "use_bias": true, "data_format": "channels_last", "bias_regularizer": null}, "name": "conv2d_2", "inbound_nodes": [[["activation_1", 0, 0, {}]]], "class_name": "Conv2D"}, {"config": {"name": "batch_normalization_2", "beta_initializer": {"config": {}, "class_name": "Zeros"}, "gamma_constraint": null, "epsilon": 0.001, "trainable": true, "gamma_regularizer": null, "beta_regularizer": null, "momentum": 0.99, "center": true, "beta_constraint": null, "gamma_initializer": {"config": {}, "class_name": "Ones"}, "scale": true, "axis": -1, "moving_variance_initializer": {"config": {}, "class_name": "Ones"}, "moving_mean_initializer": {"config": {}, "class_name": "Zeros"}}, "name": "batch_normalization_2", "inbound_nodes": [[["conv2d_2", 0, 0, {}]]], "class_name": "BatchNormalization"}, {"config": {"activation": "relu", "name": "activation_2", "trainable": true}, "name": "activation_2", "inbound_nodes": [[["batch_normalization_2", 0, 0, {}]]], "class_name": "Activation"}, {"config": {"activity_regularizer": null, "activation": "linear", "kernel_size": [3, 3], "name": "conv2d_3", "dilation_rate": [1, 1], "kernel_constraint": null, "trainable": true, "bias_initializer": {"config": {}, "class_name": "Zeros"}, "kernel_initializer": {"config": {"scale": 2.0, "seed": null, "mode": "fan_in", "distribution": "normal"}, "class_name": "VarianceScaling"}, "filters": 16, "kernel_regularizer": {"config": {"l2": 9.999999747378752e-05, "l1": 0.0}, "class_name": "L1L2"}, "bias_constraint": null, "padding": "same", "strides": [1, 1], "use_bias": true, "data_format": "channels_last", "bias_regularizer": null}, "name": "conv2d_3", "inbound_nodes": [[["activation_2", 0, 0, {}]]], "class_name": "Conv2D"}, {"config": {"name": "batch_normalization_3", "beta_initializer": {"config": {}, "class_name": "Zeros"}, "gamma_constraint": null, "epsilon": 0.001, "trainable": true, "gamma_regularizer": null, "beta_regularizer": null, "momentum": 0.99, "center": true, "beta_constraint": null, "gamma_initializer": {"config": {}, "class_name": "Ones"}, "scale": true, "axis": -1, "moving_variance_initializer": {"config": {}, "class_name": "Ones"}, "moving_mean_initializer": {"config": {}, "class_name": "Zeros"}}, "name": "batch_normalization_3", "inbound_nodes": [[["conv2d_3", 0, 0, {}]]], "class_name": "BatchNormalization"}, {"config": {"name": "add_1", "trainable": true}, "name": "add_1", "inbound_nodes": [[["activation_1", 0, 0, {}], ["batch_normalization_3", 0, 0, {}]]], "class_name": "Add"}, {"config": {"activation": "relu", "name": "activation_3", "trainable": true}, "name": "activation_3", "inbound_nodes": [[["add_1", 0, 0, {}]]], "class_name": "Activation"}, {"config": {"activity_regularizer": null, "activation": "linear", "kernel_size": [3, 3], "name": "conv2d_4", "dilation_rate": [1, 1], "kernel_constraint": null, "trainable": true, "bias_initializer": {"config": {}, "class_name": "Zeros"}, "kernel_initializer": {"config": {"scale": 2.0, "seed": null, "mode": "fan_in", "distribution": "normal"}, "class_name": "VarianceScaling"}, "filters": 16, "kernel_regularizer": {"config": {"l2": 9.999999747378752e-05, "l1": 0.0}, "class_name": "L1L2"}, "bias_constraint": null, "padding": "same", "strides": [1, 1], "use_bias": true, "data_format": "channels_last", "bias_regularizer": null}, "name": "conv2d_4", "inbound_nodes": [[["activation_3", 0, 0, {}]]], "class_name": "Conv2D"}, {"config": {"name": "batch_normalization_4", "beta_initializer": {"config": {}, "class_name": "Zeros"}, "gamma_constraint": null, "epsilon": 0.001, "trainable": true, "gamma_regularizer": null, "beta_regularizer": null, "momentum": 0.99, "center": true, "beta_constraint": null, "gamma_initializer": {"config": {}, "class_name": "Ones"}, "scale": true, "axis": -1, "moving_variance_initializer": {"config": {}, "class_name": "Ones"}, "moving_mean_initializer": {"config": {}, "class_name": "Zeros"}}, "name": "batch_normalization_4", "inbound_nodes": [[["conv2d_4", 0, 0, {}]]], "class_name": "BatchNormalization"}, {"config": {"activation": "relu", "name": "activation_4", "trainable": true}, "name": "activation_4", "inbound_nodes": [[["batch_normalization_4", 0, 0, {}]]], "class_name": "Activation"}, {"config": {"activity_regularizer": null, "activation": "linear", "kernel_size": [3, 3], "name": "conv2d_5", "dilation_rate": [1, 1], "kernel_constraint": null, "trainable": true, "bias_initializer": {"config": {}, "class_name": "Zeros"}, "kernel_initializer": {"config": {"scale": 2.0, "seed": null, "mode": "fan_in", "distribution": "normal"}, "class_name": "VarianceScaling"}, "filters": 16, "kernel_regularizer": {"config": {"l2": 9.999999747378752e-05, "l1": 0.0}, "class_name": "L1L2"}, "bias_constraint": null, "padding": "same", "strides": [1, 1], "use_bias": true, "data_format": "channels_last", "bias_regularizer": null}, "name": "conv2d_5", "inbound_nodes": [[["activation_4", 0, 0, {}]]], "class_name": "Conv2D"}, {"config": {"name": "batch_normalization_5", "beta_initializer": {"config": {}, "class_name": "Zeros"}, "gamma_constraint": null, "epsilon": 0.001, "trainable": true, "gamma_regularizer": null, "beta_regularizer": null, "momentum": 0.99, "center": true, "beta_constraint": null, "gamma_initializer": {"config": {}, "class_name": "Ones"}, "scale": true, "axis": -1, "moving_variance_initializer": {"config": {}, "class_name": "Ones"}, "moving_mean_initializer": {"config": {}, "class_name": "Zeros"}}, "name": "batch_normalization_5", "inbound_nodes": [[["conv2d_5", 0, 0, {}]]], "class_name": "BatchNormalization"}, {"config": {"name": "add_2", "trainable": true}, "name": "add_2", "inbound_nodes": [[["activation_3", 0, 0, {}], ["batch_normalization_5", 0, 0, {}]]], "class_name": "Add"}, {"config": {"activation": "relu", "name": "activation_5", "trainable": true}, "name": "activation_5", "inbound_nodes": [[["add_2", 0, 0, {}]]], "class_name": "Activation"}, {"config": {"activity_regularizer": null, "activation": "linear", "kernel_size": [3, 3], "name": "conv2d_6", "dilation_rate": [1, 1], "kernel_constraint": null, "trainable": true, "bias_initializer": {"config": {}, "class_name": "Zeros"}, "kernel_initializer": {"config": {"scale": 2.0, "seed": null, "mode": "fan_in", "distribution": "normal"}, "class_name": "VarianceScaling"}, "filters": 16, "kernel_regularizer": {"config": {"l2": 9.999999747378752e-05, "l1": 0.0}, "class_name": "L1L2"}, "bias_constraint": null, "padding": "same", "strides": [1, 1], "use_bias": true, "data_format": "channels_last", "bias_regularizer": null}, "name": "conv2d_6", "inbound_nodes": [[["activation_5", 0, 0, {}]]], "class_name": "Conv2D"}, {"config": {"name": "batch_normalization_6", "beta_initializer": {"config": {}, "class_name": "Zeros"}, "gamma_constraint": null, "epsilon": 0.001, "trainable": true, "gamma_regularizer": null, "beta_regularizer": null, "momentum": 0.99, "center": true, "beta_constraint": null, "gamma_initializer": {"config": {}, "class_name": "Ones"}, "scale": true, "axis": -1, "moving_variance_initializer": {"config": {}, "class_name": "Ones"}, "moving_mean_initializer": {"config": {}, "class_name": "Zeros"}}, "name": "batch_normalization_6", "inbound_nodes": [[["conv2d_6", 0, 0, {}]]], "class_name": "BatchNormalization"}, {"config": {"activation": "relu", "name": "activation_6", "trainable": true}, "name": "activation_6", "inbound_nodes": [[["batch_normalization_6", 0, 0, {}]]], "class_name": "Activation"}, {"config": {"activity_regularizer": null, "activation": "linear", "kernel_size": [3, 3], "name": "conv2d_7", "dilation_rate": [1, 1], "kernel_constraint": null, "trainable": true, "bias_initializer": {"config": {}, "class_name": "Zeros"}, "kernel_initializer": {"config": {"scale": 2.0, "seed": null, "mode": "fan_in", "distribution": "normal"}, "class_name": "VarianceScaling"}, "filters": 16, "kernel_regularizer": {"config": {"l2": 9.999999747378752e-05, "l1": 0.0}, "class_name": "L1L2"}, "bias_constraint": null, "padding": "same", "strides": [1, 1], "use_bias": true, "data_format": "channels_last", "bias_regularizer": null}, "name": "conv2d_7", "inbound_nodes": [[["activation_6", 0, 0, {}]]], "class_name": "Conv2D"}, {"config": {"name": "batch_normalization_7", "beta_initializer": {"config": {}, "class_name": "Zeros"}, "gamma_constraint": null, "epsilon": 0.001, "trainable": true, "gamma_regularizer": null, "beta_regularizer": null, "momentum": 0.99, "center": true, "beta_constraint": null, "gamma_initializer": {"config": {}, "class_name": "Ones"}, "scale": true, "axis": -1, "moving_variance_initializer": {"config": {}, "class_name": "Ones"}, "moving_mean_initializer": {"config": {}, "class_name": "Zeros"}}, "name": "batch_normalization_7", "inbound_nodes": [[["conv2d_7", 0, 0, {}]]], "class_name": "BatchNormalization"}, {"config": {"name": "add_3", "trainable": true}, "name": "add_3", "inbound_nodes": [[["activation_5", 0, 0, {}], ["batch_normalization_7", 0, 0, {}]]], "class_name": "Add"}, {"config": {"activation": "relu", "name": "activation_7", "trainable": true}, "name": "activation_7", "inbound_nodes": [[["add_3", 0, 0, {}]]], "class_name": "Activation"}, {"config": {"activity_regularizer": null, "activation": "linear", "kernel_size": [3, 3], "name": "conv2d_8", "dilation_rate": [1, 1], "kernel_constraint": null, "trainable": true, "bias_initializer": {"config": {}, "class_name": "Zeros"}, "kernel_initializer": {"config": {"scale": 2.0, "seed": null, "mode": "fan_in", "distribution": "normal"}, "class_name": "VarianceScaling"}, "filters": 16, "kernel_regularizer": {"config": {"l2": 9.999999747378752e-05, "l1": 0.0}, "class_name": "L1L2"}, "bias_constraint": null, "padding": "same", "strides": [1, 1], "use_bias": true, "data_format": "channels_last", "bias_regularizer": null}, "name": "conv2d_8", "inbound_nodes": [[["activation_7", 0, 0, {}]]], "class_name": "Conv2D"}, {"config": {"name": "batch_normalization_8", "beta_initializer": {"config": {}, "class_name": "Zeros"}, "gamma_constraint": null, "epsilon": 0.001, "trainable": true, "gamma_regularizer": null, "beta_regularizer": null, "momentum": 0.99, "center": true, "beta_constraint": null, "gamma_initializer": {"config": {}, "class_name": "Ones"}, "scale": true, "axis": -1, "moving_variance_initializer": {"config": {}, "class_name": "Ones"}, "moving_mean_initializer": {"config": {}, "class_name": "Zeros"}}, "name": "batch_normalization_8", "inbound_nodes": [[["conv2d_8", 0, 0, {}]]], "class_name": "BatchNormalization"}, {"config": {"activation": "relu", "name": "activation_8", "trainable": true}, "name": "activation_8", "inbound_nodes": [[["batch_normalization_8", 0, 0, {}]]], "class_name": "Activation"}, {"config": {"activity_regularizer": null, "activation": "linear", "kernel_size": [3, 3], "name": "conv2d_9", "dilation_rate": [1, 1], "kernel_constraint": null, "trainable": true, "bias_initializer": {"config": {}, "class_name": "Zeros"}, "kernel_initializer": {"config": {"scale": 2.0, "seed": null, "mode": "fan_in", "distribution": "normal"}, "class_name": "VarianceScaling"}, "filters": 16, "kernel_regularizer": {"config": {"l2": 9.999999747378752e-05, "l1": 0.0}, "class_name": "L1L2"}, "bias_constraint": null, "padding": "same", "strides": [1, 1], "use_bias": true, "data_format": "channels_last", "bias_regularizer": null}, "name": "conv2d_9", "inbound_nodes": [[["activation_8", 0, 0, {}]]], "class_name": "Conv2D"}, {"config": {"name": "batch_normalization_9", "beta_initializer": {"config": {}, "class_name": "Zeros"}, "gamma_constraint": null, "epsilon": 0.001, "trainable": true, "gamma_regularizer": null, "beta_regularizer": null, "momentum": 0.99, "center": true, "beta_constraint": null, "gamma_initializer": {"config": {}, "class_name": "Ones"}, "scale": true, "axis": -1, "moving_variance_initializer": {"config": {}, "class_name": "Ones"}, "moving_mean_initializer": {"config": {}, "class_name": "Zeros"}}, "name": "batch_normalization_9", "inbound_nodes": [[["conv2d_9", 0, 0, {}]]], "class_name": "BatchNormalization"}, {"config": {"name": "add_4", "trainable": true}, "name": "add_4", "inbound_nodes": [[["activation_7", 0, 0, {}], ["batch_normalization_9", 0, 0, {}]]], "class_name": "Add"}, {"config": {"activation": "relu", "name": "activation_9", "trainable": true}, "name": "activation_9", "inbound_nodes": [[["add_4", 0, 0, {}]]], "class_name": "Activation"}, {"config": {"activity_regularizer": null, "activation": "linear", "kernel_size": [3, 3], "name": "conv2d_10", "dilation_rate": [1, 1], "kernel_constraint": null, "trainable": true, "bias_initializer": {"config": {}, "class_name": "Zeros"}, "kernel_initializer": {"config": {"scale": 2.0, "seed": null, "mode": "fan_in", "distribution": "normal"}, "class_name": "VarianceScaling"}, "filters": 16, "kernel_regularizer": {"config": {"l2": 9.999999747378752e-05, "l1": 0.0}, "class_name": "L1L2"}, "bias_constraint": null, "padding": "same", "strides": [1, 1], "use_bias": true, "data_format": "channels_last", "bias_regularizer": null}, "name": "conv2d_10", "inbound_nodes": [[["activation_9", 0, 0, {}]]], "class_name": "Conv2D"}, {"config": {"name": "batch_normalization_10", "beta_initializer": {"config": {}, "class_name": "Zeros"}, "gamma_constraint": null, "epsilon": 0.001, "trainable": true, "gamma_regularizer": null, "beta_regularizer": null, "momentum": 0.99, "center": true, "beta_constraint": null, "gamma_initializer": {"config": {}, "class_name": "Ones"}, "scale": true, "axis": -1, "moving_variance_initializer": {"config": {}, "class_name": "Ones"}, "moving_mean_initializer": {"config": {}, "class_name": "Zeros"}}, "name": "batch_normalization_10", "inbound_nodes": [[["conv2d_10", 0, 0, {}]]], "class_name": "BatchNormalization"}, {"config": {"activation": "relu", "name": "activation_10", "trainable": true}, "name": "activation_10", "inbound_nodes": [[["batch_normalization_10", 0, 0, {}]]], "class_name": "Activation"}, {"config": {"activity_regularizer": null, "activation": "linear", "kernel_size": [3, 3], "name": "conv2d_11", "dilation_rate": [1, 1], "kernel_constraint": null, "trainable": true, "bias_initializer": {"config": {}, "class_name": "Zeros"}, "kernel_initializer": {"config": {"scale": 2.0, "seed": null, "mode": "fan_in", "distribution": "normal"}, "class_name": "VarianceScaling"}, "filters": 16, "kernel_regularizer": {"config": {"l2": 9.999999747378752e-05, "l1": 0.0}, "class_name": "L1L2"}, "bias_constraint": null, "padding": "same", "strides": [1, 1], "use_bias": true, "data_format": "channels_last", "bias_regularizer": null}, "name": "conv2d_11", "inbound_nodes": [[["activation_10", 0, 0, {}]]], "class_name": "Conv2D"}, {"config": {"name": "batch_normalization_11", "beta_initializer": {"config": {}, "class_name": "Zeros"}, "gamma_constraint": null, "epsilon": 0.001, "trainable": true, "gamma_regularizer": null, "beta_regularizer": null, "momentum": 0.99, "center": true, "beta_constraint": null, "gamma_initializer": {"config": {}, "class_name": "Ones"}, "scale": true, "axis": -1, "moving_variance_initializer": {"config": {}, "class_name": "Ones"}, "moving_mean_initializer": {"config": {}, "class_name": "Zeros"}}, "name": "batch_normalization_11", "inbound_nodes": [[["conv2d_11", 0, 0, {}]]], "class_name": "BatchNormalization"}, {"config": {"name": "add_5", "trainable": true}, "name": "add_5", "inbound_nodes": [[["activation_9", 0, 0, {}], ["batch_normalization_11", 0, 0, {}]]], "class_name": "Add"}, {"config": {"activation": "relu", "name": "activation_11", "trainable": true}, "name": "activation_11", "inbound_nodes": [[["add_5", 0, 0, {}]]], "class_name": "Activation"}, {"config": {"activity_regularizer": null, "activation": "linear", "kernel_size": [3, 3], "name": "conv2d_12", "dilation_rate": [1, 1], "kernel_constraint": null, "trainable": true, "bias_initializer": {"config": {}, "class_name": "Zeros"}, "kernel_initializer": {"config": {"scale": 2.0, "seed": null, "mode": "fan_in", "distribution": "normal"}, "class_name": "VarianceScaling"}, "filters": 16, "kernel_regularizer": {"config": {"l2": 9.999999747378752e-05, "l1": 0.0}, "class_name": "L1L2"}, "bias_constraint": null, "padding": "same", "strides": [1, 1], "use_bias": true, "data_format": "channels_last", "bias_regularizer": null}, "name": "conv2d_12", "inbound_nodes": [[["activation_11", 0, 0, {}]]], "class_name": "Conv2D"}, {"config": {"name": "batch_normalization_12", "beta_initializer": {"config": {}, "class_name": "Zeros"}, "gamma_constraint": null, "epsilon": 0.001, "trainable": true, "gamma_regularizer": null, "beta_regularizer": null, "momentum": 0.99, "center": true, "beta_constraint": null, "gamma_initializer": {"config": {}, "class_name": "Ones"}, "scale": true, "axis": -1, "moving_variance_initializer": {"config": {}, "class_name": "Ones"}, "moving_mean_initializer": {"config": {}, "class_name": "Zeros"}}, "name": "batch_normalization_12", "inbound_nodes": [[["conv2d_12", 0, 0, {}]]], "class_name": "BatchNormalization"}, {"config": {"activation": "relu", "name": "activation_12", "trainable": true}, "name": "activation_12", "inbound_nodes": [[["batch_normalization_12", 0, 0, {}]]], "class_name": "Activation"}, {"config": {"activity_regularizer": null, "activation": "linear", "kernel_size": [3, 3], "name": "conv2d_13", "dilation_rate": [1, 1], "kernel_constraint": null, "trainable": true, "bias_initializer": {"config": {}, "class_name": "Zeros"}, "kernel_initializer": {"config": {"scale": 2.0, "seed": null, "mode": "fan_in", "distribution": "normal"}, "class_name": "VarianceScaling"}, "filters": 16, "kernel_regularizer": {"config": {"l2": 9.999999747378752e-05, "l1": 0.0}, "class_name": "L1L2"}, "bias_constraint": null, "padding": "same", "strides": [1, 1], "use_bias": true, "data_format": "channels_last", "bias_regularizer": null}, "name": "conv2d_13", "inbound_nodes": [[["activation_12", 0, 0, {}]]], "class_name": "Conv2D"}, {"config": {"name": "batch_normalization_13", "beta_initializer": {"config": {}, "class_name": "Zeros"}, "gamma_constraint": null, "epsilon": 0.001, "trainable": true, "gamma_regularizer": null, "beta_regularizer": null, "momentum": 0.99, "center": true, "beta_constraint": null, "gamma_initializer": {"config": {}, "class_name": "Ones"}, "scale": true, "axis": -1, "moving_variance_initializer": {"config": {}, "class_name": "Ones"}, "moving_mean_initializer": {"config": {}, "class_name": "Zeros"}}, "name": "batch_normalization_13", "inbound_nodes": [[["conv2d_13", 0, 0, {}]]], "class_name": "BatchNormalization"}, {"config": {"name": "add_6", "trainable": true}, "name": "add_6", "inbound_nodes": [[["activation_11", 0, 0, {}], ["batch_normalization_13", 0, 0, {}]]], "class_name": "Add"}, {"config": {"activation": "relu", "name": "activation_13", "trainable": true}, "name": "activation_13", "inbound_nodes": [[["add_6", 0, 0, {}]]], "class_name": "Activation"}, {"config": {"activity_regularizer": null, "activation": "linear", "kernel_size": [3, 3], "name": "conv2d_14", "dilation_rate": [1, 1], "kernel_constraint": null, "trainable": true, "bias_initializer": {"config": {}, "class_name": "Zeros"}, "kernel_initializer": {"config": {"scale": 2.0, "seed": null, "mode": "fan_in", "distribution": "normal"}, "class_name": "VarianceScaling"}, "filters": 16, "kernel_regularizer": {"config": {"l2": 9.999999747378752e-05, "l1": 0.0}, "class_name": "L1L2"}, "bias_constraint": null, "padding": "same", "strides": [1, 1], "use_bias": true, "data_format": "channels_last", "bias_regularizer": null}, "name": "conv2d_14", "inbound_nodes": [[["activation_13", 0, 0, {}]]], "class_name": "Conv2D"}, {"config": {"name": "batch_normalization_14", "beta_initializer": {"config": {}, "class_name": "Zeros"}, "gamma_constraint": null, "epsilon": 0.001, "trainable": true, "gamma_regularizer": null, "beta_regularizer": null, "momentum": 0.99, "center": true, "beta_constraint": null, "gamma_initializer": {"config": {}, "class_name": "Ones"}, "scale": true, "axis": -1, "moving_variance_initializer": {"config": {}, "class_name": "Ones"}, "moving_mean_initializer": {"config": {}, "class_name": "Zeros"}}, "name": "batch_normalization_14", "inbound_nodes": [[["conv2d_14", 0, 0, {}]]], "class_name": "BatchNormalization"}, {"config": {"activation": "relu", "name": "activation_14", "trainable": true}, "name": "activation_14", "inbound_nodes": [[["batch_normalization_14", 0, 0, {}]]], "class_name": "Activation"}, {"config": {"activity_regularizer": null, "activation": "linear", "kernel_size": [3, 3], "name": "conv2d_15", "dilation_rate": [1, 1], "kernel_constraint": null, "trainable": true, "bias_initializer": {"config": {}, "class_name": "Zeros"}, "kernel_initializer": {"config": {"scale": 2.0, "seed": null, "mode": "fan_in", "distribution": "normal"}, "class_name": "VarianceScaling"}, "filters": 16, "kernel_regularizer": {"config": {"l2": 9.999999747378752e-05, "l1": 0.0}, "class_name": "L1L2"}, "bias_constraint": null, "padding": "same", "strides": [1, 1], "use_bias": true, "data_format": "channels_last", "bias_regularizer": null}, "name": "conv2d_15", "inbound_nodes": [[["activation_14", 0, 0, {}]]], "class_name": "Conv2D"}, {"config": {"name": "batch_normalization_15", "beta_initializer": {"config": {}, "class_name": "Zeros"}, "gamma_constraint": null, "epsilon": 0.001, "trainable": true, "gamma_regularizer": null, "beta_regularizer": null, "momentum": 0.99, "center": true, "beta_constraint": null, "gamma_initializer": {"config": {}, "class_name": "Ones"}, "scale": true, "axis": -1, "moving_variance_initializer": {"config": {}, "class_name": "Ones"}, "moving_mean_initializer": {"config": {}, "class_name": "Zeros"}}, "name": "batch_normalization_15", "inbound_nodes": [[["conv2d_15", 0, 0, {}]]], "class_name": "BatchNormalization"}, {"config": {"name": "add_7", "trainable": true}, "name": "add_7", "inbound_nodes": [[["activation_13", 0, 0, {}], ["batch_normalization_15", 0, 0, {}]]], "class_name": "Add"}, {"config": {"activation": "relu", "name": "activation_15", "trainable": true}, "name": "activation_15", "inbound_nodes": [[["add_7", 0, 0, {}]]], "class_name": "Activation"}, {"config": {"activity_regularizer": null, "activation": "linear", "kernel_size": [3, 3], "name": "conv2d_16", "dilation_rate": [1, 1], "kernel_constraint": null, "trainable": true, "bias_initializer": {"config": {}, "class_name": "Zeros"}, "kernel_initializer": {"config": {"scale": 2.0, "seed": null, "mode": "fan_in", "distribution": "normal"}, "class_name": "VarianceScaling"}, "filters": 16, "kernel_regularizer": {"config": {"l2": 9.999999747378752e-05, "l1": 0.0}, "class_name": "L1L2"}, "bias_constraint": null, "padding": "same", "strides": [1, 1], "use_bias": true, "data_format": "channels_last", "bias_regularizer": null}, "name": "conv2d_16", "inbound_nodes": [[["activation_15", 0, 0, {}]]], "class_name": "Conv2D"}, {"config": {"name": "batch_normalization_16", "beta_initializer": {"config": {}, "class_name": "Zeros"}, "gamma_constraint": null, "epsilon": 0.001, "trainable": true, "gamma_regularizer": null, "beta_regularizer": null, "momentum": 0.99, "center": true, "beta_constraint": null, "gamma_initializer": {"config": {}, "class_name": "Ones"}, "scale": true, "axis": -1, "moving_variance_initializer": {"config": {}, "class_name": "Ones"}, "moving_mean_initializer": {"config": {}, "class_name": "Zeros"}}, "name": "batch_normalization_16", "inbound_nodes": [[["conv2d_16", 0, 0, {}]]], "class_name": "BatchNormalization"}, {"config": {"activation": "relu", "name": "activation_16", "trainable": true}, "name": "activation_16", "inbound_nodes": [[["batch_normalization_16", 0, 0, {}]]], "class_name": "Activation"}, {"config": {"activity_regularizer": null, "activation": "linear", "kernel_size": [3, 3], "name": "conv2d_17", "dilation_rate": [1, 1], "kernel_constraint": null, "trainable": true, "bias_initializer": {"config": {}, "class_name": "Zeros"}, "kernel_initializer": {"config": {"scale": 2.0, "seed": null, "mode": "fan_in", "distribution": "normal"}, "class_name": "VarianceScaling"}, "filters": 16, "kernel_regularizer": {"config": {"l2": 9.999999747378752e-05, "l1": 0.0}, "class_name": "L1L2"}, "bias_constraint": null, "padding": "same", "strides": [1, 1], "use_bias": true, "data_format": "channels_last", "bias_regularizer": null}, "name": "conv2d_17", "inbound_nodes": [[["activation_16", 0, 0, {}]]], "class_name": "Conv2D"}, {"config": {"name": "batch_normalization_17", "beta_initializer": {"config": {}, "class_name": "Zeros"}, "gamma_constraint": null, "epsilon": 0.001, "trainable": true, "gamma_regularizer": null, "beta_regularizer": null, "momentum": 0.99, "center": true, "beta_constraint": null, "gamma_initializer": {"config": {}, "class_name": "Ones"}, "scale": true, "axis": -1, "moving_variance_initializer": {"config": {}, "class_name": "Ones"}, "moving_mean_initializer": {"config": {}, "class_name": "Zeros"}}, "name": "batch_normalization_17", "inbound_nodes": [[["conv2d_17", 0, 0, {}]]], "class_name": "BatchNormalization"}, {"config": {"name": "add_8", "trainable": true}, "name": "add_8", "inbound_nodes": [[["activation_15", 0, 0, {}], ["batch_normalization_17", 0, 0, {}]]], "class_name": "Add"}, {"config": {"activation": "relu", "name": "activation_17", "trainable": true}, "name": "activation_17", "inbound_nodes": [[["add_8", 0, 0, {}]]], "class_name": "Activation"}, {"config": {"activity_regularizer": null, "activation": "linear", "kernel_size": [3, 3], "name": "conv2d_18", "dilation_rate": [1, 1], "kernel_constraint": null, "trainable": true, "bias_initializer": {"config": {}, "class_name": "Zeros"}, "kernel_initializer": {"config": {"scale": 2.0, "seed": null, "mode": "fan_in", "distribution": "normal"}, "class_name": "VarianceScaling"}, "filters": 16, "kernel_regularizer": {"config": {"l2": 9.999999747378752e-05, "l1": 0.0}, "class_name": "L1L2"}, "bias_constraint": null, "padding": "same", "strides": [1, 1], "use_bias": true, "data_format": "channels_last", "bias_regularizer": null}, "name": "conv2d_18", "inbound_nodes": [[["activation_17", 0, 0, {}]]], "class_name": "Conv2D"}, {"config": {"name": "batch_normalization_18", "beta_initializer": {"config": {}, "class_name": "Zeros"}, "gamma_constraint": null, "epsilon": 0.001, "trainable": true, "gamma_regularizer": null, "beta_regularizer": null, "momentum": 0.99, "center": true, "beta_constraint": null, "gamma_initializer": {"config": {}, "class_name": "Ones"}, "scale": true, "axis": -1, "moving_variance_initializer": {"config": {}, "class_name": "Ones"}, "moving_mean_initializer": {"config": {}, "class_name": "Zeros"}}, "name": "batch_normalization_18", "inbound_nodes": [[["conv2d_18", 0, 0, {}]]], "class_name": "BatchNormalization"}, {"config": {"activation": "relu", "name": "activation_18", "trainable": true}, "name": "activation_18", "inbound_nodes": [[["batch_normalization_18", 0, 0, {}]]], "class_name": "Activation"}, {"config": {"activity_regularizer": null, "activation": "linear", "kernel_size": [3, 3], "name": "conv2d_19", "dilation_rate": [1, 1], "kernel_constraint": null, "trainable": true, "bias_initializer": {"config": {}, "class_name": "Zeros"}, "kernel_initializer": {"config": {"scale": 2.0, "seed": null, "mode": "fan_in", "distribution": "normal"}, "class_name": "VarianceScaling"}, "filters": 16, "kernel_regularizer": {"config": {"l2": 9.999999747378752e-05, "l1": 0.0}, "class_name": "L1L2"}, "bias_constraint": null, "padding": "same", "strides": [1, 1], "use_bias": true, "data_format": "channels_last", "bias_regularizer": null}, "name": "conv2d_19", "inbound_nodes": [[["activation_18", 0, 0, {}]]], "class_name": "Conv2D"}, {"config": {"name": "batch_normalization_19", "beta_initializer": {"config": {}, "class_name": "Zeros"}, "gamma_constraint": null, "epsilon": 0.001, "trainable": true, "gamma_regularizer": null, "beta_regularizer": null, "momentum": 0.99, "center": true, "beta_constraint": null, "gamma_initializer": {"config": {}, "class_name": "Ones"}, "scale": true, "axis": -1, "moving_variance_initializer": {"config": {}, "class_name": "Ones"}, "moving_mean_initializer": {"config": {}, "class_name": "Zeros"}}, "name": "batch_normalization_19", "inbound_nodes": [[["conv2d_19", 0, 0, {}]]], "class_name": "BatchNormalization"}, {"config": {"name": "add_9", "trainable": true}, "name": "add_9", "inbound_nodes": [[["activation_17", 0, 0, {}], ["batch_normalization_19", 0, 0, {}]]], "class_name": "Add"}, {"config": {"activation": "relu", "name": "activation_19", "trainable": true}, "name": "activation_19", "inbound_nodes": [[["add_9", 0, 0, {}]]], "class_name": "Activation"}, {"config": {"activity_regularizer": null, "activation": "linear", "kernel_size": [3, 3], "name": "conv2d_20", "dilation_rate": [1, 1], "kernel_constraint": null, "trainable": true, "bias_initializer": {"config": {}, "class_name": "Zeros"}, "kernel_initializer": {"config": {"scale": 2.0, "seed": null, "mode": "fan_in", "distribution": "normal"}, "class_name": "VarianceScaling"}, "filters": 32, "kernel_regularizer": {"config": {"l2": 9.999999747378752e-05, "l1": 0.0}, "class_name": "L1L2"}, "bias_constraint": null, "padding": "same", "strides": [2, 2], "use_bias": true, "data_format": "channels_last", "bias_regularizer": null}, "name": "conv2d_20", "inbound_nodes": [[["activation_19", 0, 0, {}]]], "class_name": "Conv2D"}, {"config": {"name": "batch_normalization_20", "beta_initializer": {"config": {}, "class_name": "Zeros"}, "gamma_constraint": null, "epsilon": 0.001, "trainable": true, "gamma_regularizer": null, "beta_regularizer": null, "momentum": 0.99, "center": true, "beta_constraint": null, "gamma_initializer": {"config": {}, "class_name": "Ones"}, "scale": true, "axis": -1, "moving_variance_initializer": {"config": {}, "class_name": "Ones"}, "moving_mean_initializer": {"config": {}, "class_name": "Zeros"}}, "name": "batch_normalization_20", "inbound_nodes": [[["conv2d_20", 0, 0, {}]]], "class_name": "BatchNormalization"}, {"config": {"activation": "relu", "name": "activation_20", "trainable": true}, "name": "activation_20", "inbound_nodes": [[["batch_normalization_20", 0, 0, {}]]], "class_name": "Activation"}, {"config": {"activity_regularizer": null, "activation": "linear", "kernel_size": [3, 3], "name": "conv2d_21", "dilation_rate": [1, 1], "kernel_constraint": null, "trainable": true, "bias_initializer": {"config": {}, "class_name": "Zeros"}, "kernel_initializer": {"config": {"scale": 2.0, "seed": null, "mode": "fan_in", "distribution": "normal"}, "class_name": "VarianceScaling"}, "filters": 32, "kernel_regularizer": {"config": {"l2": 9.999999747378752e-05, "l1": 0.0}, "class_name": "L1L2"}, "bias_constraint": null, "padding": "same", "strides": [1, 1], "use_bias": true, "data_format": "channels_last", "bias_regularizer": null}, "name": "conv2d_21", "inbound_nodes": [[["activation_20", 0, 0, {}]]], "class_name": "Conv2D"}, {"config": {"activity_regularizer": null, "activation": "linear", "kernel_size": [1, 1], "name": "conv2d_22", "dilation_rate": [1, 1], "kernel_constraint": null, "trainable": true, "bias_initializer": {"config": {}, "class_name": "Zeros"}, "kernel_initializer": {"config": {"scale": 2.0, "seed": null, "mode": "fan_in", "distribution": "normal"}, "class_name": "VarianceScaling"}, "filters": 32, "kernel_regularizer": {"config": {"l2": 9.999999747378752e-05, "l1": 0.0}, "class_name": "L1L2"}, "bias_constraint": null, "padding": "same", "strides": [2, 2], "use_bias": true, "data_format": "channels_last", "bias_regularizer": null}, "name": "conv2d_22", "inbound_nodes": [[["activation_19", 0, 0, {}]]], "class_name": "Conv2D"}, {"config": {"name": "batch_normalization_21", "beta_initializer": {"config": {}, "class_name": "Zeros"}, "gamma_constraint": null, "epsilon": 0.001, "trainable": true, "gamma_regularizer": null, "beta_regularizer": null, "momentum": 0.99, "center": true, "beta_constraint": null, "gamma_initializer": {"config": {}, "class_name": "Ones"}, "scale": true, "axis": -1, "moving_variance_initializer": {"config": {}, "class_name": "Ones"}, "moving_mean_initializer": {"config": {}, "class_name": "Zeros"}}, "name": "batch_normalization_21", "inbound_nodes": [[["conv2d_21", 0, 0, {}]]], "class_name": "BatchNormalization"}, {"config": {"name": "add_10", "trainable": true}, "name": "add_10", "inbound_nodes": [[["conv2d_22", 0, 0, {}], ["batch_normalization_21", 0, 0, {}]]], "class_name": "Add"}, {"config": {"activation": "relu", "name": "activation_21", "trainable": true}, "name": "activation_21", "inbound_nodes": [[["add_10", 0, 0, {}]]], "class_name": "Activation"}, {"config": {"activity_regularizer": null, "activation": "linear", "kernel_size": [3, 3], "name": "conv2d_23", "dilation_rate": [1, 1], "kernel_constraint": null, "trainable": true, "bias_initializer": {"config": {}, "class_name": "Zeros"}, "kernel_initializer": {"config": {"scale": 2.0, "seed": null, "mode": "fan_in", "distribution": "normal"}, "class_name": "VarianceScaling"}, "filters": 32, "kernel_regularizer": {"config": {"l2": 9.999999747378752e-05, "l1": 0.0}, "class_name": "L1L2"}, "bias_constraint": null, "padding": "same", "strides": [1, 1], "use_bias": true, "data_format": "channels_last", "bias_regularizer": null}, "name": "conv2d_23", "inbound_nodes": [[["activation_21", 0, 0, {}]]], "class_name": "Conv2D"}, {"config": {"name": "batch_normalization_22", "beta_initializer": {"config": {}, "class_name": "Zeros"}, "gamma_constraint": null, "epsilon": 0.001, "trainable": true, "gamma_regularizer": null, "beta_regularizer": null, "momentum": 0.99, "center": true, "beta_constraint": null, "gamma_initializer": {"config": {}, "class_name": "Ones"}, "scale": true, "axis": -1, "moving_variance_initializer": {"config": {}, "class_name": "Ones"}, "moving_mean_initializer": {"config": {}, "class_name": "Zeros"}}, "name": "batch_normalization_22", "inbound_nodes": [[["conv2d_23", 0, 0, {}]]], "class_name": "BatchNormalization"}, {"config": {"activation": "relu", "name": "activation_22", "trainable": true}, "name": "activation_22", "inbound_nodes": [[["batch_normalization_22", 0, 0, {}]]], "class_name": "Activation"}, {"config": {"activity_regularizer": null, "activation": "linear", "kernel_size": [3, 3], "name": "conv2d_24", "dilation_rate": [1, 1], "kernel_constraint": null, "trainable": true, "bias_initializer": {"config": {}, "class_name": "Zeros"}, "kernel_initializer": {"config": {"scale": 2.0, "seed": null, "mode": "fan_in", "distribution": "normal"}, "class_name": "VarianceScaling"}, "filters": 32, "kernel_regularizer": {"config": {"l2": 9.999999747378752e-05, "l1": 0.0}, "class_name": "L1L2"}, "bias_constraint": null, "padding": "same", "strides": [1, 1], "use_bias": true, "data_format": "channels_last", "bias_regularizer": null}, "name": "conv2d_24", "inbound_nodes": [[["activation_22", 0, 0, {}]]], "class_name": "Conv2D"}, {"config": {"name": "batch_normalization_23", "beta_initializer": {"config": {}, "class_name": "Zeros"}, "gamma_constraint": null, "epsilon": 0.001, "trainable": true, "gamma_regularizer": null, "beta_regularizer": null, "momentum": 0.99, "center": true, "beta_constraint": null, "gamma_initializer": {"config": {}, "class_name": "Ones"}, "scale": true, "axis": -1, "moving_variance_initializer": {"config": {}, "class_name": "Ones"}, "moving_mean_initializer": {"config": {}, "class_name": "Zeros"}}, "name": "batch_normalization_23", "inbound_nodes": [[["conv2d_24", 0, 0, {}]]], "class_name": "BatchNormalization"}, {"config": {"name": "add_11", "trainable": true}, "name": "add_11", "inbound_nodes": [[["activation_21", 0, 0, {}], ["batch_normalization_23", 0, 0, {}]]], "class_name": "Add"}, {"config": {"activation": "relu", "name": "activation_23", "trainable": true}, "name": "activation_23", "inbound_nodes": [[["add_11", 0, 0, {}]]], "class_name": "Activation"}, {"config": {"activity_regularizer": null, "activation": "linear", "kernel_size": [3, 3], "name": "conv2d_25", "dilation_rate": [1, 1], "kernel_constraint": null, "trainable": true, "bias_initializer": {"config": {}, "class_name": "Zeros"}, "kernel_initializer": {"config": {"scale": 2.0, "seed": null, "mode": "fan_in", "distribution": "normal"}, "class_name": "VarianceScaling"}, "filters": 32, "kernel_regularizer": {"config": {"l2": 9.999999747378752e-05, "l1": 0.0}, "class_name": "L1L2"}, "bias_constraint": null, "padding": "same", "strides": [1, 1], "use_bias": true, "data_format": "channels_last", "bias_regularizer": null}, "name": "conv2d_25", "inbound_nodes": [[["activation_23", 0, 0, {}]]], "class_name": "Conv2D"}, {"config": {"name": "batch_normalization_24", "beta_initializer": {"config": {}, "class_name": "Zeros"}, "gamma_constraint": null, "epsilon": 0.001, "trainable": true, "gamma_regularizer": null, "beta_regularizer": null, "momentum": 0.99, "center": true, "beta_constraint": null, "gamma_initializer": {"config": {}, "class_name": "Ones"}, "scale": true, "axis": -1, "moving_variance_initializer": {"config": {}, "class_name": "Ones"}, "moving_mean_initializer": {"config": {}, "class_name": "Zeros"}}, "name": "batch_normalization_24", "inbound_nodes": [[["conv2d_25", 0, 0, {}]]], "class_name": "BatchNormalization"}, {"config": {"activation": "relu", "name": "activation_24", "trainable": true}, "name": "activation_24", "inbound_nodes": [[["batch_normalization_24", 0, 0, {}]]], "class_name": "Activation"}, {"config": {"activity_regularizer": null, "activation": "linear", "kernel_size": [3, 3], "name": "conv2d_26", "dilation_rate": [1, 1], "kernel_constraint": null, "trainable": true, "bias_initializer": {"config": {}, "class_name": "Zeros"}, "kernel_initializer": {"config": {"scale": 2.0, "seed": null, "mode": "fan_in", "distribution": "normal"}, "class_name": "VarianceScaling"}, "filters": 32, "kernel_regularizer": {"config": {"l2": 9.999999747378752e-05, "l1": 0.0}, "class_name": "L1L2"}, "bias_constraint": null, "padding": "same", "strides": [1, 1], "use_bias": true, "data_format": "channels_last", "bias_regularizer": null}, "name": "conv2d_26", "inbound_nodes": [[["activation_24", 0, 0, {}]]], "class_name": "Conv2D"}, {"config": {"name": "batch_normalization_25", "beta_initializer": {"config": {}, "class_name": "Zeros"}, "gamma_constraint": null, "epsilon": 0.001, "trainable": true, "gamma_regularizer": null, "beta_regularizer": null, "momentum": 0.99, "center": true, "beta_constraint": null, "gamma_initializer": {"config": {}, "class_name": "Ones"}, "scale": true, "axis": -1, "moving_variance_initializer": {"config": {}, "class_name": "Ones"}, "moving_mean_initializer": {"config": {}, "class_name": "Zeros"}}, "name": "batch_normalization_25", "inbound_nodes": [[["conv2d_26", 0, 0, {}]]], "class_name": "BatchNormalization"}, {"config": {"name": "add_12", "trainable": true}, "name": "add_12", "inbound_nodes": [[["activation_23", 0, 0, {}], ["batch_normalization_25", 0, 0, {}]]], "class_name": "Add"}, {"config": {"activation": "relu", "name": "activation_25", "trainable": true}, "name": "activation_25", "inbound_nodes": [[["add_12", 0, 0, {}]]], "class_name": "Activation"}, {"config": {"activity_regularizer": null, "activation": "linear", "kernel_size": [3, 3], "name": "conv2d_27", "dilation_rate": [1, 1], "kernel_constraint": null, "trainable": true, "bias_initializer": {"config": {}, "class_name": "Zeros"}, "kernel_initializer": {"config": {"scale": 2.0, "seed": null, "mode": "fan_in", "distribution": "normal"}, "class_name": "VarianceScaling"}, "filters": 32, "kernel_regularizer": {"config": {"l2": 9.999999747378752e-05, "l1": 0.0}, "class_name": "L1L2"}, "bias_constraint": null, "padding": "same", "strides": [1, 1], "use_bias": true, "data_format": "channels_last", "bias_regularizer": null}, "name": "conv2d_27", "inbound_nodes": [[["activation_25", 0, 0, {}]]], "class_name": "Conv2D"}, {"config": {"name": "batch_normalization_26", "beta_initializer": {"config": {}, "class_name": "Zeros"}, "gamma_constraint": null, "epsilon": 0.001, "trainable": true, "gamma_regularizer": null, "beta_regularizer": null, "momentum": 0.99, "center": true, "beta_constraint": null, "gamma_initializer": {"config": {}, "class_name": "Ones"}, "scale": true, "axis": -1, "moving_variance_initializer": {"config": {}, "class_name": "Ones"}, "moving_mean_initializer": {"config": {}, "class_name": "Zeros"}}, "name": "batch_normalization_26", "inbound_nodes": [[["conv2d_27", 0, 0, {}]]], "class_name": "BatchNormalization"}, {"config": {"activation": "relu", "name": "activation_26", "trainable": true}, "name": "activation_26", "inbound_nodes": [[["batch_normalization_26", 0, 0, {}]]], "class_name": "Activation"}, {"config": {"activity_regularizer": null, "activation": "linear", "kernel_size": [3, 3], "name": "conv2d_28", "dilation_rate": [1, 1], "kernel_constraint": null, "trainable": true, "bias_initializer": {"config": {}, "class_name": "Zeros"}, "kernel_initializer": {"config": {"scale": 2.0, "seed": null, "mode": "fan_in", "distribution": "normal"}, "class_name": "VarianceScaling"}, "filters": 32, "kernel_regularizer": {"config": {"l2": 9.999999747378752e-05, "l1": 0.0}, "class_name": "L1L2"}, "bias_constraint": null, "padding": "same", "strides": [1, 1], "use_bias": true, "data_format": "channels_last", "bias_regularizer": null}, "name": "conv2d_28", "inbound_nodes": [[["activation_26", 0, 0, {}]]], "class_name": "Conv2D"}, {"config": {"name": "batch_normalization_27", "beta_initializer": {"config": {}, "class_name": "Zeros"}, "gamma_constraint": null, "epsilon": 0.001, "trainable": true, "gamma_regularizer": null, "beta_regularizer": null, "momentum": 0.99, "center": true, "beta_constraint": null, "gamma_initializer": {"config": {}, "class_name": "Ones"}, "scale": true, "axis": -1, "moving_variance_initializer": {"config": {}, "class_name": "Ones"}, "moving_mean_initializer": {"config": {}, "class_name": "Zeros"}}, "name": "batch_normalization_27", "inbound_nodes": [[["conv2d_28", 0, 0, {}]]], "class_name": "BatchNormalization"}, {"config": {"name": "add_13", "trainable": true}, "name": "add_13", "inbound_nodes": [[["activation_25", 0, 0, {}], ["batch_normalization_27", 0, 0, {}]]], "class_name": "Add"}, {"config": {"activation": "relu", "name": "activation_27", "trainable": true}, "name": "activation_27", "inbound_nodes": [[["add_13", 0, 0, {}]]], "class_name": "Activation"}, {"config": {"activity_regularizer": null, "activation": "linear", "kernel_size": [3, 3], "name": "conv2d_29", "dilation_rate": [1, 1], "kernel_constraint": null, "trainable": true, "bias_initializer": {"config": {}, "class_name": "Zeros"}, "kernel_initializer": {"config": {"scale": 2.0, "seed": null, "mode": "fan_in", "distribution": "normal"}, "class_name": "VarianceScaling"}, "filters": 32, "kernel_regularizer": {"config": {"l2": 9.999999747378752e-05, "l1": 0.0}, "class_name": "L1L2"}, "bias_constraint": null, "padding": "same", "strides": [1, 1], "use_bias": true, "data_format": "channels_last", "bias_regularizer": null}, "name": "conv2d_29", "inbound_nodes": [[["activation_27", 0, 0, {}]]], "class_name": "Conv2D"}, {"config": {"name": "batch_normalization_28", "beta_initializer": {"config": {}, "class_name": "Zeros"}, "gamma_constraint": null, "epsilon": 0.001, "trainable": true, "gamma_regularizer": null, "beta_regularizer": null, "momentum": 0.99, "center": true, "beta_constraint": null, "gamma_initializer": {"config": {}, "class_name": "Ones"}, "scale": true, "axis": -1, "moving_variance_initializer": {"config": {}, "class_name": "Ones"}, "moving_mean_initializer": {"config": {}, "class_name": "Zeros"}}, "name": "batch_normalization_28", "inbound_nodes": [[["conv2d_29", 0, 0, {}]]], "class_name": "BatchNormalization"}, {"config": {"activation": "relu", "name": "activation_28", "trainable": true}, "name": "activation_28", "inbound_nodes": [[["batch_normalization_28", 0, 0, {}]]], "class_name": "Activation"}, {"config": {"activity_regularizer": null, "activation": "linear", "kernel_size": [3, 3], "name": "conv2d_30", "dilation_rate": [1, 1], "kernel_constraint": null, "trainable": true, "bias_initializer": {"config": {}, "class_name": "Zeros"}, "kernel_initializer": {"config": {"scale": 2.0, "seed": null, "mode": "fan_in", "distribution": "normal"}, "class_name": "VarianceScaling"}, "filters": 32, "kernel_regularizer": {"config": {"l2": 9.999999747378752e-05, "l1": 0.0}, "class_name": "L1L2"}, "bias_constraint": null, "padding": "same", "strides": [1, 1], "use_bias": true, "data_format": "channels_last", "bias_regularizer": null}, "name": "conv2d_30", "inbound_nodes": [[["activation_28", 0, 0, {}]]], "class_name": "Conv2D"}, {"config": {"name": "batch_normalization_29", "beta_initializer": {"config": {}, "class_name": "Zeros"}, "gamma_constraint": null, "epsilon": 0.001, "trainable": true, "gamma_regularizer": null, "beta_regularizer": null, "momentum": 0.99, "center": true, "beta_constraint": null, "gamma_initializer": {"config": {}, "class_name": "Ones"}, "scale": true, "axis": -1, "moving_variance_initializer": {"config": {}, "class_name": "Ones"}, "moving_mean_initializer": {"config": {}, "class_name": "Zeros"}}, "name": "batch_normalization_29", "inbound_nodes": [[["conv2d_30", 0, 0, {}]]], "class_name": "BatchNormalization"}, {"config": {"name": "add_14", "trainable": true}, "name": "add_14", "inbound_nodes": [[["activation_27", 0, 0, {}], ["batch_normalization_29", 0, 0, {}]]], "class_name": "Add"}, {"config": {"activation": "relu", "name": "activation_29", "trainable": true}, "name": "activation_29", "inbound_nodes": [[["add_14", 0, 0, {}]]], "class_name": "Activation"}, {"config": {"activity_regularizer": null, "activation": "linear", "kernel_size": [3, 3], "name": "conv2d_31", "dilation_rate": [1, 1], "kernel_constraint": null, "trainable": true, "bias_initializer": {"config": {}, "class_name": "Zeros"}, "kernel_initializer": {"config": {"scale": 2.0, "seed": null, "mode": "fan_in", "distribution": "normal"}, "class_name": "VarianceScaling"}, "filters": 32, "kernel_regularizer": {"config": {"l2": 9.999999747378752e-05, "l1": 0.0}, "class_name": "L1L2"}, "bias_constraint": null, "padding": "same", "strides": [1, 1], "use_bias": true, "data_format": "channels_last", "bias_regularizer": null}, "name": "conv2d_31", "inbound_nodes": [[["activation_29", 0, 0, {}]]], "class_name": "Conv2D"}, {"config": {"name": "batch_normalization_30", "beta_initializer": {"config": {}, "class_name": "Zeros"}, "gamma_constraint": null, "epsilon": 0.001, "trainable": true, "gamma_regularizer": null, "beta_regularizer": null, "momentum": 0.99, "center": true, "beta_constraint": null, "gamma_initializer": {"config": {}, "class_name": "Ones"}, "scale": true, "axis": -1, "moving_variance_initializer": {"config": {}, "class_name": "Ones"}, "moving_mean_initializer": {"config": {}, "class_name": "Zeros"}}, "name": "batch_normalization_30", "inbound_nodes": [[["conv2d_31", 0, 0, {}]]], "class_name": "BatchNormalization"}, {"config": {"activation": "relu", "name": "activation_30", "trainable": true}, "name": "activation_30", "inbound_nodes": [[["batch_normalization_30", 0, 0, {}]]], "class_name": "Activation"}, {"config": {"activity_regularizer": null, "activation": "linear", "kernel_size": [3, 3], "name": "conv2d_32", "dilation_rate": [1, 1], "kernel_constraint": null, "trainable": true, "bias_initializer": {"config": {}, "class_name": "Zeros"}, "kernel_initializer": {"config": {"scale": 2.0, "seed": null, "mode": "fan_in", "distribution": "normal"}, "class_name": "VarianceScaling"}, "filters": 32, "kernel_regularizer": {"config": {"l2": 9.999999747378752e-05, "l1": 0.0}, "class_name": "L1L2"}, "bias_constraint": null, "padding": "same", "strides": [1, 1], "use_bias": true, "data_format": "channels_last", "bias_regularizer": null}, "name": "conv2d_32", "inbound_nodes": [[["activation_30", 0, 0, {}]]], "class_name": "Conv2D"}, {"config": {"name": "batch_normalization_31", "beta_initializer": {"config": {}, "class_name": "Zeros"}, "gamma_constraint": null, "epsilon": 0.001, "trainable": true, "gamma_regularizer": null, "beta_regularizer": null, "momentum": 0.99, "center": true, "beta_constraint": null, "gamma_initializer": {"config": {}, "class_name": "Ones"}, "scale": true, "axis": -1, "moving_variance_initializer": {"config": {}, "class_name": "Ones"}, "moving_mean_initializer": {"config": {}, "class_name": "Zeros"}}, "name": "batch_normalization_31", "inbound_nodes": [[["conv2d_32", 0, 0, {}]]], "class_name": "BatchNormalization"}, {"config": {"name": "add_15", "trainable": true}, "name": "add_15", "inbound_nodes": [[["activation_29", 0, 0, {}], ["batch_normalization_31", 0, 0, {}]]], "class_name": "Add"}, {"config": {"activation": "relu", "name": "activation_31", "trainable": true}, "name": "activation_31", "inbound_nodes": [[["add_15", 0, 0, {}]]], "class_name": "Activation"}, {"config": {"activity_regularizer": null, "activation": "linear", "kernel_size": [3, 3], "name": "conv2d_33", "dilation_rate": [1, 1], "kernel_constraint": null, "trainable": true, "bias_initializer": {"config": {}, "class_name": "Zeros"}, "kernel_initializer": {"config": {"scale": 2.0, "seed": null, "mode": "fan_in", "distribution": "normal"}, "class_name": "VarianceScaling"}, "filters": 32, "kernel_regularizer": {"config": {"l2": 9.999999747378752e-05, "l1": 0.0}, "class_name": "L1L2"}, "bias_constraint": null, "padding": "same", "strides": [1, 1], "use_bias": true, "data_format": "channels_last", "bias_regularizer": null}, "name": "conv2d_33", "inbound_nodes": [[["activation_31", 0, 0, {}]]], "class_name": "Conv2D"}, {"config": {"name": "batch_normalization_32", "beta_initializer": {"config": {}, "class_name": "Zeros"}, "gamma_constraint": null, "epsilon": 0.001, "trainable": true, "gamma_regularizer": null, "beta_regularizer": null, "momentum": 0.99, "center": true, "beta_constraint": null, "gamma_initializer": {"config": {}, "class_name": "Ones"}, "scale": true, "axis": -1, "moving_variance_initializer": {"config": {}, "class_name": "Ones"}, "moving_mean_initializer": {"config": {}, "class_name": "Zeros"}}, "name": "batch_normalization_32", "inbound_nodes": [[["conv2d_33", 0, 0, {}]]], "class_name": "BatchNormalization"}, {"config": {"activation": "relu", "name": "activation_32", "trainable": true}, "name": "activation_32", "inbound_nodes": [[["batch_normalization_32", 0, 0, {}]]], "class_name": "Activation"}, {"config": {"activity_regularizer": null, "activation": "linear", "kernel_size": [3, 3], "name": "conv2d_34", "dilation_rate": [1, 1], "kernel_constraint": null, "trainable": true, "bias_initializer": {"config": {}, "class_name": "Zeros"}, "kernel_initializer": {"config": {"scale": 2.0, "seed": null, "mode": "fan_in", "distribution": "normal"}, "class_name": "VarianceScaling"}, "filters": 32, "kernel_regularizer": {"config": {"l2": 9.999999747378752e-05, "l1": 0.0}, "class_name": "L1L2"}, "bias_constraint": null, "padding": "same", "strides": [1, 1], "use_bias": true, "data_format": "channels_last", "bias_regularizer": null}, "name": "conv2d_34", "inbound_nodes": [[["activation_32", 0, 0, {}]]], "class_name": "Conv2D"}, {"config": {"name": "batch_normalization_33", "beta_initializer": {"config": {}, "class_name": "Zeros"}, "gamma_constraint": null, "epsilon": 0.001, "trainable": true, "gamma_regularizer": null, "beta_regularizer": null, "momentum": 0.99, "center": true, "beta_constraint": null, "gamma_initializer": {"config": {}, "class_name": "Ones"}, "scale": true, "axis": -1, "moving_variance_initializer": {"config": {}, "class_name": "Ones"}, "moving_mean_initializer": {"config": {}, "class_name": "Zeros"}}, "name": "batch_normalization_33", "inbound_nodes": [[["conv2d_34", 0, 0, {}]]], "class_name": "BatchNormalization"}, {"config": {"name": "add_16", "trainable": true}, "name": "add_16", "inbound_nodes": [[["activation_31", 0, 0, {}], ["batch_normalization_33", 0, 0, {}]]], "class_name": "Add"}, {"config": {"activation": "relu", "name": "activation_33", "trainable": true}, "name": "activation_33", "inbound_nodes": [[["add_16", 0, 0, {}]]], "class_name": "Activation"}, {"config": {"activity_regularizer": null, "activation": "linear", "kernel_size": [3, 3], "name": "conv2d_35", "dilation_rate": [1, 1], "kernel_constraint": null, "trainable": true, "bias_initializer": {"config": {}, "class_name": "Zeros"}, "kernel_initializer": {"config": {"scale": 2.0, "seed": null, "mode": "fan_in", "distribution": "normal"}, "class_name": "VarianceScaling"}, "filters": 32, "kernel_regularizer": {"config": {"l2": 9.999999747378752e-05, "l1": 0.0}, "class_name": "L1L2"}, "bias_constraint": null, "padding": "same", "strides": [1, 1], "use_bias": true, "data_format": "channels_last", "bias_regularizer": null}, "name": "conv2d_35", "inbound_nodes": [[["activation_33", 0, 0, {}]]], "class_name": "Conv2D"}, {"config": {"name": "batch_normalization_34", "beta_initializer": {"config": {}, "class_name": "Zeros"}, "gamma_constraint": null, "epsilon": 0.001, "trainable": true, "gamma_regularizer": null, "beta_regularizer": null, "momentum": 0.99, "center": true, "beta_constraint": null, "gamma_initializer": {"config": {}, "class_name": "Ones"}, "scale": true, "axis": -1, "moving_variance_initializer": {"config": {}, "class_name": "Ones"}, "moving_mean_initializer": {"config": {}, "class_name": "Zeros"}}, "name": "batch_normalization_34", "inbound_nodes": [[["conv2d_35", 0, 0, {}]]], "class_name": "BatchNormalization"}, {"config": {"activation": "relu", "name": "activation_34", "trainable": true}, "name": "activation_34", "inbound_nodes": [[["batch_normalization_34", 0, 0, {}]]], "class_name": "Activation"}, {"config": {"activity_regularizer": null, "activation": "linear", "kernel_size": [3, 3], "name": "conv2d_36", "dilation_rate": [1, 1], "kernel_constraint": null, "trainable": true, "bias_initializer": {"config": {}, "class_name": "Zeros"}, "kernel_initializer": {"config": {"scale": 2.0, "seed": null, "mode": "fan_in", "distribution": "normal"}, "class_name": "VarianceScaling"}, "filters": 32, "kernel_regularizer": {"config": {"l2": 9.999999747378752e-05, "l1": 0.0}, "class_name": "L1L2"}, "bias_constraint": null, "padding": "same", "strides": [1, 1], "use_bias": true, "data_format": "channels_last", "bias_regularizer": null}, "name": "conv2d_36", "inbound_nodes": [[["activation_34", 0, 0, {}]]], "class_name": "Conv2D"}, {"config": {"name": "batch_normalization_35", "beta_initializer": {"config": {}, "class_name": "Zeros"}, "gamma_constraint": null, "epsilon": 0.001, "trainable": true, "gamma_regularizer": null, "beta_regularizer": null, "momentum": 0.99, "center": true, "beta_constraint": null, "gamma_initializer": {"config": {}, "class_name": "Ones"}, "scale": true, "axis": -1, "moving_variance_initializer": {"config": {}, "class_name": "Ones"}, "moving_mean_initializer": {"config": {}, "class_name": "Zeros"}}, "name": "batch_normalization_35", "inbound_nodes": [[["conv2d_36", 0, 0, {}]]], "class_name": "BatchNormalization"}, {"config": {"name": "add_17", "trainable": true}, "name": "add_17", "inbound_nodes": [[["activation_33", 0, 0, {}], ["batch_normalization_35", 0, 0, {}]]], "class_name": "Add"}, {"config": {"activation": "relu", "name": "activation_35", "trainable": true}, "name": "activation_35", "inbound_nodes": [[["add_17", 0, 0, {}]]], "class_name": "Activation"}, {"config": {"activity_regularizer": null, "activation": "linear", "kernel_size": [3, 3], "name": "conv2d_37", "dilation_rate": [1, 1], "kernel_constraint": null, "trainable": true, "bias_initializer": {"config": {}, "class_name": "Zeros"}, "kernel_initializer": {"config": {"scale": 2.0, "seed": null, "mode": "fan_in", "distribution": "normal"}, "class_name": "VarianceScaling"}, "filters": 32, "kernel_regularizer": {"config": {"l2": 9.999999747378752e-05, "l1": 0.0}, "class_name": "L1L2"}, "bias_constraint": null, "padding": "same", "strides": [1, 1], "use_bias": true, "data_format": "channels_last", "bias_regularizer": null}, "name": "conv2d_37", "inbound_nodes": [[["activation_35", 0, 0, {}]]], "class_name": "Conv2D"}, {"config": {"name": "batch_normalization_36", "beta_initializer": {"config": {}, "class_name": "Zeros"}, "gamma_constraint": null, "epsilon": 0.001, "trainable": true, "gamma_regularizer": null, "beta_regularizer": null, "momentum": 0.99, "center": true, "beta_constraint": null, "gamma_initializer": {"config": {}, "class_name": "Ones"}, "scale": true, "axis": -1, "moving_variance_initializer": {"config": {}, "class_name": "Ones"}, "moving_mean_initializer": {"config": {}, "class_name": "Zeros"}}, "name": "batch_normalization_36", "inbound_nodes": [[["conv2d_37", 0, 0, {}]]], "class_name": "BatchNormalization"}, {"config": {"activation": "relu", "name": "activation_36", "trainable": true}, "name": "activation_36", "inbound_nodes": [[["batch_normalization_36", 0, 0, {}]]], "class_name": "Activation"}, {"config": {"activity_regularizer": null, "activation": "linear", "kernel_size": [3, 3], "name": "conv2d_38", "dilation_rate": [1, 1], "kernel_constraint": null, "trainable": true, "bias_initializer": {"config": {}, "class_name": "Zeros"}, "kernel_initializer": {"config": {"scale": 2.0, "seed": null, "mode": "fan_in", "distribution": "normal"}, "class_name": "VarianceScaling"}, "filters": 32, "kernel_regularizer": {"config": {"l2": 9.999999747378752e-05, "l1": 0.0}, "class_name": "L1L2"}, "bias_constraint": null, "padding": "same", "strides": [1, 1], "use_bias": true, "data_format": "channels_last", "bias_regularizer": null}, "name": "conv2d_38", "inbound_nodes": [[["activation_36", 0, 0, {}]]], "class_name": "Conv2D"}, {"config": {"name": "batch_normalization_37", "beta_initializer": {"config": {}, "class_name": "Zeros"}, "gamma_constraint": null, "epsilon": 0.001, "trainable": true, "gamma_regularizer": null, "beta_regularizer": null, "momentum": 0.99, "center": true, "beta_constraint": null, "gamma_initializer": {"config": {}, "class_name": "Ones"}, "scale": true, "axis": -1, "moving_variance_initializer": {"config": {}, "class_name": "Ones"}, "moving_mean_initializer": {"config": {}, "class_name": "Zeros"}}, "name": "batch_normalization_37", "inbound_nodes": [[["conv2d_38", 0, 0, {}]]], "class_name": "BatchNormalization"}, {"config": {"name": "add_18", "trainable": true}, "name": "add_18", "inbound_nodes": [[["activation_35", 0, 0, {}], ["batch_normalization_37", 0, 0, {}]]], "class_name": "Add"}, {"config": {"activation": "relu", "name": "activation_37", "trainable": true}, "name": "activation_37", "inbound_nodes": [[["add_18", 0, 0, {}]]], "class_name": "Activation"}, {"config": {"activity_regularizer": null, "activation": "linear", "kernel_size": [3, 3], "name": "conv2d_39", "dilation_rate": [1, 1], "kernel_constraint": null, "trainable": true, "bias_initializer": {"config": {}, "class_name": "Zeros"}, "kernel_initializer": {"config": {"scale": 2.0, "seed": null, "mode": "fan_in", "distribution": "normal"}, "class_name": "VarianceScaling"}, "filters": 64, "kernel_regularizer": {"config": {"l2": 9.999999747378752e-05, "l1": 0.0}, "class_name": "L1L2"}, "bias_constraint": null, "padding": "same", "strides": [2, 2], "use_bias": true, "data_format": "channels_last", "bias_regularizer": null}, "name": "conv2d_39", "inbound_nodes": [[["activation_37", 0, 0, {}]]], "class_name": "Conv2D"}, {"config": {"name": "batch_normalization_38", "beta_initializer": {"config": {}, "class_name": "Zeros"}, "gamma_constraint": null, "epsilon": 0.001, "trainable": true, "gamma_regularizer": null, "beta_regularizer": null, "momentum": 0.99, "center": true, "beta_constraint": null, "gamma_initializer": {"config": {}, "class_name": "Ones"}, "scale": true, "axis": -1, "moving_variance_initializer": {"config": {}, "class_name": "Ones"}, "moving_mean_initializer": {"config": {}, "class_name": "Zeros"}}, "name": "batch_normalization_38", "inbound_nodes": [[["conv2d_39", 0, 0, {}]]], "class_name": "BatchNormalization"}, {"config": {"activation": "relu", "name": "activation_38", "trainable": true}, "name": "activation_38", "inbound_nodes": [[["batch_normalization_38", 0, 0, {}]]], "class_name": "Activation"}, {"config": {"activity_regularizer": null, "activation": "linear", "kernel_size": [3, 3], "name": "conv2d_40", "dilation_rate": [1, 1], "kernel_constraint": null, "trainable": true, "bias_initializer": {"config": {}, "class_name": "Zeros"}, "kernel_initializer": {"config": {"scale": 2.0, "seed": null, "mode": "fan_in", "distribution": "normal"}, "class_name": "VarianceScaling"}, "filters": 64, "kernel_regularizer": {"config": {"l2": 9.999999747378752e-05, "l1": 0.0}, "class_name": "L1L2"}, "bias_constraint": null, "padding": "same", "strides": [1, 1], "use_bias": true, "data_format": "channels_last", "bias_regularizer": null}, "name": "conv2d_40", "inbound_nodes": [[["activation_38", 0, 0, {}]]], "class_name": "Conv2D"}, {"config": {"activity_regularizer": null, "activation": "linear", "kernel_size": [1, 1], "name": "conv2d_41", "dilation_rate": [1, 1], "kernel_constraint": null, "trainable": true, "bias_initializer": {"config": {}, "class_name": "Zeros"}, "kernel_initializer": {"config": {"scale": 2.0, "seed": null, "mode": "fan_in", "distribution": "normal"}, "class_name": "VarianceScaling"}, "filters": 64, "kernel_regularizer": {"config": {"l2": 9.999999747378752e-05, "l1": 0.0}, "class_name": "L1L2"}, "bias_constraint": null, "padding": "same", "strides": [2, 2], "use_bias": true, "data_format": "channels_last", "bias_regularizer": null}, "name": "conv2d_41", "inbound_nodes": [[["activation_37", 0, 0, {}]]], "class_name": "Conv2D"}, {"config": {"name": "batch_normalization_39", "beta_initializer": {"config": {}, "class_name": "Zeros"}, "gamma_constraint": null, "epsilon": 0.001, "trainable": true, "gamma_regularizer": null, "beta_regularizer": null, "momentum": 0.99, "center": true, "beta_constraint": null, "gamma_initializer": {"config": {}, "class_name": "Ones"}, "scale": true, "axis": -1, "moving_variance_initializer": {"config": {}, "class_name": "Ones"}, "moving_mean_initializer": {"config": {}, "class_name": "Zeros"}}, "name": "batch_normalization_39", "inbound_nodes": [[["conv2d_40", 0, 0, {}]]], "class_name": "BatchNormalization"}, {"config": {"name": "add_19", "trainable": true}, "name": "add_19", "inbound_nodes": [[["conv2d_41", 0, 0, {}], ["batch_normalization_39", 0, 0, {}]]], "class_name": "Add"}, {"config": {"activation": "relu", "name": "LastAct", "trainable": true}, "name": "LastAct", "inbound_nodes": [[["add_19", 0, 0, {}]]], "class_name": "Activation"}, {"config": {"name": "average_pooling2d_10", "pool_size": [8, 8], "padding": "valid", "strides": [8, 8], "trainable": true, "data_format": "channels_last"}, "name": "average_pooling2d_10", "inbound_nodes": [[["LastAct", 0, 0, {}]]], "class_name": "AveragePooling2D"}, {"config": {"name": "flatten_10", "trainable": true}, "name": "flatten_10", "inbound_nodes": [[["average_pooling2d_10", 0, 0, {}]]], "class_name": "Flatten"}, {"config": {"activity_regularizer": null, "activation": "softmax", "name": "dense_1", "kernel_constraint": null, "units": 10, "bias_initializer": {"config": {}, "class_name": "Zeros"}, "kernel_initializer": {"config": {"scale": 2.0, "seed": null, "mode": "fan_in", "distribution": "normal"}, "class_name": "VarianceScaling"}, "trainable": true, "kernel_regularizer": null, "bias_constraint": null, "use_bias": true, "bias_regularizer": null}, "name": "dense_1", "inbound_nodes": [[["flatten_10", 0, 0, {}]]], "class_name": "Dense"}], "input_layers": [["input_1", 0, 0]]}, "class_name": "Model"}