{"backend": "tensorflow", "config": {"name": "model_387", "layers": [{"name": "input_18", "config": {"name": "input_18", "dtype": "float32", "batch_input_shape": [null, 32, 32, 3], "sparse": false}, "inbound_nodes": [], "class_name": "InputLayer"}, {"name": "conv2d_1", "config": {"kernel_regularizer": {"config": {"l1": 0.0, "l2": 9.999999747378752e-05}, "class_name": "L1L2"}, "kernel_size": [3, 3], "filters": 16, "kernel_constraint": null, "name": "conv2d_1", "activation": "linear", "dilation_rate": [1, 1], "bias_regularizer": null, "trainable": true, "kernel_initializer": {"config": {"seed": null, "mode": "fan_avg", "scale": 1.0, "distribution": "uniform"}, "class_name": "VarianceScaling"}, "data_format": "channels_last", "bias_initializer": {"config": {}, "class_name": "Zeros"}, "padding": "same", "strides": [1, 1], "activity_regularizer": null, "bias_constraint": null, "use_bias": true}, "inbound_nodes": [[["input_18", 0, 0, {}]]], "class_name": "Conv2D"}, {"name": "batch_normalization_313", "config": {"momentum": 0.99, "moving_variance_initializer": {"config": {}, "class_name": "Ones"}, "name": "batch_normalization_313", "beta_regularizer": null, "moving_mean_initializer": {"config": {}, "class_name": "Zeros"}, "center": true, "gamma_constraint": null, "scale": true, "axis": -1, "trainable": true, "beta_initializer": {"config": {}, "class_name": "Zeros"}, "beta_constraint": null, "gamma_initializer": {"config": {}, "class_name": "Ones"}, "epsilon": 0.001, "gamma_regularizer": null}, "inbound_nodes": [[["conv2d_1", 0, 0, {}]]], "class_name": "BatchNormalization"}, {"name": "activation_1", "config": {"name": "activation_1", "activation": "relu", "trainable": true}, "inbound_nodes": [[["batch_normalization_313", 0, 0, {}]]], "class_name": "Activation"}, {"name": "conv2d_2", "config": {"kernel_regularizer": {"config": {"l1": 0.0, "l2": 9.999999747378752e-05}, "class_name": "L1L2"}, "kernel_size": [3, 3], "filters": 13, "kernel_constraint": null, "name": "conv2d_2", "activation": "linear", "dilation_rate": [1, 1], "bias_regularizer": null, "trainable": true, "kernel_initializer": {"config": {"seed": null, "mode": "fan_avg", "scale": 1.0, "distribution": "uniform"}, "class_name": "VarianceScaling"}, "data_format": "channels_last", "bias_initializer": {"config": {}, "class_name": "Zeros"}, "padding": "same", "strides": [1, 1], "activity_regularizer": null, "bias_constraint": null, "use_bias": true}, "inbound_nodes": [[["activation_1", 0, 0, {}]]], "class_name": "Conv2D"}, {"name": "batch_normalization_314", "config": {"momentum": 0.99, "moving_variance_initializer": {"config": {}, "class_name": "Ones"}, "name": "batch_normalization_314", "beta_regularizer": null, "moving_mean_initializer": {"config": {}, "class_name": "Zeros"}, "center": true, "gamma_constraint": null, "scale": true, "axis": -1, "trainable": true, "beta_initializer": {"config": {}, "class_name": "Zeros"}, "beta_constraint": null, "gamma_initializer": {"config": {}, "class_name": "Ones"}, "epsilon": 0.001, "gamma_regularizer": null}, "inbound_nodes": [[["conv2d_2", 0, 0, {}]]], "class_name": "BatchNormalization"}, {"name": "activation_2", "config": {"name": "activation_2", "activation": "relu", "trainable": true}, "inbound_nodes": [[["batch_normalization_314", 0, 0, {}]]], "class_name": "Activation"}, {"name": "conv2d_3", "config": {"kernel_regularizer": {"config": {"l1": 0.0, "l2": 9.999999747378752e-05}, "class_name": "L1L2"}, "kernel_size": [3, 3], "filters": 16, "kernel_constraint": null, "name": "conv2d_3", "activation": "linear", "dilation_rate": [1, 1], "bias_regularizer": null, "trainable": true, "kernel_initializer": {"config": {"seed": null, "mode": "fan_avg", "scale": 1.0, "distribution": "uniform"}, "class_name": "VarianceScaling"}, "data_format": "channels_last", "bias_initializer": {"config": {}, "class_name": "Zeros"}, "padding": "same", "strides": [1, 1], "activity_regularizer": null, "bias_constraint": null, "use_bias": true}, "inbound_nodes": [[["activation_2", 0, 0, {}]]], "class_name": "Conv2D"}, {"name": "batch_normalization_315", "config": {"momentum": 0.99, "moving_variance_initializer": {"config": {}, "class_name": "Ones"}, "name": "batch_normalization_315", "beta_regularizer": null, "moving_mean_initializer": {"config": {}, "class_name": "Zeros"}, "center": true, "gamma_constraint": null, "scale": true, "axis": -1, "trainable": true, "beta_initializer": {"config": {}, "class_name": "Zeros"}, "beta_constraint": null, "gamma_initializer": {"config": {}, "class_name": "Ones"}, "epsilon": 0.001, "gamma_regularizer": null}, "inbound_nodes": [[["conv2d_3", 0, 0, {}]]], "class_name": "BatchNormalization"}, {"name": "add_153", "config": {"name": "add_153", "trainable": true}, "inbound_nodes": [[["activation_1", 0, 0, {}], ["batch_normalization_315", 0, 0, {}]]], "class_name": "Add"}, {"name": "activation_3", "config": {"name": "activation_3", "activation": "relu", "trainable": true}, "inbound_nodes": [[["add_153", 0, 0, {}]]], "class_name": "Activation"}, {"name": "conv2d_4", "config": {"kernel_regularizer": {"config": {"l1": 0.0, "l2": 9.999999747378752e-05}, "class_name": "L1L2"}, "kernel_size": [3, 3], "filters": 7, "kernel_constraint": null, "name": "conv2d_4", "activation": "linear", "dilation_rate": [1, 1], "bias_regularizer": null, "trainable": true, "kernel_initializer": {"config": {"seed": null, "mode": "fan_avg", "scale": 1.0, "distribution": "uniform"}, "class_name": "VarianceScaling"}, "data_format": "channels_last", "bias_initializer": {"config": {}, "class_name": "Zeros"}, "padding": "same", "strides": [1, 1], "activity_regularizer": null, "bias_constraint": null, "use_bias": true}, "inbound_nodes": [[["activation_3", 0, 0, {}]]], "class_name": "Conv2D"}, {"name": "batch_normalization_316", "config": {"momentum": 0.99, "moving_variance_initializer": {"config": {}, "class_name": "Ones"}, "name": "batch_normalization_316", "beta_regularizer": null, "moving_mean_initializer": {"config": {}, "class_name": "Zeros"}, "center": true, "gamma_constraint": null, "scale": true, "axis": -1, "trainable": true, "beta_initializer": {"config": {}, "class_name": "Zeros"}, "beta_constraint": null, "gamma_initializer": {"config": {}, "class_name": "Ones"}, "epsilon": 0.001, "gamma_regularizer": null}, "inbound_nodes": [[["conv2d_4", 0, 0, {}]]], "class_name": "BatchNormalization"}, {"name": "activation_4", "config": {"name": "activation_4", "activation": "relu", "trainable": true}, "inbound_nodes": [[["batch_normalization_316", 0, 0, {}]]], "class_name": "Activation"}, {"name": "conv2d_5", "config": {"kernel_regularizer": {"config": {"l1": 0.0, "l2": 9.999999747378752e-05}, "class_name": "L1L2"}, "kernel_size": [3, 3], "filters": 16, "kernel_constraint": null, "name": "conv2d_5", "activation": "linear", "dilation_rate": [1, 1], "bias_regularizer": null, "trainable": true, "kernel_initializer": {"config": {"seed": null, "mode": "fan_avg", "scale": 1.0, "distribution": "uniform"}, "class_name": "VarianceScaling"}, "data_format": "channels_last", "bias_initializer": {"config": {}, "class_name": "Zeros"}, "padding": "same", "strides": [1, 1], "activity_regularizer": null, "bias_constraint": null, "use_bias": true}, "inbound_nodes": [[["activation_4", 0, 0, {}]]], "class_name": "Conv2D"}, {"name": "batch_normalization_317", "config": {"momentum": 0.99, "moving_variance_initializer": {"config": {}, "class_name": "Ones"}, "name": "batch_normalization_317", "beta_regularizer": null, "moving_mean_initializer": {"config": {}, "class_name": "Zeros"}, "center": true, "gamma_constraint": null, "scale": true, "axis": -1, "trainable": true, "beta_initializer": {"config": {}, "class_name": "Zeros"}, "beta_constraint": null, "gamma_initializer": {"config": {}, "class_name": "Ones"}, "epsilon": 0.001, "gamma_regularizer": null}, "inbound_nodes": [[["conv2d_5", 0, 0, {}]]], "class_name": "BatchNormalization"}, {"name": "add_154", "config": {"name": "add_154", "trainable": true}, "inbound_nodes": [[["activation_3", 0, 0, {}], ["batch_normalization_317", 0, 0, {}]]], "class_name": "Add"}, {"name": "activation_5", "config": {"name": "activation_5", "activation": "relu", "trainable": true}, "inbound_nodes": [[["add_154", 0, 0, {}]]], "class_name": "Activation"}, {"name": "conv2d_6", "config": {"kernel_regularizer": {"config": {"l1": 0.0, "l2": 9.999999747378752e-05}, "class_name": "L1L2"}, "kernel_size": [3, 3], "filters": 4, "kernel_constraint": null, "name": "conv2d_6", "activation": "linear", "dilation_rate": [1, 1], "bias_regularizer": null, "trainable": true, "kernel_initializer": {"config": {"seed": null, "mode": "fan_avg", "scale": 1.0, "distribution": "uniform"}, "class_name": "VarianceScaling"}, "data_format": "channels_last", "bias_initializer": {"config": {}, "class_name": "Zeros"}, "padding": "same", "strides": [1, 1], "activity_regularizer": null, "bias_constraint": null, "use_bias": true}, "inbound_nodes": [[["activation_5", 0, 0, {}]]], "class_name": "Conv2D"}, {"name": "batch_normalization_318", "config": {"momentum": 0.99, "moving_variance_initializer": {"config": {}, "class_name": "Ones"}, "name": "batch_normalization_318", "beta_regularizer": null, "moving_mean_initializer": {"config": {}, "class_name": "Zeros"}, "center": true, "gamma_constraint": null, "scale": true, "axis": -1, "trainable": true, "beta_initializer": {"config": {}, "class_name": "Zeros"}, "beta_constraint": null, "gamma_initializer": {"config": {}, "class_name": "Ones"}, "epsilon": 0.001, "gamma_regularizer": null}, "inbound_nodes": [[["conv2d_6", 0, 0, {}]]], "class_name": "BatchNormalization"}, {"name": "activation_6", "config": {"name": "activation_6", "activation": "relu", "trainable": true}, "inbound_nodes": [[["batch_normalization_318", 0, 0, {}]]], "class_name": "Activation"}, {"name": "conv2d_7", "config": {"kernel_regularizer": {"config": {"l1": 0.0, "l2": 9.999999747378752e-05}, "class_name": "L1L2"}, "kernel_size": [3, 3], "filters": 16, "kernel_constraint": null, "name": "conv2d_7", "activation": "linear", "dilation_rate": [1, 1], "bias_regularizer": null, "trainable": true, "kernel_initializer": {"config": {"seed": null, "mode": "fan_avg", "scale": 1.0, "distribution": "uniform"}, "class_name": "VarianceScaling"}, "data_format": "channels_last", "bias_initializer": {"config": {}, "class_name": "Zeros"}, "padding": "same", "strides": [1, 1], "activity_regularizer": null, "bias_constraint": null, "use_bias": true}, "inbound_nodes": [[["activation_6", 0, 0, {}]]], "class_name": "Conv2D"}, {"name": "batch_normalization_319", "config": {"momentum": 0.99, "moving_variance_initializer": {"config": {}, "class_name": "Ones"}, "name": "batch_normalization_319", "beta_regularizer": null, "moving_mean_initializer": {"config": {}, "class_name": "Zeros"}, "center": true, "gamma_constraint": null, "scale": true, "axis": -1, "trainable": true, "beta_initializer": {"config": {}, "class_name": "Zeros"}, "beta_constraint": null, "gamma_initializer": {"config": {}, "class_name": "Ones"}, "epsilon": 0.001, "gamma_regularizer": null}, "inbound_nodes": [[["conv2d_7", 0, 0, {}]]], "class_name": "BatchNormalization"}, {"name": "add_155", "config": {"name": "add_155", "trainable": true}, "inbound_nodes": [[["activation_5", 0, 0, {}], ["batch_normalization_319", 0, 0, {}]]], "class_name": "Add"}, {"name": "activation_7", "config": {"name": "activation_7", "activation": "relu", "trainable": true}, "inbound_nodes": [[["add_155", 0, 0, {}]]], "class_name": "Activation"}, {"name": "conv2d_8", "config": {"kernel_regularizer": {"config": {"l1": 0.0, "l2": 9.999999747378752e-05}, "class_name": "L1L2"}, "kernel_size": [3, 3], "filters": 4, "kernel_constraint": null, "name": "conv2d_8", "activation": "linear", "dilation_rate": [1, 1], "bias_regularizer": null, "trainable": true, "kernel_initializer": {"config": {"seed": null, "mode": "fan_avg", "scale": 1.0, "distribution": "uniform"}, "class_name": "VarianceScaling"}, "data_format": "channels_last", "bias_initializer": {"config": {}, "class_name": "Zeros"}, "padding": "same", "strides": [1, 1], "activity_regularizer": null, "bias_constraint": null, "use_bias": true}, "inbound_nodes": [[["activation_7", 0, 0, {}]]], "class_name": "Conv2D"}, {"name": "batch_normalization_320", "config": {"momentum": 0.99, "moving_variance_initializer": {"config": {}, "class_name": "Ones"}, "name": "batch_normalization_320", "beta_regularizer": null, "moving_mean_initializer": {"config": {}, "class_name": "Zeros"}, "center": true, "gamma_constraint": null, "scale": true, "axis": -1, "trainable": true, "beta_initializer": {"config": {}, "class_name": "Zeros"}, "beta_constraint": null, "gamma_initializer": {"config": {}, "class_name": "Ones"}, "epsilon": 0.001, "gamma_regularizer": null}, "inbound_nodes": [[["conv2d_8", 0, 0, {}]]], "class_name": "BatchNormalization"}, {"name": "activation_8", "config": {"name": "activation_8", "activation": "relu", "trainable": true}, "inbound_nodes": [[["batch_normalization_320", 0, 0, {}]]], "class_name": "Activation"}, {"name": "conv2d_9", "config": {"kernel_regularizer": {"config": {"l1": 0.0, "l2": 9.999999747378752e-05}, "class_name": "L1L2"}, "kernel_size": [3, 3], "filters": 16, "kernel_constraint": null, "name": "conv2d_9", "activation": "linear", "dilation_rate": [1, 1], "bias_regularizer": null, "trainable": true, "kernel_initializer": {"config": {"seed": null, "mode": "fan_avg", "scale": 1.0, "distribution": "uniform"}, "class_name": "VarianceScaling"}, "data_format": "channels_last", "bias_initializer": {"config": {}, "class_name": "Zeros"}, "padding": "same", "strides": [1, 1], "activity_regularizer": null, "bias_constraint": null, "use_bias": true}, "inbound_nodes": [[["activation_8", 0, 0, {}]]], "class_name": "Conv2D"}, {"name": "batch_normalization_321", "config": {"momentum": 0.99, "moving_variance_initializer": {"config": {}, "class_name": "Ones"}, "name": "batch_normalization_321", "beta_regularizer": null, "moving_mean_initializer": {"config": {}, "class_name": "Zeros"}, "center": true, "gamma_constraint": null, "scale": true, "axis": -1, "trainable": true, "beta_initializer": {"config": {}, "class_name": "Zeros"}, "beta_constraint": null, "gamma_initializer": {"config": {}, "class_name": "Ones"}, "epsilon": 0.001, "gamma_regularizer": null}, "inbound_nodes": [[["conv2d_9", 0, 0, {}]]], "class_name": "BatchNormalization"}, {"name": "add_156", "config": {"name": "add_156", "trainable": true}, "inbound_nodes": [[["activation_7", 0, 0, {}], ["batch_normalization_321", 0, 0, {}]]], "class_name": "Add"}, {"name": "activation_9", "config": {"name": "activation_9", "activation": "relu", "trainable": true}, "inbound_nodes": [[["add_156", 0, 0, {}]]], "class_name": "Activation"}, {"name": "conv2d_10", "config": {"kernel_regularizer": {"config": {"l1": 0.0, "l2": 9.999999747378752e-05}, "class_name": "L1L2"}, "kernel_size": [3, 3], "filters": 3, "kernel_constraint": null, "name": "conv2d_10", "activation": "linear", "dilation_rate": [1, 1], "bias_regularizer": null, "trainable": true, "kernel_initializer": {"config": {"seed": null, "mode": "fan_avg", "scale": 1.0, "distribution": "uniform"}, "class_name": "VarianceScaling"}, "data_format": "channels_last", "bias_initializer": {"config": {}, "class_name": "Zeros"}, "padding": "same", "strides": [1, 1], "activity_regularizer": null, "bias_constraint": null, "use_bias": true}, "inbound_nodes": [[["activation_9", 0, 0, {}]]], "class_name": "Conv2D"}, {"name": "batch_normalization_322", "config": {"momentum": 0.99, "moving_variance_initializer": {"config": {}, "class_name": "Ones"}, "name": "batch_normalization_322", "beta_regularizer": null, "moving_mean_initializer": {"config": {}, "class_name": "Zeros"}, "center": true, "gamma_constraint": null, "scale": true, "axis": -1, "trainable": true, "beta_initializer": {"config": {}, "class_name": "Zeros"}, "beta_constraint": null, "gamma_initializer": {"config": {}, "class_name": "Ones"}, "epsilon": 0.001, "gamma_regularizer": null}, "inbound_nodes": [[["conv2d_10", 0, 0, {}]]], "class_name": "BatchNormalization"}, {"name": "activation_10", "config": {"name": "activation_10", "activation": "relu", "trainable": true}, "inbound_nodes": [[["batch_normalization_322", 0, 0, {}]]], "class_name": "Activation"}, {"name": "conv2d_11", "config": {"kernel_regularizer": {"config": {"l1": 0.0, "l2": 9.999999747378752e-05}, "class_name": "L1L2"}, "kernel_size": [3, 3], "filters": 16, "kernel_constraint": null, "name": "conv2d_11", "activation": "linear", "dilation_rate": [1, 1], "bias_regularizer": null, "trainable": true, "kernel_initializer": {"config": {"seed": null, "mode": "fan_avg", "scale": 1.0, "distribution": "uniform"}, "class_name": "VarianceScaling"}, "data_format": "channels_last", "bias_initializer": {"config": {}, "class_name": "Zeros"}, "padding": "same", "strides": [1, 1], "activity_regularizer": null, "bias_constraint": null, "use_bias": true}, "inbound_nodes": [[["activation_10", 0, 0, {}]]], "class_name": "Conv2D"}, {"name": "batch_normalization_323", "config": {"momentum": 0.99, "moving_variance_initializer": {"config": {}, "class_name": "Ones"}, "name": "batch_normalization_323", "beta_regularizer": null, "moving_mean_initializer": {"config": {}, "class_name": "Zeros"}, "center": true, "gamma_constraint": null, "scale": true, "axis": -1, "trainable": true, "beta_initializer": {"config": {}, "class_name": "Zeros"}, "beta_constraint": null, "gamma_initializer": {"config": {}, "class_name": "Ones"}, "epsilon": 0.001, "gamma_regularizer": null}, "inbound_nodes": [[["conv2d_11", 0, 0, {}]]], "class_name": "BatchNormalization"}, {"name": "add_157", "config": {"name": "add_157", "trainable": true}, "inbound_nodes": [[["activation_9", 0, 0, {}], ["batch_normalization_323", 0, 0, {}]]], "class_name": "Add"}, {"name": "activation_11", "config": {"name": "activation_11", "activation": "relu", "trainable": true}, "inbound_nodes": [[["add_157", 0, 0, {}]]], "class_name": "Activation"}, {"name": "conv2d_12", "config": {"kernel_regularizer": {"config": {"l1": 0.0, "l2": 9.999999747378752e-05}, "class_name": "L1L2"}, "kernel_size": [3, 3], "filters": 1, "kernel_constraint": null, "name": "conv2d_12", "activation": "linear", "dilation_rate": [1, 1], "bias_regularizer": null, "trainable": true, "kernel_initializer": {"config": {"seed": null, "mode": "fan_avg", "scale": 1.0, "distribution": "uniform"}, "class_name": "VarianceScaling"}, "data_format": "channels_last", "bias_initializer": {"config": {}, "class_name": "Zeros"}, "padding": "same", "strides": [1, 1], "activity_regularizer": null, "bias_constraint": null, "use_bias": true}, "inbound_nodes": [[["activation_11", 0, 0, {}]]], "class_name": "Conv2D"}, {"name": "batch_normalization_324", "config": {"momentum": 0.99, "moving_variance_initializer": {"config": {}, "class_name": "Ones"}, "name": "batch_normalization_324", "beta_regularizer": null, "moving_mean_initializer": {"config": {}, "class_name": "Zeros"}, "center": true, "gamma_constraint": null, "scale": true, "axis": -1, "trainable": true, "beta_initializer": {"config": {}, "class_name": "Zeros"}, "beta_constraint": null, "gamma_initializer": {"config": {}, "class_name": "Ones"}, "epsilon": 0.001, "gamma_regularizer": null}, "inbound_nodes": [[["conv2d_12", 0, 0, {}]]], "class_name": "BatchNormalization"}, {"name": "activation_12", "config": {"name": "activation_12", "activation": "relu", "trainable": true}, "inbound_nodes": [[["batch_normalization_324", 0, 0, {}]]], "class_name": "Activation"}, {"name": "conv2d_13", "config": {"kernel_regularizer": {"config": {"l1": 0.0, "l2": 9.999999747378752e-05}, "class_name": "L1L2"}, "kernel_size": [3, 3], "filters": 16, "kernel_constraint": null, "name": "conv2d_13", "activation": "linear", "dilation_rate": [1, 1], "bias_regularizer": null, "trainable": true, "kernel_initializer": {"config": {"seed": null, "mode": "fan_avg", "scale": 1.0, "distribution": "uniform"}, "class_name": "VarianceScaling"}, "data_format": "channels_last", "bias_initializer": {"config": {}, "class_name": "Zeros"}, "padding": "same", "strides": [1, 1], "activity_regularizer": null, "bias_constraint": null, "use_bias": true}, "inbound_nodes": [[["activation_12", 0, 0, {}]]], "class_name": "Conv2D"}, {"name": "batch_normalization_325", "config": {"momentum": 0.99, "moving_variance_initializer": {"config": {}, "class_name": "Ones"}, "name": "batch_normalization_325", "beta_regularizer": null, "moving_mean_initializer": {"config": {}, "class_name": "Zeros"}, "center": true, "gamma_constraint": null, "scale": true, "axis": -1, "trainable": true, "beta_initializer": {"config": {}, "class_name": "Zeros"}, "beta_constraint": null, "gamma_initializer": {"config": {}, "class_name": "Ones"}, "epsilon": 0.001, "gamma_regularizer": null}, "inbound_nodes": [[["conv2d_13", 0, 0, {}]]], "class_name": "BatchNormalization"}, {"name": "add_158", "config": {"name": "add_158", "trainable": true}, "inbound_nodes": [[["activation_11", 0, 0, {}], ["batch_normalization_325", 0, 0, {}]]], "class_name": "Add"}, {"name": "activation_13", "config": {"name": "activation_13", "activation": "relu", "trainable": true}, "inbound_nodes": [[["add_158", 0, 0, {}]]], "class_name": "Activation"}, {"name": "conv2d_14", "config": {"kernel_regularizer": {"config": {"l1": 0.0, "l2": 9.999999747378752e-05}, "class_name": "L1L2"}, "kernel_size": [3, 3], "filters": 6, "kernel_constraint": null, "name": "conv2d_14", "activation": "linear", "dilation_rate": [1, 1], "bias_regularizer": null, "trainable": true, "kernel_initializer": {"config": {"seed": null, "mode": "fan_avg", "scale": 1.0, "distribution": "uniform"}, "class_name": "VarianceScaling"}, "data_format": "channels_last", "bias_initializer": {"config": {}, "class_name": "Zeros"}, "padding": "same", "strides": [1, 1], "activity_regularizer": null, "bias_constraint": null, "use_bias": true}, "inbound_nodes": [[["activation_13", 0, 0, {}]]], "class_name": "Conv2D"}, {"name": "batch_normalization_326", "config": {"momentum": 0.99, "moving_variance_initializer": {"config": {}, "class_name": "Ones"}, "name": "batch_normalization_326", "beta_regularizer": null, "moving_mean_initializer": {"config": {}, "class_name": "Zeros"}, "center": true, "gamma_constraint": null, "scale": true, "axis": -1, "trainable": true, "beta_initializer": {"config": {}, "class_name": "Zeros"}, "beta_constraint": null, "gamma_initializer": {"config": {}, "class_name": "Ones"}, "epsilon": 0.001, "gamma_regularizer": null}, "inbound_nodes": [[["conv2d_14", 0, 0, {}]]], "class_name": "BatchNormalization"}, {"name": "activation_14", "config": {"name": "activation_14", "activation": "relu", "trainable": true}, "inbound_nodes": [[["batch_normalization_326", 0, 0, {}]]], "class_name": "Activation"}, {"name": "conv2d_15", "config": {"kernel_regularizer": {"config": {"l1": 0.0, "l2": 9.999999747378752e-05}, "class_name": "L1L2"}, "kernel_size": [3, 3], "filters": 16, "kernel_constraint": null, "name": "conv2d_15", "activation": "linear", "dilation_rate": [1, 1], "bias_regularizer": null, "trainable": true, "kernel_initializer": {"config": {"seed": null, "mode": "fan_avg", "scale": 1.0, "distribution": "uniform"}, "class_name": "VarianceScaling"}, "data_format": "channels_last", "bias_initializer": {"config": {}, "class_name": "Zeros"}, "padding": "same", "strides": [1, 1], "activity_regularizer": null, "bias_constraint": null, "use_bias": true}, "inbound_nodes": [[["activation_14", 0, 0, {}]]], "class_name": "Conv2D"}, {"name": "batch_normalization_327", "config": {"momentum": 0.99, "moving_variance_initializer": {"config": {}, "class_name": "Ones"}, "name": "batch_normalization_327", "beta_regularizer": null, "moving_mean_initializer": {"config": {}, "class_name": "Zeros"}, "center": true, "gamma_constraint": null, "scale": true, "axis": -1, "trainable": true, "beta_initializer": {"config": {}, "class_name": "Zeros"}, "beta_constraint": null, "gamma_initializer": {"config": {}, "class_name": "Ones"}, "epsilon": 0.001, "gamma_regularizer": null}, "inbound_nodes": [[["conv2d_15", 0, 0, {}]]], "class_name": "BatchNormalization"}, {"name": "add_159", "config": {"name": "add_159", "trainable": true}, "inbound_nodes": [[["activation_13", 0, 0, {}], ["batch_normalization_327", 0, 0, {}]]], "class_name": "Add"}, {"name": "activation_15", "config": {"name": "activation_15", "activation": "relu", "trainable": true}, "inbound_nodes": [[["add_159", 0, 0, {}]]], "class_name": "Activation"}, {"name": "conv2d_16", "config": {"kernel_regularizer": {"config": {"l1": 0.0, "l2": 9.999999747378752e-05}, "class_name": "L1L2"}, "kernel_size": [3, 3], "filters": 4, "kernel_constraint": null, "name": "conv2d_16", "activation": "linear", "dilation_rate": [1, 1], "bias_regularizer": null, "trainable": true, "kernel_initializer": {"config": {"seed": null, "mode": "fan_avg", "scale": 1.0, "distribution": "uniform"}, "class_name": "VarianceScaling"}, "data_format": "channels_last", "bias_initializer": {"config": {}, "class_name": "Zeros"}, "padding": "same", "strides": [1, 1], "activity_regularizer": null, "bias_constraint": null, "use_bias": true}, "inbound_nodes": [[["activation_15", 0, 0, {}]]], "class_name": "Conv2D"}, {"name": "batch_normalization_328", "config": {"momentum": 0.99, "moving_variance_initializer": {"config": {}, "class_name": "Ones"}, "name": "batch_normalization_328", "beta_regularizer": null, "moving_mean_initializer": {"config": {}, "class_name": "Zeros"}, "center": true, "gamma_constraint": null, "scale": true, "axis": -1, "trainable": true, "beta_initializer": {"config": {}, "class_name": "Zeros"}, "beta_constraint": null, "gamma_initializer": {"config": {}, "class_name": "Ones"}, "epsilon": 0.001, "gamma_regularizer": null}, "inbound_nodes": [[["conv2d_16", 0, 0, {}]]], "class_name": "BatchNormalization"}, {"name": "activation_16", "config": {"name": "activation_16", "activation": "relu", "trainable": true}, "inbound_nodes": [[["batch_normalization_328", 0, 0, {}]]], "class_name": "Activation"}, {"name": "conv2d_17", "config": {"kernel_regularizer": {"config": {"l1": 0.0, "l2": 9.999999747378752e-05}, "class_name": "L1L2"}, "kernel_size": [3, 3], "filters": 16, "kernel_constraint": null, "name": "conv2d_17", "activation": "linear", "dilation_rate": [1, 1], "bias_regularizer": null, "trainable": true, "kernel_initializer": {"config": {"seed": null, "mode": "fan_avg", "scale": 1.0, "distribution": "uniform"}, "class_name": "VarianceScaling"}, "data_format": "channels_last", "bias_initializer": {"config": {}, "class_name": "Zeros"}, "padding": "same", "strides": [1, 1], "activity_regularizer": null, "bias_constraint": null, "use_bias": true}, "inbound_nodes": [[["activation_16", 0, 0, {}]]], "class_name": "Conv2D"}, {"name": "batch_normalization_329", "config": {"momentum": 0.99, "moving_variance_initializer": {"config": {}, "class_name": "Ones"}, "name": "batch_normalization_329", "beta_regularizer": null, "moving_mean_initializer": {"config": {}, "class_name": "Zeros"}, "center": true, "gamma_constraint": null, "scale": true, "axis": -1, "trainable": true, "beta_initializer": {"config": {}, "class_name": "Zeros"}, "beta_constraint": null, "gamma_initializer": {"config": {}, "class_name": "Ones"}, "epsilon": 0.001, "gamma_regularizer": null}, "inbound_nodes": [[["conv2d_17", 0, 0, {}]]], "class_name": "BatchNormalization"}, {"name": "add_160", "config": {"name": "add_160", "trainable": true}, "inbound_nodes": [[["activation_15", 0, 0, {}], ["batch_normalization_329", 0, 0, {}]]], "class_name": "Add"}, {"name": "activation_17", "config": {"name": "activation_17", "activation": "relu", "trainable": true}, "inbound_nodes": [[["add_160", 0, 0, {}]]], "class_name": "Activation"}, {"name": "conv2d_18", "config": {"kernel_regularizer": {"config": {"l1": 0.0, "l2": 9.999999747378752e-05}, "class_name": "L1L2"}, "kernel_size": [3, 3], "filters": 7, "kernel_constraint": null, "name": "conv2d_18", "activation": "linear", "dilation_rate": [1, 1], "bias_regularizer": null, "trainable": true, "kernel_initializer": {"config": {"seed": null, "mode": "fan_avg", "scale": 1.0, "distribution": "uniform"}, "class_name": "VarianceScaling"}, "data_format": "channels_last", "bias_initializer": {"config": {}, "class_name": "Zeros"}, "padding": "same", "strides": [1, 1], "activity_regularizer": null, "bias_constraint": null, "use_bias": true}, "inbound_nodes": [[["activation_17", 0, 0, {}]]], "class_name": "Conv2D"}, {"name": "batch_normalization_330", "config": {"momentum": 0.99, "moving_variance_initializer": {"config": {}, "class_name": "Ones"}, "name": "batch_normalization_330", "beta_regularizer": null, "moving_mean_initializer": {"config": {}, "class_name": "Zeros"}, "center": true, "gamma_constraint": null, "scale": true, "axis": -1, "trainable": true, "beta_initializer": {"config": {}, "class_name": "Zeros"}, "beta_constraint": null, "gamma_initializer": {"config": {}, "class_name": "Ones"}, "epsilon": 0.001, "gamma_regularizer": null}, "inbound_nodes": [[["conv2d_18", 0, 0, {}]]], "class_name": "BatchNormalization"}, {"name": "activation_18", "config": {"name": "activation_18", "activation": "relu", "trainable": true}, "inbound_nodes": [[["batch_normalization_330", 0, 0, {}]]], "class_name": "Activation"}, {"name": "conv2d_19", "config": {"kernel_regularizer": {"config": {"l1": 0.0, "l2": 9.999999747378752e-05}, "class_name": "L1L2"}, "kernel_size": [3, 3], "filters": 16, "kernel_constraint": null, "name": "conv2d_19", "activation": "linear", "dilation_rate": [1, 1], "bias_regularizer": null, "trainable": true, "kernel_initializer": {"config": {"seed": null, "mode": "fan_avg", "scale": 1.0, "distribution": "uniform"}, "class_name": "VarianceScaling"}, "data_format": "channels_last", "bias_initializer": {"config": {}, "class_name": "Zeros"}, "padding": "same", "strides": [1, 1], "activity_regularizer": null, "bias_constraint": null, "use_bias": true}, "inbound_nodes": [[["activation_18", 0, 0, {}]]], "class_name": "Conv2D"}, {"name": "batch_normalization_331", "config": {"momentum": 0.99, "moving_variance_initializer": {"config": {}, "class_name": "Ones"}, "name": "batch_normalization_331", "beta_regularizer": null, "moving_mean_initializer": {"config": {}, "class_name": "Zeros"}, "center": true, "gamma_constraint": null, "scale": true, "axis": -1, "trainable": true, "beta_initializer": {"config": {}, "class_name": "Zeros"}, "beta_constraint": null, "gamma_initializer": {"config": {}, "class_name": "Ones"}, "epsilon": 0.001, "gamma_regularizer": null}, "inbound_nodes": [[["conv2d_19", 0, 0, {}]]], "class_name": "BatchNormalization"}, {"name": "add_161", "config": {"name": "add_161", "trainable": true}, "inbound_nodes": [[["activation_17", 0, 0, {}], ["batch_normalization_331", 0, 0, {}]]], "class_name": "Add"}, {"name": "activation_19", "config": {"name": "activation_19", "activation": "relu", "trainable": true}, "inbound_nodes": [[["add_161", 0, 0, {}]]], "class_name": "Activation"}, {"name": "conv2d_20", "config": {"kernel_regularizer": {"config": {"l1": 0.0, "l2": 9.999999747378752e-05}, "class_name": "L1L2"}, "kernel_size": [3, 3], "filters": 23, "kernel_constraint": null, "name": "conv2d_20", "activation": "linear", "dilation_rate": [1, 1], "bias_regularizer": null, "trainable": true, "kernel_initializer": {"config": {"seed": null, "mode": "fan_avg", "scale": 1.0, "distribution": "uniform"}, "class_name": "VarianceScaling"}, "data_format": "channels_last", "bias_initializer": {"config": {}, "class_name": "Zeros"}, "padding": "same", "strides": [2, 2], "activity_regularizer": null, "bias_constraint": null, "use_bias": true}, "inbound_nodes": [[["activation_19", 0, 0, {}]]], "class_name": "Conv2D"}, {"name": "batch_normalization_332", "config": {"momentum": 0.99, "moving_variance_initializer": {"config": {}, "class_name": "Ones"}, "name": "batch_normalization_332", "beta_regularizer": null, "moving_mean_initializer": {"config": {}, "class_name": "Zeros"}, "center": true, "gamma_constraint": null, "scale": true, "axis": -1, "trainable": true, "beta_initializer": {"config": {}, "class_name": "Zeros"}, "beta_constraint": null, "gamma_initializer": {"config": {}, "class_name": "Ones"}, "epsilon": 0.001, "gamma_regularizer": null}, "inbound_nodes": [[["conv2d_20", 0, 0, {}]]], "class_name": "BatchNormalization"}, {"name": "activation_20", "config": {"name": "activation_20", "activation": "relu", "trainable": true}, "inbound_nodes": [[["batch_normalization_332", 0, 0, {}]]], "class_name": "Activation"}, {"name": "conv2d_21", "config": {"kernel_regularizer": {"config": {"l1": 0.0, "l2": 9.999999747378752e-05}, "class_name": "L1L2"}, "kernel_size": [3, 3], "filters": 32, "kernel_constraint": null, "name": "conv2d_21", "activation": "linear", "dilation_rate": [1, 1], "bias_regularizer": null, "trainable": true, "kernel_initializer": {"config": {"seed": null, "mode": "fan_avg", "scale": 1.0, "distribution": "uniform"}, "class_name": "VarianceScaling"}, "data_format": "channels_last", "bias_initializer": {"config": {}, "class_name": "Zeros"}, "padding": "same", "strides": [1, 1], "activity_regularizer": null, "bias_constraint": null, "use_bias": true}, "inbound_nodes": [[["activation_20", 0, 0, {}]]], "class_name": "Conv2D"}, {"name": "conv2d_22", "config": {"kernel_regularizer": {"config": {"l1": 0.0, "l2": 9.999999747378752e-05}, "class_name": "L1L2"}, "kernel_size": [1, 1], "filters": 32, "kernel_constraint": null, "name": "conv2d_22", "activation": "linear", "dilation_rate": [1, 1], "bias_regularizer": null, "trainable": true, "kernel_initializer": {"config": {"seed": null, "mode": "fan_avg", "scale": 1.0, "distribution": "uniform"}, "class_name": "VarianceScaling"}, "data_format": "channels_last", "bias_initializer": {"config": {}, "class_name": "Zeros"}, "padding": "same", "strides": [2, 2], "activity_regularizer": null, "bias_constraint": null, "use_bias": true}, "inbound_nodes": [[["activation_19", 0, 0, {}]]], "class_name": "Conv2D"}, {"name": "batch_normalization_333", "config": {"momentum": 0.99, "moving_variance_initializer": {"config": {}, "class_name": "Ones"}, "name": "batch_normalization_333", "beta_regularizer": null, "moving_mean_initializer": {"config": {}, "class_name": "Zeros"}, "center": true, "gamma_constraint": null, "scale": true, "axis": -1, "trainable": true, "beta_initializer": {"config": {}, "class_name": "Zeros"}, "beta_constraint": null, "gamma_initializer": {"config": {}, "class_name": "Ones"}, "epsilon": 0.001, "gamma_regularizer": null}, "inbound_nodes": [[["conv2d_21", 0, 0, {}]]], "class_name": "BatchNormalization"}, {"name": "add_162", "config": {"name": "add_162", "trainable": true}, "inbound_nodes": [[["conv2d_22", 0, 0, {}], ["batch_normalization_333", 0, 0, {}]]], "class_name": "Add"}, {"name": "activation_21", "config": {"name": "activation_21", "activation": "relu", "trainable": true}, "inbound_nodes": [[["add_162", 0, 0, {}]]], "class_name": "Activation"}, {"name": "conv2d_23", "config": {"kernel_regularizer": {"config": {"l1": 0.0, "l2": 9.999999747378752e-05}, "class_name": "L1L2"}, "kernel_size": [3, 3], "filters": 18, "kernel_constraint": null, "name": "conv2d_23", "activation": "linear", "dilation_rate": [1, 1], "bias_regularizer": null, "trainable": true, "kernel_initializer": {"config": {"seed": null, "mode": "fan_avg", "scale": 1.0, "distribution": "uniform"}, "class_name": "VarianceScaling"}, "data_format": "channels_last", "bias_initializer": {"config": {}, "class_name": "Zeros"}, "padding": "same", "strides": [1, 1], "activity_regularizer": null, "bias_constraint": null, "use_bias": true}, "inbound_nodes": [[["activation_21", 0, 0, {}]]], "class_name": "Conv2D"}, {"name": "batch_normalization_334", "config": {"momentum": 0.99, "moving_variance_initializer": {"config": {}, "class_name": "Ones"}, "name": "batch_normalization_334", "beta_regularizer": null, "moving_mean_initializer": {"config": {}, "class_name": "Zeros"}, "center": true, "gamma_constraint": null, "scale": true, "axis": -1, "trainable": true, "beta_initializer": {"config": {}, "class_name": "Zeros"}, "beta_constraint": null, "gamma_initializer": {"config": {}, "class_name": "Ones"}, "epsilon": 0.001, "gamma_regularizer": null}, "inbound_nodes": [[["conv2d_23", 0, 0, {}]]], "class_name": "BatchNormalization"}, {"name": "activation_22", "config": {"name": "activation_22", "activation": "relu", "trainable": true}, "inbound_nodes": [[["batch_normalization_334", 0, 0, {}]]], "class_name": "Activation"}, {"name": "conv2d_24", "config": {"kernel_regularizer": {"config": {"l1": 0.0, "l2": 9.999999747378752e-05}, "class_name": "L1L2"}, "kernel_size": [3, 3], "filters": 32, "kernel_constraint": null, "name": "conv2d_24", "activation": "linear", "dilation_rate": [1, 1], "bias_regularizer": null, "trainable": true, "kernel_initializer": {"config": {"seed": null, "mode": "fan_avg", "scale": 1.0, "distribution": "uniform"}, "class_name": "VarianceScaling"}, "data_format": "channels_last", "bias_initializer": {"config": {}, "class_name": "Zeros"}, "padding": "same", "strides": [1, 1], "activity_regularizer": null, "bias_constraint": null, "use_bias": true}, "inbound_nodes": [[["activation_22", 0, 0, {}]]], "class_name": "Conv2D"}, {"name": "batch_normalization_335", "config": {"momentum": 0.99, "moving_variance_initializer": {"config": {}, "class_name": "Ones"}, "name": "batch_normalization_335", "beta_regularizer": null, "moving_mean_initializer": {"config": {}, "class_name": "Zeros"}, "center": true, "gamma_constraint": null, "scale": true, "axis": -1, "trainable": true, "beta_initializer": {"config": {}, "class_name": "Zeros"}, "beta_constraint": null, "gamma_initializer": {"config": {}, "class_name": "Ones"}, "epsilon": 0.001, "gamma_regularizer": null}, "inbound_nodes": [[["conv2d_24", 0, 0, {}]]], "class_name": "BatchNormalization"}, {"name": "add_163", "config": {"name": "add_163", "trainable": true}, "inbound_nodes": [[["activation_21", 0, 0, {}], ["batch_normalization_335", 0, 0, {}]]], "class_name": "Add"}, {"name": "activation_23", "config": {"name": "activation_23", "activation": "relu", "trainable": true}, "inbound_nodes": [[["add_163", 0, 0, {}]]], "class_name": "Activation"}, {"name": "conv2d_25", "config": {"kernel_regularizer": {"config": {"l1": 0.0, "l2": 9.999999747378752e-05}, "class_name": "L1L2"}, "kernel_size": [3, 3], "filters": 12, "kernel_constraint": null, "name": "conv2d_25", "activation": "linear", "dilation_rate": [1, 1], "bias_regularizer": null, "trainable": true, "kernel_initializer": {"config": {"seed": null, "mode": "fan_avg", "scale": 1.0, "distribution": "uniform"}, "class_name": "VarianceScaling"}, "data_format": "channels_last", "bias_initializer": {"config": {}, "class_name": "Zeros"}, "padding": "same", "strides": [1, 1], "activity_regularizer": null, "bias_constraint": null, "use_bias": true}, "inbound_nodes": [[["activation_23", 0, 0, {}]]], "class_name": "Conv2D"}, {"name": "batch_normalization_336", "config": {"momentum": 0.99, "moving_variance_initializer": {"config": {}, "class_name": "Ones"}, "name": "batch_normalization_336", "beta_regularizer": null, "moving_mean_initializer": {"config": {}, "class_name": "Zeros"}, "center": true, "gamma_constraint": null, "scale": true, "axis": -1, "trainable": true, "beta_initializer": {"config": {}, "class_name": "Zeros"}, "beta_constraint": null, "gamma_initializer": {"config": {}, "class_name": "Ones"}, "epsilon": 0.001, "gamma_regularizer": null}, "inbound_nodes": [[["conv2d_25", 0, 0, {}]]], "class_name": "BatchNormalization"}, {"name": "activation_24", "config": {"name": "activation_24", "activation": "relu", "trainable": true}, "inbound_nodes": [[["batch_normalization_336", 0, 0, {}]]], "class_name": "Activation"}, {"name": "conv2d_26", "config": {"kernel_regularizer": {"config": {"l1": 0.0, "l2": 9.999999747378752e-05}, "class_name": "L1L2"}, "kernel_size": [3, 3], "filters": 32, "kernel_constraint": null, "name": "conv2d_26", "activation": "linear", "dilation_rate": [1, 1], "bias_regularizer": null, "trainable": true, "kernel_initializer": {"config": {"seed": null, "mode": "fan_avg", "scale": 1.0, "distribution": "uniform"}, "class_name": "VarianceScaling"}, "data_format": "channels_last", "bias_initializer": {"config": {}, "class_name": "Zeros"}, "padding": "same", "strides": [1, 1], "activity_regularizer": null, "bias_constraint": null, "use_bias": true}, "inbound_nodes": [[["activation_24", 0, 0, {}]]], "class_name": "Conv2D"}, {"name": "batch_normalization_337", "config": {"momentum": 0.99, "moving_variance_initializer": {"config": {}, "class_name": "Ones"}, "name": "batch_normalization_337", "beta_regularizer": null, "moving_mean_initializer": {"config": {}, "class_name": "Zeros"}, "center": true, "gamma_constraint": null, "scale": true, "axis": -1, "trainable": true, "beta_initializer": {"config": {}, "class_name": "Zeros"}, "beta_constraint": null, "gamma_initializer": {"config": {}, "class_name": "Ones"}, "epsilon": 0.001, "gamma_regularizer": null}, "inbound_nodes": [[["conv2d_26", 0, 0, {}]]], "class_name": "BatchNormalization"}, {"name": "add_164", "config": {"name": "add_164", "trainable": true}, "inbound_nodes": [[["activation_23", 0, 0, {}], ["batch_normalization_337", 0, 0, {}]]], "class_name": "Add"}, {"name": "activation_25", "config": {"name": "activation_25", "activation": "relu", "trainable": true}, "inbound_nodes": [[["add_164", 0, 0, {}]]], "class_name": "Activation"}, {"name": "conv2d_27", "config": {"kernel_regularizer": {"config": {"l1": 0.0, "l2": 9.999999747378752e-05}, "class_name": "L1L2"}, "kernel_size": [3, 3], "filters": 10, "kernel_constraint": null, "name": "conv2d_27", "activation": "linear", "dilation_rate": [1, 1], "bias_regularizer": null, "trainable": true, "kernel_initializer": {"config": {"seed": null, "mode": "fan_avg", "scale": 1.0, "distribution": "uniform"}, "class_name": "VarianceScaling"}, "data_format": "channels_last", "bias_initializer": {"config": {}, "class_name": "Zeros"}, "padding": "same", "strides": [1, 1], "activity_regularizer": null, "bias_constraint": null, "use_bias": true}, "inbound_nodes": [[["activation_25", 0, 0, {}]]], "class_name": "Conv2D"}, {"name": "batch_normalization_338", "config": {"momentum": 0.99, "moving_variance_initializer": {"config": {}, "class_name": "Ones"}, "name": "batch_normalization_338", "beta_regularizer": null, "moving_mean_initializer": {"config": {}, "class_name": "Zeros"}, "center": true, "gamma_constraint": null, "scale": true, "axis": -1, "trainable": true, "beta_initializer": {"config": {}, "class_name": "Zeros"}, "beta_constraint": null, "gamma_initializer": {"config": {}, "class_name": "Ones"}, "epsilon": 0.001, "gamma_regularizer": null}, "inbound_nodes": [[["conv2d_27", 0, 0, {}]]], "class_name": "BatchNormalization"}, {"name": "activation_26", "config": {"name": "activation_26", "activation": "relu", "trainable": true}, "inbound_nodes": [[["batch_normalization_338", 0, 0, {}]]], "class_name": "Activation"}, {"name": "conv2d_28", "config": {"kernel_regularizer": {"config": {"l1": 0.0, "l2": 9.999999747378752e-05}, "class_name": "L1L2"}, "kernel_size": [3, 3], "filters": 32, "kernel_constraint": null, "name": "conv2d_28", "activation": "linear", "dilation_rate": [1, 1], "bias_regularizer": null, "trainable": true, "kernel_initializer": {"config": {"seed": null, "mode": "fan_avg", "scale": 1.0, "distribution": "uniform"}, "class_name": "VarianceScaling"}, "data_format": "channels_last", "bias_initializer": {"config": {}, "class_name": "Zeros"}, "padding": "same", "strides": [1, 1], "activity_regularizer": null, "bias_constraint": null, "use_bias": true}, "inbound_nodes": [[["activation_26", 0, 0, {}]]], "class_name": "Conv2D"}, {"name": "batch_normalization_339", "config": {"momentum": 0.99, "moving_variance_initializer": {"config": {}, "class_name": "Ones"}, "name": "batch_normalization_339", "beta_regularizer": null, "moving_mean_initializer": {"config": {}, "class_name": "Zeros"}, "center": true, "gamma_constraint": null, "scale": true, "axis": -1, "trainable": true, "beta_initializer": {"config": {}, "class_name": "Zeros"}, "beta_constraint": null, "gamma_initializer": {"config": {}, "class_name": "Ones"}, "epsilon": 0.001, "gamma_regularizer": null}, "inbound_nodes": [[["conv2d_28", 0, 0, {}]]], "class_name": "BatchNormalization"}, {"name": "add_165", "config": {"name": "add_165", "trainable": true}, "inbound_nodes": [[["activation_25", 0, 0, {}], ["batch_normalization_339", 0, 0, {}]]], "class_name": "Add"}, {"name": "activation_27", "config": {"name": "activation_27", "activation": "relu", "trainable": true}, "inbound_nodes": [[["add_165", 0, 0, {}]]], "class_name": "Activation"}, {"name": "conv2d_29", "config": {"kernel_regularizer": {"config": {"l1": 0.0, "l2": 9.999999747378752e-05}, "class_name": "L1L2"}, "kernel_size": [3, 3], "filters": 7, "kernel_constraint": null, "name": "conv2d_29", "activation": "linear", "dilation_rate": [1, 1], "bias_regularizer": null, "trainable": true, "kernel_initializer": {"config": {"seed": null, "mode": "fan_avg", "scale": 1.0, "distribution": "uniform"}, "class_name": "VarianceScaling"}, "data_format": "channels_last", "bias_initializer": {"config": {}, "class_name": "Zeros"}, "padding": "same", "strides": [1, 1], "activity_regularizer": null, "bias_constraint": null, "use_bias": true}, "inbound_nodes": [[["activation_27", 0, 0, {}]]], "class_name": "Conv2D"}, {"name": "batch_normalization_340", "config": {"momentum": 0.99, "moving_variance_initializer": {"config": {}, "class_name": "Ones"}, "name": "batch_normalization_340", "beta_regularizer": null, "moving_mean_initializer": {"config": {}, "class_name": "Zeros"}, "center": true, "gamma_constraint": null, "scale": true, "axis": -1, "trainable": true, "beta_initializer": {"config": {}, "class_name": "Zeros"}, "beta_constraint": null, "gamma_initializer": {"config": {}, "class_name": "Ones"}, "epsilon": 0.001, "gamma_regularizer": null}, "inbound_nodes": [[["conv2d_29", 0, 0, {}]]], "class_name": "BatchNormalization"}, {"name": "activation_28", "config": {"name": "activation_28", "activation": "relu", "trainable": true}, "inbound_nodes": [[["batch_normalization_340", 0, 0, {}]]], "class_name": "Activation"}, {"name": "conv2d_30", "config": {"kernel_regularizer": {"config": {"l1": 0.0, "l2": 9.999999747378752e-05}, "class_name": "L1L2"}, "kernel_size": [3, 3], "filters": 32, "kernel_constraint": null, "name": "conv2d_30", "activation": "linear", "dilation_rate": [1, 1], "bias_regularizer": null, "trainable": true, "kernel_initializer": {"config": {"seed": null, "mode": "fan_avg", "scale": 1.0, "distribution": "uniform"}, "class_name": "VarianceScaling"}, "data_format": "channels_last", "bias_initializer": {"config": {}, "class_name": "Zeros"}, "padding": "same", "strides": [1, 1], "activity_regularizer": null, "bias_constraint": null, "use_bias": true}, "inbound_nodes": [[["activation_28", 0, 0, {}]]], "class_name": "Conv2D"}, {"name": "batch_normalization_341", "config": {"momentum": 0.99, "moving_variance_initializer": {"config": {}, "class_name": "Ones"}, "name": "batch_normalization_341", "beta_regularizer": null, "moving_mean_initializer": {"config": {}, "class_name": "Zeros"}, "center": true, "gamma_constraint": null, "scale": true, "axis": -1, "trainable": true, "beta_initializer": {"config": {}, "class_name": "Zeros"}, "beta_constraint": null, "gamma_initializer": {"config": {}, "class_name": "Ones"}, "epsilon": 0.001, "gamma_regularizer": null}, "inbound_nodes": [[["conv2d_30", 0, 0, {}]]], "class_name": "BatchNormalization"}, {"name": "add_166", "config": {"name": "add_166", "trainable": true}, "inbound_nodes": [[["activation_27", 0, 0, {}], ["batch_normalization_341", 0, 0, {}]]], "class_name": "Add"}, {"name": "activation_29", "config": {"name": "activation_29", "activation": "relu", "trainable": true}, "inbound_nodes": [[["add_166", 0, 0, {}]]], "class_name": "Activation"}, {"name": "conv2d_31", "config": {"kernel_regularizer": {"config": {"l1": 0.0, "l2": 9.999999747378752e-05}, "class_name": "L1L2"}, "kernel_size": [3, 3], "filters": 11, "kernel_constraint": null, "name": "conv2d_31", "activation": "linear", "dilation_rate": [1, 1], "bias_regularizer": null, "trainable": true, "kernel_initializer": {"config": {"seed": null, "mode": "fan_avg", "scale": 1.0, "distribution": "uniform"}, "class_name": "VarianceScaling"}, "data_format": "channels_last", "bias_initializer": {"config": {}, "class_name": "Zeros"}, "padding": "same", "strides": [1, 1], "activity_regularizer": null, "bias_constraint": null, "use_bias": true}, "inbound_nodes": [[["activation_29", 0, 0, {}]]], "class_name": "Conv2D"}, {"name": "batch_normalization_342", "config": {"momentum": 0.99, "moving_variance_initializer": {"config": {}, "class_name": "Ones"}, "name": "batch_normalization_342", "beta_regularizer": null, "moving_mean_initializer": {"config": {}, "class_name": "Zeros"}, "center": true, "gamma_constraint": null, "scale": true, "axis": -1, "trainable": true, "beta_initializer": {"config": {}, "class_name": "Zeros"}, "beta_constraint": null, "gamma_initializer": {"config": {}, "class_name": "Ones"}, "epsilon": 0.001, "gamma_regularizer": null}, "inbound_nodes": [[["conv2d_31", 0, 0, {}]]], "class_name": "BatchNormalization"}, {"name": "activation_30", "config": {"name": "activation_30", "activation": "relu", "trainable": true}, "inbound_nodes": [[["batch_normalization_342", 0, 0, {}]]], "class_name": "Activation"}, {"name": "conv2d_32", "config": {"kernel_regularizer": {"config": {"l1": 0.0, "l2": 9.999999747378752e-05}, "class_name": "L1L2"}, "kernel_size": [3, 3], "filters": 32, "kernel_constraint": null, "name": "conv2d_32", "activation": "linear", "dilation_rate": [1, 1], "bias_regularizer": null, "trainable": true, "kernel_initializer": {"config": {"seed": null, "mode": "fan_avg", "scale": 1.0, "distribution": "uniform"}, "class_name": "VarianceScaling"}, "data_format": "channels_last", "bias_initializer": {"config": {}, "class_name": "Zeros"}, "padding": "same", "strides": [1, 1], "activity_regularizer": null, "bias_constraint": null, "use_bias": true}, "inbound_nodes": [[["activation_30", 0, 0, {}]]], "class_name": "Conv2D"}, {"name": "batch_normalization_343", "config": {"momentum": 0.99, "moving_variance_initializer": {"config": {}, "class_name": "Ones"}, "name": "batch_normalization_343", "beta_regularizer": null, "moving_mean_initializer": {"config": {}, "class_name": "Zeros"}, "center": true, "gamma_constraint": null, "scale": true, "axis": -1, "trainable": true, "beta_initializer": {"config": {}, "class_name": "Zeros"}, "beta_constraint": null, "gamma_initializer": {"config": {}, "class_name": "Ones"}, "epsilon": 0.001, "gamma_regularizer": null}, "inbound_nodes": [[["conv2d_32", 0, 0, {}]]], "class_name": "BatchNormalization"}, {"name": "add_167", "config": {"name": "add_167", "trainable": true}, "inbound_nodes": [[["activation_29", 0, 0, {}], ["batch_normalization_343", 0, 0, {}]]], "class_name": "Add"}, {"name": "activation_31", "config": {"name": "activation_31", "activation": "relu", "trainable": true}, "inbound_nodes": [[["add_167", 0, 0, {}]]], "class_name": "Activation"}, {"name": "conv2d_33", "config": {"kernel_regularizer": {"config": {"l1": 0.0, "l2": 9.999999747378752e-05}, "class_name": "L1L2"}, "kernel_size": [3, 3], "filters": 9, "kernel_constraint": null, "name": "conv2d_33", "activation": "linear", "dilation_rate": [1, 1], "bias_regularizer": null, "trainable": true, "kernel_initializer": {"config": {"seed": null, "mode": "fan_avg", "scale": 1.0, "distribution": "uniform"}, "class_name": "VarianceScaling"}, "data_format": "channels_last", "bias_initializer": {"config": {}, "class_name": "Zeros"}, "padding": "same", "strides": [1, 1], "activity_regularizer": null, "bias_constraint": null, "use_bias": true}, "inbound_nodes": [[["activation_31", 0, 0, {}]]], "class_name": "Conv2D"}, {"name": "batch_normalization_344", "config": {"momentum": 0.99, "moving_variance_initializer": {"config": {}, "class_name": "Ones"}, "name": "batch_normalization_344", "beta_regularizer": null, "moving_mean_initializer": {"config": {}, "class_name": "Zeros"}, "center": true, "gamma_constraint": null, "scale": true, "axis": -1, "trainable": true, "beta_initializer": {"config": {}, "class_name": "Zeros"}, "beta_constraint": null, "gamma_initializer": {"config": {}, "class_name": "Ones"}, "epsilon": 0.001, "gamma_regularizer": null}, "inbound_nodes": [[["conv2d_33", 0, 0, {}]]], "class_name": "BatchNormalization"}, {"name": "activation_32", "config": {"name": "activation_32", "activation": "relu", "trainable": true}, "inbound_nodes": [[["batch_normalization_344", 0, 0, {}]]], "class_name": "Activation"}, {"name": "conv2d_34", "config": {"kernel_regularizer": {"config": {"l1": 0.0, "l2": 9.999999747378752e-05}, "class_name": "L1L2"}, "kernel_size": [3, 3], "filters": 32, "kernel_constraint": null, "name": "conv2d_34", "activation": "linear", "dilation_rate": [1, 1], "bias_regularizer": null, "trainable": true, "kernel_initializer": {"config": {"seed": null, "mode": "fan_avg", "scale": 1.0, "distribution": "uniform"}, "class_name": "VarianceScaling"}, "data_format": "channels_last", "bias_initializer": {"config": {}, "class_name": "Zeros"}, "padding": "same", "strides": [1, 1], "activity_regularizer": null, "bias_constraint": null, "use_bias": true}, "inbound_nodes": [[["activation_32", 0, 0, {}]]], "class_name": "Conv2D"}, {"name": "batch_normalization_345", "config": {"momentum": 0.99, "moving_variance_initializer": {"config": {}, "class_name": "Ones"}, "name": "batch_normalization_345", "beta_regularizer": null, "moving_mean_initializer": {"config": {}, "class_name": "Zeros"}, "center": true, "gamma_constraint": null, "scale": true, "axis": -1, "trainable": true, "beta_initializer": {"config": {}, "class_name": "Zeros"}, "beta_constraint": null, "gamma_initializer": {"config": {}, "class_name": "Ones"}, "epsilon": 0.001, "gamma_regularizer": null}, "inbound_nodes": [[["conv2d_34", 0, 0, {}]]], "class_name": "BatchNormalization"}, {"name": "add_168", "config": {"name": "add_168", "trainable": true}, "inbound_nodes": [[["activation_31", 0, 0, {}], ["batch_normalization_345", 0, 0, {}]]], "class_name": "Add"}, {"name": "activation_33", "config": {"name": "activation_33", "activation": "relu", "trainable": true}, "inbound_nodes": [[["add_168", 0, 0, {}]]], "class_name": "Activation"}, {"name": "conv2d_35", "config": {"kernel_regularizer": {"config": {"l1": 0.0, "l2": 9.999999747378752e-05}, "class_name": "L1L2"}, "kernel_size": [3, 3], "filters": 14, "kernel_constraint": null, "name": "conv2d_35", "activation": "linear", "dilation_rate": [1, 1], "bias_regularizer": null, "trainable": true, "kernel_initializer": {"config": {"seed": null, "mode": "fan_avg", "scale": 1.0, "distribution": "uniform"}, "class_name": "VarianceScaling"}, "data_format": "channels_last", "bias_initializer": {"config": {}, "class_name": "Zeros"}, "padding": "same", "strides": [1, 1], "activity_regularizer": null, "bias_constraint": null, "use_bias": true}, "inbound_nodes": [[["activation_33", 0, 0, {}]]], "class_name": "Conv2D"}, {"name": "batch_normalization_346", "config": {"momentum": 0.99, "moving_variance_initializer": {"config": {}, "class_name": "Ones"}, "name": "batch_normalization_346", "beta_regularizer": null, "moving_mean_initializer": {"config": {}, "class_name": "Zeros"}, "center": true, "gamma_constraint": null, "scale": true, "axis": -1, "trainable": true, "beta_initializer": {"config": {}, "class_name": "Zeros"}, "beta_constraint": null, "gamma_initializer": {"config": {}, "class_name": "Ones"}, "epsilon": 0.001, "gamma_regularizer": null}, "inbound_nodes": [[["conv2d_35", 0, 0, {}]]], "class_name": "BatchNormalization"}, {"name": "activation_34", "config": {"name": "activation_34", "activation": "relu", "trainable": true}, "inbound_nodes": [[["batch_normalization_346", 0, 0, {}]]], "class_name": "Activation"}, {"name": "conv2d_36", "config": {"kernel_regularizer": {"config": {"l1": 0.0, "l2": 9.999999747378752e-05}, "class_name": "L1L2"}, "kernel_size": [3, 3], "filters": 32, "kernel_constraint": null, "name": "conv2d_36", "activation": "linear", "dilation_rate": [1, 1], "bias_regularizer": null, "trainable": true, "kernel_initializer": {"config": {"seed": null, "mode": "fan_avg", "scale": 1.0, "distribution": "uniform"}, "class_name": "VarianceScaling"}, "data_format": "channels_last", "bias_initializer": {"config": {}, "class_name": "Zeros"}, "padding": "same", "strides": [1, 1], "activity_regularizer": null, "bias_constraint": null, "use_bias": true}, "inbound_nodes": [[["activation_34", 0, 0, {}]]], "class_name": "Conv2D"}, {"name": "batch_normalization_347", "config": {"momentum": 0.99, "moving_variance_initializer": {"config": {}, "class_name": "Ones"}, "name": "batch_normalization_347", "beta_regularizer": null, "moving_mean_initializer": {"config": {}, "class_name": "Zeros"}, "center": true, "gamma_constraint": null, "scale": true, "axis": -1, "trainable": true, "beta_initializer": {"config": {}, "class_name": "Zeros"}, "beta_constraint": null, "gamma_initializer": {"config": {}, "class_name": "Ones"}, "epsilon": 0.001, "gamma_regularizer": null}, "inbound_nodes": [[["conv2d_36", 0, 0, {}]]], "class_name": "BatchNormalization"}, {"name": "add_169", "config": {"name": "add_169", "trainable": true}, "inbound_nodes": [[["activation_33", 0, 0, {}], ["batch_normalization_347", 0, 0, {}]]], "class_name": "Add"}, {"name": "activation_35", "config": {"name": "activation_35", "activation": "relu", "trainable": true}, "inbound_nodes": [[["add_169", 0, 0, {}]]], "class_name": "Activation"}, {"name": "conv2d_37", "config": {"kernel_regularizer": {"config": {"l1": 0.0, "l2": 9.999999747378752e-05}, "class_name": "L1L2"}, "kernel_size": [3, 3], "filters": 13, "kernel_constraint": null, "name": "conv2d_37", "activation": "linear", "dilation_rate": [1, 1], "bias_regularizer": null, "trainable": true, "kernel_initializer": {"config": {"seed": null, "mode": "fan_avg", "scale": 1.0, "distribution": "uniform"}, "class_name": "VarianceScaling"}, "data_format": "channels_last", "bias_initializer": {"config": {}, "class_name": "Zeros"}, "padding": "same", "strides": [1, 1], "activity_regularizer": null, "bias_constraint": null, "use_bias": true}, "inbound_nodes": [[["activation_35", 0, 0, {}]]], "class_name": "Conv2D"}, {"name": "batch_normalization_348", "config": {"momentum": 0.99, "moving_variance_initializer": {"config": {}, "class_name": "Ones"}, "name": "batch_normalization_348", "beta_regularizer": null, "moving_mean_initializer": {"config": {}, "class_name": "Zeros"}, "center": true, "gamma_constraint": null, "scale": true, "axis": -1, "trainable": true, "beta_initializer": {"config": {}, "class_name": "Zeros"}, "beta_constraint": null, "gamma_initializer": {"config": {}, "class_name": "Ones"}, "epsilon": 0.001, "gamma_regularizer": null}, "inbound_nodes": [[["conv2d_37", 0, 0, {}]]], "class_name": "BatchNormalization"}, {"name": "activation_36", "config": {"name": "activation_36", "activation": "relu", "trainable": true}, "inbound_nodes": [[["batch_normalization_348", 0, 0, {}]]], "class_name": "Activation"}, {"name": "conv2d_38", "config": {"kernel_regularizer": {"config": {"l1": 0.0, "l2": 9.999999747378752e-05}, "class_name": "L1L2"}, "kernel_size": [3, 3], "filters": 32, "kernel_constraint": null, "name": "conv2d_38", "activation": "linear", "dilation_rate": [1, 1], "bias_regularizer": null, "trainable": true, "kernel_initializer": {"config": {"seed": null, "mode": "fan_avg", "scale": 1.0, "distribution": "uniform"}, "class_name": "VarianceScaling"}, "data_format": "channels_last", "bias_initializer": {"config": {}, "class_name": "Zeros"}, "padding": "same", "strides": [1, 1], "activity_regularizer": null, "bias_constraint": null, "use_bias": true}, "inbound_nodes": [[["activation_36", 0, 0, {}]]], "class_name": "Conv2D"}, {"name": "batch_normalization_349", "config": {"momentum": 0.99, "moving_variance_initializer": {"config": {}, "class_name": "Ones"}, "name": "batch_normalization_349", "beta_regularizer": null, "moving_mean_initializer": {"config": {}, "class_name": "Zeros"}, "center": true, "gamma_constraint": null, "scale": true, "axis": -1, "trainable": true, "beta_initializer": {"config": {}, "class_name": "Zeros"}, "beta_constraint": null, "gamma_initializer": {"config": {}, "class_name": "Ones"}, "epsilon": 0.001, "gamma_regularizer": null}, "inbound_nodes": [[["conv2d_38", 0, 0, {}]]], "class_name": "BatchNormalization"}, {"name": "add_170", "config": {"name": "add_170", "trainable": true}, "inbound_nodes": [[["activation_35", 0, 0, {}], ["batch_normalization_349", 0, 0, {}]]], "class_name": "Add"}, {"name": "activation_37", "config": {"name": "activation_37", "activation": "relu", "trainable": true}, "inbound_nodes": [[["add_170", 0, 0, {}]]], "class_name": "Activation"}, {"name": "conv2d_39", "config": {"kernel_regularizer": {"config": {"l1": 0.0, "l2": 9.999999747378752e-05}, "class_name": "L1L2"}, "kernel_size": [3, 3], "filters": 26, "kernel_constraint": null, "name": "conv2d_39", "activation": "linear", "dilation_rate": [1, 1], "bias_regularizer": null, "trainable": true, "kernel_initializer": {"config": {"seed": null, "mode": "fan_avg", "scale": 1.0, "distribution": "uniform"}, "class_name": "VarianceScaling"}, "data_format": "channels_last", "bias_initializer": {"config": {}, "class_name": "Zeros"}, "padding": "same", "strides": [2, 2], "activity_regularizer": null, "bias_constraint": null, "use_bias": true}, "inbound_nodes": [[["activation_37", 0, 0, {}]]], "class_name": "Conv2D"}, {"name": "batch_normalization_350", "config": {"momentum": 0.99, "moving_variance_initializer": {"config": {}, "class_name": "Ones"}, "name": "batch_normalization_350", "beta_regularizer": null, "moving_mean_initializer": {"config": {}, "class_name": "Zeros"}, "center": true, "gamma_constraint": null, "scale": true, "axis": -1, "trainable": true, "beta_initializer": {"config": {}, "class_name": "Zeros"}, "beta_constraint": null, "gamma_initializer": {"config": {}, "class_name": "Ones"}, "epsilon": 0.001, "gamma_regularizer": null}, "inbound_nodes": [[["conv2d_39", 0, 0, {}]]], "class_name": "BatchNormalization"}, {"name": "activation_38", "config": {"name": "activation_38", "activation": "relu", "trainable": true}, "inbound_nodes": [[["batch_normalization_350", 0, 0, {}]]], "class_name": "Activation"}, {"name": "conv2d_40", "config": {"kernel_regularizer": {"config": {"l1": 0.0, "l2": 9.999999747378752e-05}, "class_name": "L1L2"}, "kernel_size": [3, 3], "filters": 64, "kernel_constraint": null, "name": "conv2d_40", "activation": "linear", "dilation_rate": [1, 1], "bias_regularizer": null, "trainable": true, "kernel_initializer": {"config": {"seed": null, "mode": "fan_avg", "scale": 1.0, "distribution": "uniform"}, "class_name": "VarianceScaling"}, "data_format": "channels_last", "bias_initializer": {"config": {}, "class_name": "Zeros"}, "padding": "same", "strides": [1, 1], "activity_regularizer": null, "bias_constraint": null, "use_bias": true}, "inbound_nodes": [[["activation_38", 0, 0, {}]]], "class_name": "Conv2D"}, {"name": "conv2d_41", "config": {"kernel_regularizer": {"config": {"l1": 0.0, "l2": 9.999999747378752e-05}, "class_name": "L1L2"}, "kernel_size": [1, 1], "filters": 64, "kernel_constraint": null, "name": "conv2d_41", "activation": "linear", "dilation_rate": [1, 1], "bias_regularizer": null, "trainable": true, "kernel_initializer": {"config": {"seed": null, "mode": "fan_avg", "scale": 1.0, "distribution": "uniform"}, "class_name": "VarianceScaling"}, "data_format": "channels_last", "bias_initializer": {"config": {}, "class_name": "Zeros"}, "padding": "same", "strides": [2, 2], "activity_regularizer": null, "bias_constraint": null, "use_bias": true}, "inbound_nodes": [[["activation_37", 0, 0, {}]]], "class_name": "Conv2D"}, {"name": "batch_normalization_351", "config": {"momentum": 0.99, "moving_variance_initializer": {"config": {}, "class_name": "Ones"}, "name": "batch_normalization_351", "beta_regularizer": null, "moving_mean_initializer": {"config": {}, "class_name": "Zeros"}, "center": true, "gamma_constraint": null, "scale": true, "axis": -1, "trainable": true, "beta_initializer": {"config": {}, "class_name": "Zeros"}, "beta_constraint": null, "gamma_initializer": {"config": {}, "class_name": "Ones"}, "epsilon": 0.001, "gamma_regularizer": null}, "inbound_nodes": [[["conv2d_40", 0, 0, {}]]], "class_name": "BatchNormalization"}, {"name": "add_171", "config": {"name": "add_171", "trainable": true}, "inbound_nodes": [[["conv2d_41", 0, 0, {}], ["batch_normalization_351", 0, 0, {}]]], "class_name": "Add"}, {"name": "LastAct", "config": {"name": "LastAct", "activation": "relu", "trainable": true}, "inbound_nodes": [[["add_171", 0, 0, {}]]], "class_name": "Activation"}, {"name": "average_pooling2d_9", "config": {"data_format": "channels_last", "strides": [8, 8], "name": "average_pooling2d_9", "trainable": true, "padding": "valid", "pool_size": [8, 8]}, "inbound_nodes": [[["LastAct", 0, 0, {}]]], "class_name": "AveragePooling2D"}, {"name": "flatten_9", "config": {"name": "flatten_9", "trainable": true}, "inbound_nodes": [[["average_pooling2d_9", 0, 0, {}]]], "class_name": "Flatten"}, {"name": "dense_9", "config": {"kernel_regularizer": null, "bias_regularizer": null, "bias_constraint": null, "name": "dense_9", "activation": "softmax", "trainable": true, "kernel_initializer": {"config": {"seed": null, "mode": "fan_in", "scale": 2.0, "distribution": "normal"}, "class_name": "VarianceScaling"}, "kernel_constraint": null, "bias_initializer": {"config": {}, "class_name": "Zeros"}, "use_bias": true, "activity_regularizer": null, "units": 10}, "inbound_nodes": [[["flatten_9", 0, 0, {}]]], "class_name": "Dense"}], "output_layers": [["dense_9", 0, 0]], "input_layers": [["input_18", 0, 0]]}, "keras_version": "2.1.2", "class_name": "Model"}