{"backend": "tensorflow", "config": {"name": "model_172", "layers": [{"name": "input_8", "config": {"name": "input_8", "dtype": "float32", "batch_input_shape": [null, 32, 32, 3], "sparse": false}, "inbound_nodes": [], "class_name": "InputLayer"}, {"name": "conv2d_1", "config": {"kernel_regularizer": {"config": {"l1": 0.0, "l2": 9.999999747378752e-05}, "class_name": "L1L2"}, "kernel_size": [3, 3], "filters": 16, "kernel_constraint": null, "name": "conv2d_1", "activation": "linear", "dilation_rate": [1, 1], "bias_regularizer": null, "trainable": true, "kernel_initializer": {"config": {"seed": null, "mode": "fan_avg", "scale": 1.0, "distribution": "uniform"}, "class_name": "VarianceScaling"}, "data_format": "channels_last", "bias_initializer": {"config": {}, "class_name": "Zeros"}, "padding": "same", "strides": [1, 1], "activity_regularizer": null, "bias_constraint": null, "use_bias": true}, "inbound_nodes": [[["input_8", 0, 0, {}]]], "class_name": "Conv2D"}, {"name": "batch_normalization_118", "config": {"momentum": 0.99, "moving_variance_initializer": {"config": {}, "class_name": "Ones"}, "name": "batch_normalization_118", "beta_regularizer": null, "moving_mean_initializer": {"config": {}, "class_name": "Zeros"}, "center": true, "gamma_constraint": null, "scale": true, "axis": -1, "trainable": true, "beta_initializer": {"config": {}, "class_name": "Zeros"}, "beta_constraint": null, "gamma_initializer": {"config": {}, "class_name": "Ones"}, "epsilon": 0.001, "gamma_regularizer": null}, "inbound_nodes": [[["conv2d_1", 0, 0, {}]]], "class_name": "BatchNormalization"}, {"name": "activation_1", "config": {"name": "activation_1", "activation": "relu", "trainable": true}, "inbound_nodes": [[["batch_normalization_118", 0, 0, {}]]], "class_name": "Activation"}, {"name": "conv2d_2", "config": {"kernel_regularizer": {"config": {"l1": 0.0, "l2": 9.999999747378752e-05}, "class_name": "L1L2"}, "kernel_size": [3, 3], "filters": 14, "kernel_constraint": null, "name": "conv2d_2", "activation": "linear", "dilation_rate": [1, 1], "bias_regularizer": null, "trainable": true, "kernel_initializer": {"config": {"seed": null, "mode": "fan_avg", "scale": 1.0, "distribution": "uniform"}, "class_name": "VarianceScaling"}, "data_format": "channels_last", "bias_initializer": {"config": {}, "class_name": "Zeros"}, "padding": "same", "strides": [1, 1], "activity_regularizer": null, "bias_constraint": null, "use_bias": true}, "inbound_nodes": [[["activation_1", 0, 0, {}]]], "class_name": "Conv2D"}, {"name": "batch_normalization_119", "config": {"momentum": 0.99, "moving_variance_initializer": {"config": {}, "class_name": "Ones"}, "name": "batch_normalization_119", "beta_regularizer": null, "moving_mean_initializer": {"config": {}, "class_name": "Zeros"}, "center": true, "gamma_constraint": null, "scale": true, "axis": -1, "trainable": true, "beta_initializer": {"config": {}, "class_name": "Zeros"}, "beta_constraint": null, "gamma_initializer": {"config": {}, "class_name": "Ones"}, "epsilon": 0.001, "gamma_regularizer": null}, "inbound_nodes": [[["conv2d_2", 0, 0, {}]]], "class_name": "BatchNormalization"}, {"name": "activation_2", "config": {"name": "activation_2", "activation": "relu", "trainable": true}, "inbound_nodes": [[["batch_normalization_119", 0, 0, {}]]], "class_name": "Activation"}, {"name": "conv2d_3", "config": {"kernel_regularizer": {"config": {"l1": 0.0, "l2": 9.999999747378752e-05}, "class_name": "L1L2"}, "kernel_size": [3, 3], "filters": 16, "kernel_constraint": null, "name": "conv2d_3", "activation": "linear", "dilation_rate": [1, 1], "bias_regularizer": null, "trainable": true, "kernel_initializer": {"config": {"seed": null, "mode": "fan_avg", "scale": 1.0, "distribution": "uniform"}, "class_name": "VarianceScaling"}, "data_format": "channels_last", "bias_initializer": {"config": {}, "class_name": "Zeros"}, "padding": "same", "strides": [1, 1], "activity_regularizer": null, "bias_constraint": null, "use_bias": true}, "inbound_nodes": [[["activation_2", 0, 0, {}]]], "class_name": "Conv2D"}, {"name": "batch_normalization_120", "config": {"momentum": 0.99, "moving_variance_initializer": {"config": {}, "class_name": "Ones"}, "name": "batch_normalization_120", "beta_regularizer": null, "moving_mean_initializer": {"config": {}, "class_name": "Zeros"}, "center": true, "gamma_constraint": null, "scale": true, "axis": -1, "trainable": true, "beta_initializer": {"config": {}, "class_name": "Zeros"}, "beta_constraint": null, "gamma_initializer": {"config": {}, "class_name": "Ones"}, "epsilon": 0.001, "gamma_regularizer": null}, "inbound_nodes": [[["conv2d_3", 0, 0, {}]]], "class_name": "BatchNormalization"}, {"name": "add_58", "config": {"name": "add_58", "trainable": true}, "inbound_nodes": [[["activation_1", 0, 0, {}], ["batch_normalization_120", 0, 0, {}]]], "class_name": "Add"}, {"name": "activation_3", "config": {"name": "activation_3", "activation": "relu", "trainable": true}, "inbound_nodes": [[["add_58", 0, 0, {}]]], "class_name": "Activation"}, {"name": "conv2d_4", "config": {"kernel_regularizer": {"config": {"l1": 0.0, "l2": 9.999999747378752e-05}, "class_name": "L1L2"}, "kernel_size": [3, 3], "filters": 10, "kernel_constraint": null, "name": "conv2d_4", "activation": "linear", "dilation_rate": [1, 1], "bias_regularizer": null, "trainable": true, "kernel_initializer": {"config": {"seed": null, "mode": "fan_avg", "scale": 1.0, "distribution": "uniform"}, "class_name": "VarianceScaling"}, "data_format": "channels_last", "bias_initializer": {"config": {}, "class_name": "Zeros"}, "padding": "same", "strides": [1, 1], "activity_regularizer": null, "bias_constraint": null, "use_bias": true}, "inbound_nodes": [[["activation_3", 0, 0, {}]]], "class_name": "Conv2D"}, {"name": "batch_normalization_121", "config": {"momentum": 0.99, "moving_variance_initializer": {"config": {}, "class_name": "Ones"}, "name": "batch_normalization_121", "beta_regularizer": null, "moving_mean_initializer": {"config": {}, "class_name": "Zeros"}, "center": true, "gamma_constraint": null, "scale": true, "axis": -1, "trainable": true, "beta_initializer": {"config": {}, "class_name": "Zeros"}, "beta_constraint": null, "gamma_initializer": {"config": {}, "class_name": "Ones"}, "epsilon": 0.001, "gamma_regularizer": null}, "inbound_nodes": [[["conv2d_4", 0, 0, {}]]], "class_name": "BatchNormalization"}, {"name": "activation_4", "config": {"name": "activation_4", "activation": "relu", "trainable": true}, "inbound_nodes": [[["batch_normalization_121", 0, 0, {}]]], "class_name": "Activation"}, {"name": "conv2d_5", "config": {"kernel_regularizer": {"config": {"l1": 0.0, "l2": 9.999999747378752e-05}, "class_name": "L1L2"}, "kernel_size": [3, 3], "filters": 16, "kernel_constraint": null, "name": "conv2d_5", "activation": "linear", "dilation_rate": [1, 1], "bias_regularizer": null, "trainable": true, "kernel_initializer": {"config": {"seed": null, "mode": "fan_avg", "scale": 1.0, "distribution": "uniform"}, "class_name": "VarianceScaling"}, "data_format": "channels_last", "bias_initializer": {"config": {}, "class_name": "Zeros"}, "padding": "same", "strides": [1, 1], "activity_regularizer": null, "bias_constraint": null, "use_bias": true}, "inbound_nodes": [[["activation_4", 0, 0, {}]]], "class_name": "Conv2D"}, {"name": "batch_normalization_122", "config": {"momentum": 0.99, "moving_variance_initializer": {"config": {}, "class_name": "Ones"}, "name": "batch_normalization_122", "beta_regularizer": null, "moving_mean_initializer": {"config": {}, "class_name": "Zeros"}, "center": true, "gamma_constraint": null, "scale": true, "axis": -1, "trainable": true, "beta_initializer": {"config": {}, "class_name": "Zeros"}, "beta_constraint": null, "gamma_initializer": {"config": {}, "class_name": "Ones"}, "epsilon": 0.001, "gamma_regularizer": null}, "inbound_nodes": [[["conv2d_5", 0, 0, {}]]], "class_name": "BatchNormalization"}, {"name": "add_59", "config": {"name": "add_59", "trainable": true}, "inbound_nodes": [[["activation_3", 0, 0, {}], ["batch_normalization_122", 0, 0, {}]]], "class_name": "Add"}, {"name": "activation_5", "config": {"name": "activation_5", "activation": "relu", "trainable": true}, "inbound_nodes": [[["add_59", 0, 0, {}]]], "class_name": "Activation"}, {"name": "conv2d_6", "config": {"kernel_regularizer": {"config": {"l1": 0.0, "l2": 9.999999747378752e-05}, "class_name": "L1L2"}, "kernel_size": [3, 3], "filters": 12, "kernel_constraint": null, "name": "conv2d_6", "activation": "linear", "dilation_rate": [1, 1], "bias_regularizer": null, "trainable": true, "kernel_initializer": {"config": {"seed": null, "mode": "fan_avg", "scale": 1.0, "distribution": "uniform"}, "class_name": "VarianceScaling"}, "data_format": "channels_last", "bias_initializer": {"config": {}, "class_name": "Zeros"}, "padding": "same", "strides": [1, 1], "activity_regularizer": null, "bias_constraint": null, "use_bias": true}, "inbound_nodes": [[["activation_5", 0, 0, {}]]], "class_name": "Conv2D"}, {"name": "batch_normalization_123", "config": {"momentum": 0.99, "moving_variance_initializer": {"config": {}, "class_name": "Ones"}, "name": "batch_normalization_123", "beta_regularizer": null, "moving_mean_initializer": {"config": {}, "class_name": "Zeros"}, "center": true, "gamma_constraint": null, "scale": true, "axis": -1, "trainable": true, "beta_initializer": {"config": {}, "class_name": "Zeros"}, "beta_constraint": null, "gamma_initializer": {"config": {}, "class_name": "Ones"}, "epsilon": 0.001, "gamma_regularizer": null}, "inbound_nodes": [[["conv2d_6", 0, 0, {}]]], "class_name": "BatchNormalization"}, {"name": "activation_6", "config": {"name": "activation_6", "activation": "relu", "trainable": true}, "inbound_nodes": [[["batch_normalization_123", 0, 0, {}]]], "class_name": "Activation"}, {"name": "conv2d_7", "config": {"kernel_regularizer": {"config": {"l1": 0.0, "l2": 9.999999747378752e-05}, "class_name": "L1L2"}, "kernel_size": [3, 3], "filters": 16, "kernel_constraint": null, "name": "conv2d_7", "activation": "linear", "dilation_rate": [1, 1], "bias_regularizer": null, "trainable": true, "kernel_initializer": {"config": {"seed": null, "mode": "fan_avg", "scale": 1.0, "distribution": "uniform"}, "class_name": "VarianceScaling"}, "data_format": "channels_last", "bias_initializer": {"config": {}, "class_name": "Zeros"}, "padding": "same", "strides": [1, 1], "activity_regularizer": null, "bias_constraint": null, "use_bias": true}, "inbound_nodes": [[["activation_6", 0, 0, {}]]], "class_name": "Conv2D"}, {"name": "batch_normalization_124", "config": {"momentum": 0.99, "moving_variance_initializer": {"config": {}, "class_name": "Ones"}, "name": "batch_normalization_124", "beta_regularizer": null, "moving_mean_initializer": {"config": {}, "class_name": "Zeros"}, "center": true, "gamma_constraint": null, "scale": true, "axis": -1, "trainable": true, "beta_initializer": {"config": {}, "class_name": "Zeros"}, "beta_constraint": null, "gamma_initializer": {"config": {}, "class_name": "Ones"}, "epsilon": 0.001, "gamma_regularizer": null}, "inbound_nodes": [[["conv2d_7", 0, 0, {}]]], "class_name": "BatchNormalization"}, {"name": "add_60", "config": {"name": "add_60", "trainable": true}, "inbound_nodes": [[["activation_5", 0, 0, {}], ["batch_normalization_124", 0, 0, {}]]], "class_name": "Add"}, {"name": "activation_7", "config": {"name": "activation_7", "activation": "relu", "trainable": true}, "inbound_nodes": [[["add_60", 0, 0, {}]]], "class_name": "Activation"}, {"name": "conv2d_8", "config": {"kernel_regularizer": {"config": {"l1": 0.0, "l2": 9.999999747378752e-05}, "class_name": "L1L2"}, "kernel_size": [3, 3], "filters": 12, "kernel_constraint": null, "name": "conv2d_8", "activation": "linear", "dilation_rate": [1, 1], "bias_regularizer": null, "trainable": true, "kernel_initializer": {"config": {"seed": null, "mode": "fan_avg", "scale": 1.0, "distribution": "uniform"}, "class_name": "VarianceScaling"}, "data_format": "channels_last", "bias_initializer": {"config": {}, "class_name": "Zeros"}, "padding": "same", "strides": [1, 1], "activity_regularizer": null, "bias_constraint": null, "use_bias": true}, "inbound_nodes": [[["activation_7", 0, 0, {}]]], "class_name": "Conv2D"}, {"name": "batch_normalization_125", "config": {"momentum": 0.99, "moving_variance_initializer": {"config": {}, "class_name": "Ones"}, "name": "batch_normalization_125", "beta_regularizer": null, "moving_mean_initializer": {"config": {}, "class_name": "Zeros"}, "center": true, "gamma_constraint": null, "scale": true, "axis": -1, "trainable": true, "beta_initializer": {"config": {}, "class_name": "Zeros"}, "beta_constraint": null, "gamma_initializer": {"config": {}, "class_name": "Ones"}, "epsilon": 0.001, "gamma_regularizer": null}, "inbound_nodes": [[["conv2d_8", 0, 0, {}]]], "class_name": "BatchNormalization"}, {"name": "activation_8", "config": {"name": "activation_8", "activation": "relu", "trainable": true}, "inbound_nodes": [[["batch_normalization_125", 0, 0, {}]]], "class_name": "Activation"}, {"name": "conv2d_9", "config": {"kernel_regularizer": {"config": {"l1": 0.0, "l2": 9.999999747378752e-05}, "class_name": "L1L2"}, "kernel_size": [3, 3], "filters": 16, "kernel_constraint": null, "name": "conv2d_9", "activation": "linear", "dilation_rate": [1, 1], "bias_regularizer": null, "trainable": true, "kernel_initializer": {"config": {"seed": null, "mode": "fan_avg", "scale": 1.0, "distribution": "uniform"}, "class_name": "VarianceScaling"}, "data_format": "channels_last", "bias_initializer": {"config": {}, "class_name": "Zeros"}, "padding": "same", "strides": [1, 1], "activity_regularizer": null, "bias_constraint": null, "use_bias": true}, "inbound_nodes": [[["activation_8", 0, 0, {}]]], "class_name": "Conv2D"}, {"name": "batch_normalization_126", "config": {"momentum": 0.99, "moving_variance_initializer": {"config": {}, "class_name": "Ones"}, "name": "batch_normalization_126", "beta_regularizer": null, "moving_mean_initializer": {"config": {}, "class_name": "Zeros"}, "center": true, "gamma_constraint": null, "scale": true, "axis": -1, "trainable": true, "beta_initializer": {"config": {}, "class_name": "Zeros"}, "beta_constraint": null, "gamma_initializer": {"config": {}, "class_name": "Ones"}, "epsilon": 0.001, "gamma_regularizer": null}, "inbound_nodes": [[["conv2d_9", 0, 0, {}]]], "class_name": "BatchNormalization"}, {"name": "add_61", "config": {"name": "add_61", "trainable": true}, "inbound_nodes": [[["activation_7", 0, 0, {}], ["batch_normalization_126", 0, 0, {}]]], "class_name": "Add"}, {"name": "activation_9", "config": {"name": "activation_9", "activation": "relu", "trainable": true}, "inbound_nodes": [[["add_61", 0, 0, {}]]], "class_name": "Activation"}, {"name": "conv2d_10", "config": {"kernel_regularizer": {"config": {"l1": 0.0, "l2": 9.999999747378752e-05}, "class_name": "L1L2"}, "kernel_size": [3, 3], "filters": 8, "kernel_constraint": null, "name": "conv2d_10", "activation": "linear", "dilation_rate": [1, 1], "bias_regularizer": null, "trainable": true, "kernel_initializer": {"config": {"seed": null, "mode": "fan_avg", "scale": 1.0, "distribution": "uniform"}, "class_name": "VarianceScaling"}, "data_format": "channels_last", "bias_initializer": {"config": {}, "class_name": "Zeros"}, "padding": "same", "strides": [1, 1], "activity_regularizer": null, "bias_constraint": null, "use_bias": true}, "inbound_nodes": [[["activation_9", 0, 0, {}]]], "class_name": "Conv2D"}, {"name": "batch_normalization_127", "config": {"momentum": 0.99, "moving_variance_initializer": {"config": {}, "class_name": "Ones"}, "name": "batch_normalization_127", "beta_regularizer": null, "moving_mean_initializer": {"config": {}, "class_name": "Zeros"}, "center": true, "gamma_constraint": null, "scale": true, "axis": -1, "trainable": true, "beta_initializer": {"config": {}, "class_name": "Zeros"}, "beta_constraint": null, "gamma_initializer": {"config": {}, "class_name": "Ones"}, "epsilon": 0.001, "gamma_regularizer": null}, "inbound_nodes": [[["conv2d_10", 0, 0, {}]]], "class_name": "BatchNormalization"}, {"name": "activation_10", "config": {"name": "activation_10", "activation": "relu", "trainable": true}, "inbound_nodes": [[["batch_normalization_127", 0, 0, {}]]], "class_name": "Activation"}, {"name": "conv2d_11", "config": {"kernel_regularizer": {"config": {"l1": 0.0, "l2": 9.999999747378752e-05}, "class_name": "L1L2"}, "kernel_size": [3, 3], "filters": 16, "kernel_constraint": null, "name": "conv2d_11", "activation": "linear", "dilation_rate": [1, 1], "bias_regularizer": null, "trainable": true, "kernel_initializer": {"config": {"seed": null, "mode": "fan_avg", "scale": 1.0, "distribution": "uniform"}, "class_name": "VarianceScaling"}, "data_format": "channels_last", "bias_initializer": {"config": {}, "class_name": "Zeros"}, "padding": "same", "strides": [1, 1], "activity_regularizer": null, "bias_constraint": null, "use_bias": true}, "inbound_nodes": [[["activation_10", 0, 0, {}]]], "class_name": "Conv2D"}, {"name": "batch_normalization_128", "config": {"momentum": 0.99, "moving_variance_initializer": {"config": {}, "class_name": "Ones"}, "name": "batch_normalization_128", "beta_regularizer": null, "moving_mean_initializer": {"config": {}, "class_name": "Zeros"}, "center": true, "gamma_constraint": null, "scale": true, "axis": -1, "trainable": true, "beta_initializer": {"config": {}, "class_name": "Zeros"}, "beta_constraint": null, "gamma_initializer": {"config": {}, "class_name": "Ones"}, "epsilon": 0.001, "gamma_regularizer": null}, "inbound_nodes": [[["conv2d_11", 0, 0, {}]]], "class_name": "BatchNormalization"}, {"name": "add_62", "config": {"name": "add_62", "trainable": true}, "inbound_nodes": [[["activation_9", 0, 0, {}], ["batch_normalization_128", 0, 0, {}]]], "class_name": "Add"}, {"name": "activation_11", "config": {"name": "activation_11", "activation": "relu", "trainable": true}, "inbound_nodes": [[["add_62", 0, 0, {}]]], "class_name": "Activation"}, {"name": "conv2d_12", "config": {"kernel_regularizer": {"config": {"l1": 0.0, "l2": 9.999999747378752e-05}, "class_name": "L1L2"}, "kernel_size": [3, 3], "filters": 7, "kernel_constraint": null, "name": "conv2d_12", "activation": "linear", "dilation_rate": [1, 1], "bias_regularizer": null, "trainable": true, "kernel_initializer": {"config": {"seed": null, "mode": "fan_avg", "scale": 1.0, "distribution": "uniform"}, "class_name": "VarianceScaling"}, "data_format": "channels_last", "bias_initializer": {"config": {}, "class_name": "Zeros"}, "padding": "same", "strides": [1, 1], "activity_regularizer": null, "bias_constraint": null, "use_bias": true}, "inbound_nodes": [[["activation_11", 0, 0, {}]]], "class_name": "Conv2D"}, {"name": "batch_normalization_129", "config": {"momentum": 0.99, "moving_variance_initializer": {"config": {}, "class_name": "Ones"}, "name": "batch_normalization_129", "beta_regularizer": null, "moving_mean_initializer": {"config": {}, "class_name": "Zeros"}, "center": true, "gamma_constraint": null, "scale": true, "axis": -1, "trainable": true, "beta_initializer": {"config": {}, "class_name": "Zeros"}, "beta_constraint": null, "gamma_initializer": {"config": {}, "class_name": "Ones"}, "epsilon": 0.001, "gamma_regularizer": null}, "inbound_nodes": [[["conv2d_12", 0, 0, {}]]], "class_name": "BatchNormalization"}, {"name": "activation_12", "config": {"name": "activation_12", "activation": "relu", "trainable": true}, "inbound_nodes": [[["batch_normalization_129", 0, 0, {}]]], "class_name": "Activation"}, {"name": "conv2d_13", "config": {"kernel_regularizer": {"config": {"l1": 0.0, "l2": 9.999999747378752e-05}, "class_name": "L1L2"}, "kernel_size": [3, 3], "filters": 16, "kernel_constraint": null, "name": "conv2d_13", "activation": "linear", "dilation_rate": [1, 1], "bias_regularizer": null, "trainable": true, "kernel_initializer": {"config": {"seed": null, "mode": "fan_avg", "scale": 1.0, "distribution": "uniform"}, "class_name": "VarianceScaling"}, "data_format": "channels_last", "bias_initializer": {"config": {}, "class_name": "Zeros"}, "padding": "same", "strides": [1, 1], "activity_regularizer": null, "bias_constraint": null, "use_bias": true}, "inbound_nodes": [[["activation_12", 0, 0, {}]]], "class_name": "Conv2D"}, {"name": "batch_normalization_130", "config": {"momentum": 0.99, "moving_variance_initializer": {"config": {}, "class_name": "Ones"}, "name": "batch_normalization_130", "beta_regularizer": null, "moving_mean_initializer": {"config": {}, "class_name": "Zeros"}, "center": true, "gamma_constraint": null, "scale": true, "axis": -1, "trainable": true, "beta_initializer": {"config": {}, "class_name": "Zeros"}, "beta_constraint": null, "gamma_initializer": {"config": {}, "class_name": "Ones"}, "epsilon": 0.001, "gamma_regularizer": null}, "inbound_nodes": [[["conv2d_13", 0, 0, {}]]], "class_name": "BatchNormalization"}, {"name": "add_63", "config": {"name": "add_63", "trainable": true}, "inbound_nodes": [[["activation_11", 0, 0, {}], ["batch_normalization_130", 0, 0, {}]]], "class_name": "Add"}, {"name": "activation_13", "config": {"name": "activation_13", "activation": "relu", "trainable": true}, "inbound_nodes": [[["add_63", 0, 0, {}]]], "class_name": "Activation"}, {"name": "conv2d_14", "config": {"kernel_regularizer": {"config": {"l1": 0.0, "l2": 9.999999747378752e-05}, "class_name": "L1L2"}, "kernel_size": [3, 3], "filters": 11, "kernel_constraint": null, "name": "conv2d_14", "activation": "linear", "dilation_rate": [1, 1], "bias_regularizer": null, "trainable": true, "kernel_initializer": {"config": {"seed": null, "mode": "fan_avg", "scale": 1.0, "distribution": "uniform"}, "class_name": "VarianceScaling"}, "data_format": "channels_last", "bias_initializer": {"config": {}, "class_name": "Zeros"}, "padding": "same", "strides": [1, 1], "activity_regularizer": null, "bias_constraint": null, "use_bias": true}, "inbound_nodes": [[["activation_13", 0, 0, {}]]], "class_name": "Conv2D"}, {"name": "batch_normalization_131", "config": {"momentum": 0.99, "moving_variance_initializer": {"config": {}, "class_name": "Ones"}, "name": "batch_normalization_131", "beta_regularizer": null, "moving_mean_initializer": {"config": {}, "class_name": "Zeros"}, "center": true, "gamma_constraint": null, "scale": true, "axis": -1, "trainable": true, "beta_initializer": {"config": {}, "class_name": "Zeros"}, "beta_constraint": null, "gamma_initializer": {"config": {}, "class_name": "Ones"}, "epsilon": 0.001, "gamma_regularizer": null}, "inbound_nodes": [[["conv2d_14", 0, 0, {}]]], "class_name": "BatchNormalization"}, {"name": "activation_14", "config": {"name": "activation_14", "activation": "relu", "trainable": true}, "inbound_nodes": [[["batch_normalization_131", 0, 0, {}]]], "class_name": "Activation"}, {"name": "conv2d_15", "config": {"kernel_regularizer": {"config": {"l1": 0.0, "l2": 9.999999747378752e-05}, "class_name": "L1L2"}, "kernel_size": [3, 3], "filters": 16, "kernel_constraint": null, "name": "conv2d_15", "activation": "linear", "dilation_rate": [1, 1], "bias_regularizer": null, "trainable": true, "kernel_initializer": {"config": {"seed": null, "mode": "fan_avg", "scale": 1.0, "distribution": "uniform"}, "class_name": "VarianceScaling"}, "data_format": "channels_last", "bias_initializer": {"config": {}, "class_name": "Zeros"}, "padding": "same", "strides": [1, 1], "activity_regularizer": null, "bias_constraint": null, "use_bias": true}, "inbound_nodes": [[["activation_14", 0, 0, {}]]], "class_name": "Conv2D"}, {"name": "batch_normalization_132", "config": {"momentum": 0.99, "moving_variance_initializer": {"config": {}, "class_name": "Ones"}, "name": "batch_normalization_132", "beta_regularizer": null, "moving_mean_initializer": {"config": {}, "class_name": "Zeros"}, "center": true, "gamma_constraint": null, "scale": true, "axis": -1, "trainable": true, "beta_initializer": {"config": {}, "class_name": "Zeros"}, "beta_constraint": null, "gamma_initializer": {"config": {}, "class_name": "Ones"}, "epsilon": 0.001, "gamma_regularizer": null}, "inbound_nodes": [[["conv2d_15", 0, 0, {}]]], "class_name": "BatchNormalization"}, {"name": "add_64", "config": {"name": "add_64", "trainable": true}, "inbound_nodes": [[["activation_13", 0, 0, {}], ["batch_normalization_132", 0, 0, {}]]], "class_name": "Add"}, {"name": "activation_15", "config": {"name": "activation_15", "activation": "relu", "trainable": true}, "inbound_nodes": [[["add_64", 0, 0, {}]]], "class_name": "Activation"}, {"name": "conv2d_16", "config": {"kernel_regularizer": {"config": {"l1": 0.0, "l2": 9.999999747378752e-05}, "class_name": "L1L2"}, "kernel_size": [3, 3], "filters": 12, "kernel_constraint": null, "name": "conv2d_16", "activation": "linear", "dilation_rate": [1, 1], "bias_regularizer": null, "trainable": true, "kernel_initializer": {"config": {"seed": null, "mode": "fan_avg", "scale": 1.0, "distribution": "uniform"}, "class_name": "VarianceScaling"}, "data_format": "channels_last", "bias_initializer": {"config": {}, "class_name": "Zeros"}, "padding": "same", "strides": [1, 1], "activity_regularizer": null, "bias_constraint": null, "use_bias": true}, "inbound_nodes": [[["activation_15", 0, 0, {}]]], "class_name": "Conv2D"}, {"name": "batch_normalization_133", "config": {"momentum": 0.99, "moving_variance_initializer": {"config": {}, "class_name": "Ones"}, "name": "batch_normalization_133", "beta_regularizer": null, "moving_mean_initializer": {"config": {}, "class_name": "Zeros"}, "center": true, "gamma_constraint": null, "scale": true, "axis": -1, "trainable": true, "beta_initializer": {"config": {}, "class_name": "Zeros"}, "beta_constraint": null, "gamma_initializer": {"config": {}, "class_name": "Ones"}, "epsilon": 0.001, "gamma_regularizer": null}, "inbound_nodes": [[["conv2d_16", 0, 0, {}]]], "class_name": "BatchNormalization"}, {"name": "activation_16", "config": {"name": "activation_16", "activation": "relu", "trainable": true}, "inbound_nodes": [[["batch_normalization_133", 0, 0, {}]]], "class_name": "Activation"}, {"name": "conv2d_17", "config": {"kernel_regularizer": {"config": {"l1": 0.0, "l2": 9.999999747378752e-05}, "class_name": "L1L2"}, "kernel_size": [3, 3], "filters": 16, "kernel_constraint": null, "name": "conv2d_17", "activation": "linear", "dilation_rate": [1, 1], "bias_regularizer": null, "trainable": true, "kernel_initializer": {"config": {"seed": null, "mode": "fan_avg", "scale": 1.0, "distribution": "uniform"}, "class_name": "VarianceScaling"}, "data_format": "channels_last", "bias_initializer": {"config": {}, "class_name": "Zeros"}, "padding": "same", "strides": [1, 1], "activity_regularizer": null, "bias_constraint": null, "use_bias": true}, "inbound_nodes": [[["activation_16", 0, 0, {}]]], "class_name": "Conv2D"}, {"name": "batch_normalization_134", "config": {"momentum": 0.99, "moving_variance_initializer": {"config": {}, "class_name": "Ones"}, "name": "batch_normalization_134", "beta_regularizer": null, "moving_mean_initializer": {"config": {}, "class_name": "Zeros"}, "center": true, "gamma_constraint": null, "scale": true, "axis": -1, "trainable": true, "beta_initializer": {"config": {}, "class_name": "Zeros"}, "beta_constraint": null, "gamma_initializer": {"config": {}, "class_name": "Ones"}, "epsilon": 0.001, "gamma_regularizer": null}, "inbound_nodes": [[["conv2d_17", 0, 0, {}]]], "class_name": "BatchNormalization"}, {"name": "add_65", "config": {"name": "add_65", "trainable": true}, "inbound_nodes": [[["activation_15", 0, 0, {}], ["batch_normalization_134", 0, 0, {}]]], "class_name": "Add"}, {"name": "activation_17", "config": {"name": "activation_17", "activation": "relu", "trainable": true}, "inbound_nodes": [[["add_65", 0, 0, {}]]], "class_name": "Activation"}, {"name": "conv2d_18", "config": {"kernel_regularizer": {"config": {"l1": 0.0, "l2": 9.999999747378752e-05}, "class_name": "L1L2"}, "kernel_size": [3, 3], "filters": 14, "kernel_constraint": null, "name": "conv2d_18", "activation": "linear", "dilation_rate": [1, 1], "bias_regularizer": null, "trainable": true, "kernel_initializer": {"config": {"seed": null, "mode": "fan_avg", "scale": 1.0, "distribution": "uniform"}, "class_name": "VarianceScaling"}, "data_format": "channels_last", "bias_initializer": {"config": {}, "class_name": "Zeros"}, "padding": "same", "strides": [1, 1], "activity_regularizer": null, "bias_constraint": null, "use_bias": true}, "inbound_nodes": [[["activation_17", 0, 0, {}]]], "class_name": "Conv2D"}, {"name": "batch_normalization_135", "config": {"momentum": 0.99, "moving_variance_initializer": {"config": {}, "class_name": "Ones"}, "name": "batch_normalization_135", "beta_regularizer": null, "moving_mean_initializer": {"config": {}, "class_name": "Zeros"}, "center": true, "gamma_constraint": null, "scale": true, "axis": -1, "trainable": true, "beta_initializer": {"config": {}, "class_name": "Zeros"}, "beta_constraint": null, "gamma_initializer": {"config": {}, "class_name": "Ones"}, "epsilon": 0.001, "gamma_regularizer": null}, "inbound_nodes": [[["conv2d_18", 0, 0, {}]]], "class_name": "BatchNormalization"}, {"name": "activation_18", "config": {"name": "activation_18", "activation": "relu", "trainable": true}, "inbound_nodes": [[["batch_normalization_135", 0, 0, {}]]], "class_name": "Activation"}, {"name": "conv2d_19", "config": {"kernel_regularizer": {"config": {"l1": 0.0, "l2": 9.999999747378752e-05}, "class_name": "L1L2"}, "kernel_size": [3, 3], "filters": 16, "kernel_constraint": null, "name": "conv2d_19", "activation": "linear", "dilation_rate": [1, 1], "bias_regularizer": null, "trainable": true, "kernel_initializer": {"config": {"seed": null, "mode": "fan_avg", "scale": 1.0, "distribution": "uniform"}, "class_name": "VarianceScaling"}, "data_format": "channels_last", "bias_initializer": {"config": {}, "class_name": "Zeros"}, "padding": "same", "strides": [1, 1], "activity_regularizer": null, "bias_constraint": null, "use_bias": true}, "inbound_nodes": [[["activation_18", 0, 0, {}]]], "class_name": "Conv2D"}, {"name": "batch_normalization_136", "config": {"momentum": 0.99, "moving_variance_initializer": {"config": {}, "class_name": "Ones"}, "name": "batch_normalization_136", "beta_regularizer": null, "moving_mean_initializer": {"config": {}, "class_name": "Zeros"}, "center": true, "gamma_constraint": null, "scale": true, "axis": -1, "trainable": true, "beta_initializer": {"config": {}, "class_name": "Zeros"}, "beta_constraint": null, "gamma_initializer": {"config": {}, "class_name": "Ones"}, "epsilon": 0.001, "gamma_regularizer": null}, "inbound_nodes": [[["conv2d_19", 0, 0, {}]]], "class_name": "BatchNormalization"}, {"name": "add_66", "config": {"name": "add_66", "trainable": true}, "inbound_nodes": [[["activation_17", 0, 0, {}], ["batch_normalization_136", 0, 0, {}]]], "class_name": "Add"}, {"name": "activation_19", "config": {"name": "activation_19", "activation": "relu", "trainable": true}, "inbound_nodes": [[["add_66", 0, 0, {}]]], "class_name": "Activation"}, {"name": "conv2d_20", "config": {"kernel_regularizer": {"config": {"l1": 0.0, "l2": 9.999999747378752e-05}, "class_name": "L1L2"}, "kernel_size": [3, 3], "filters": 27, "kernel_constraint": null, "name": "conv2d_20", "activation": "linear", "dilation_rate": [1, 1], "bias_regularizer": null, "trainable": true, "kernel_initializer": {"config": {"seed": null, "mode": "fan_avg", "scale": 1.0, "distribution": "uniform"}, "class_name": "VarianceScaling"}, "data_format": "channels_last", "bias_initializer": {"config": {}, "class_name": "Zeros"}, "padding": "same", "strides": [2, 2], "activity_regularizer": null, "bias_constraint": null, "use_bias": true}, "inbound_nodes": [[["activation_19", 0, 0, {}]]], "class_name": "Conv2D"}, {"name": "batch_normalization_137", "config": {"momentum": 0.99, "moving_variance_initializer": {"config": {}, "class_name": "Ones"}, "name": "batch_normalization_137", "beta_regularizer": null, "moving_mean_initializer": {"config": {}, "class_name": "Zeros"}, "center": true, "gamma_constraint": null, "scale": true, "axis": -1, "trainable": true, "beta_initializer": {"config": {}, "class_name": "Zeros"}, "beta_constraint": null, "gamma_initializer": {"config": {}, "class_name": "Ones"}, "epsilon": 0.001, "gamma_regularizer": null}, "inbound_nodes": [[["conv2d_20", 0, 0, {}]]], "class_name": "BatchNormalization"}, {"name": "activation_20", "config": {"name": "activation_20", "activation": "relu", "trainable": true}, "inbound_nodes": [[["batch_normalization_137", 0, 0, {}]]], "class_name": "Activation"}, {"name": "conv2d_21", "config": {"kernel_regularizer": {"config": {"l1": 0.0, "l2": 9.999999747378752e-05}, "class_name": "L1L2"}, "kernel_size": [3, 3], "filters": 32, "kernel_constraint": null, "name": "conv2d_21", "activation": "linear", "dilation_rate": [1, 1], "bias_regularizer": null, "trainable": true, "kernel_initializer": {"config": {"seed": null, "mode": "fan_avg", "scale": 1.0, "distribution": "uniform"}, "class_name": "VarianceScaling"}, "data_format": "channels_last", "bias_initializer": {"config": {}, "class_name": "Zeros"}, "padding": "same", "strides": [1, 1], "activity_regularizer": null, "bias_constraint": null, "use_bias": true}, "inbound_nodes": [[["activation_20", 0, 0, {}]]], "class_name": "Conv2D"}, {"name": "conv2d_22", "config": {"kernel_regularizer": {"config": {"l1": 0.0, "l2": 9.999999747378752e-05}, "class_name": "L1L2"}, "kernel_size": [1, 1], "filters": 32, "kernel_constraint": null, "name": "conv2d_22", "activation": "linear", "dilation_rate": [1, 1], "bias_regularizer": null, "trainable": true, "kernel_initializer": {"config": {"seed": null, "mode": "fan_avg", "scale": 1.0, "distribution": "uniform"}, "class_name": "VarianceScaling"}, "data_format": "channels_last", "bias_initializer": {"config": {}, "class_name": "Zeros"}, "padding": "same", "strides": [2, 2], "activity_regularizer": null, "bias_constraint": null, "use_bias": true}, "inbound_nodes": [[["activation_19", 0, 0, {}]]], "class_name": "Conv2D"}, {"name": "batch_normalization_138", "config": {"momentum": 0.99, "moving_variance_initializer": {"config": {}, "class_name": "Ones"}, "name": "batch_normalization_138", "beta_regularizer": null, "moving_mean_initializer": {"config": {}, "class_name": "Zeros"}, "center": true, "gamma_constraint": null, "scale": true, "axis": -1, "trainable": true, "beta_initializer": {"config": {}, "class_name": "Zeros"}, "beta_constraint": null, "gamma_initializer": {"config": {}, "class_name": "Ones"}, "epsilon": 0.001, "gamma_regularizer": null}, "inbound_nodes": [[["conv2d_21", 0, 0, {}]]], "class_name": "BatchNormalization"}, {"name": "add_67", "config": {"name": "add_67", "trainable": true}, "inbound_nodes": [[["conv2d_22", 0, 0, {}], ["batch_normalization_138", 0, 0, {}]]], "class_name": "Add"}, {"name": "activation_21", "config": {"name": "activation_21", "activation": "relu", "trainable": true}, "inbound_nodes": [[["add_67", 0, 0, {}]]], "class_name": "Activation"}, {"name": "conv2d_23", "config": {"kernel_regularizer": {"config": {"l1": 0.0, "l2": 9.999999747378752e-05}, "class_name": "L1L2"}, "kernel_size": [3, 3], "filters": 25, "kernel_constraint": null, "name": "conv2d_23", "activation": "linear", "dilation_rate": [1, 1], "bias_regularizer": null, "trainable": true, "kernel_initializer": {"config": {"seed": null, "mode": "fan_avg", "scale": 1.0, "distribution": "uniform"}, "class_name": "VarianceScaling"}, "data_format": "channels_last", "bias_initializer": {"config": {}, "class_name": "Zeros"}, "padding": "same", "strides": [1, 1], "activity_regularizer": null, "bias_constraint": null, "use_bias": true}, "inbound_nodes": [[["activation_21", 0, 0, {}]]], "class_name": "Conv2D"}, {"name": "batch_normalization_139", "config": {"momentum": 0.99, "moving_variance_initializer": {"config": {}, "class_name": "Ones"}, "name": "batch_normalization_139", "beta_regularizer": null, "moving_mean_initializer": {"config": {}, "class_name": "Zeros"}, "center": true, "gamma_constraint": null, "scale": true, "axis": -1, "trainable": true, "beta_initializer": {"config": {}, "class_name": "Zeros"}, "beta_constraint": null, "gamma_initializer": {"config": {}, "class_name": "Ones"}, "epsilon": 0.001, "gamma_regularizer": null}, "inbound_nodes": [[["conv2d_23", 0, 0, {}]]], "class_name": "BatchNormalization"}, {"name": "activation_22", "config": {"name": "activation_22", "activation": "relu", "trainable": true}, "inbound_nodes": [[["batch_normalization_139", 0, 0, {}]]], "class_name": "Activation"}, {"name": "conv2d_24", "config": {"kernel_regularizer": {"config": {"l1": 0.0, "l2": 9.999999747378752e-05}, "class_name": "L1L2"}, "kernel_size": [3, 3], "filters": 32, "kernel_constraint": null, "name": "conv2d_24", "activation": "linear", "dilation_rate": [1, 1], "bias_regularizer": null, "trainable": true, "kernel_initializer": {"config": {"seed": null, "mode": "fan_avg", "scale": 1.0, "distribution": "uniform"}, "class_name": "VarianceScaling"}, "data_format": "channels_last", "bias_initializer": {"config": {}, "class_name": "Zeros"}, "padding": "same", "strides": [1, 1], "activity_regularizer": null, "bias_constraint": null, "use_bias": true}, "inbound_nodes": [[["activation_22", 0, 0, {}]]], "class_name": "Conv2D"}, {"name": "batch_normalization_140", "config": {"momentum": 0.99, "moving_variance_initializer": {"config": {}, "class_name": "Ones"}, "name": "batch_normalization_140", "beta_regularizer": null, "moving_mean_initializer": {"config": {}, "class_name": "Zeros"}, "center": true, "gamma_constraint": null, "scale": true, "axis": -1, "trainable": true, "beta_initializer": {"config": {}, "class_name": "Zeros"}, "beta_constraint": null, "gamma_initializer": {"config": {}, "class_name": "Ones"}, "epsilon": 0.001, "gamma_regularizer": null}, "inbound_nodes": [[["conv2d_24", 0, 0, {}]]], "class_name": "BatchNormalization"}, {"name": "add_68", "config": {"name": "add_68", "trainable": true}, "inbound_nodes": [[["activation_21", 0, 0, {}], ["batch_normalization_140", 0, 0, {}]]], "class_name": "Add"}, {"name": "activation_23", "config": {"name": "activation_23", "activation": "relu", "trainable": true}, "inbound_nodes": [[["add_68", 0, 0, {}]]], "class_name": "Activation"}, {"name": "conv2d_25", "config": {"kernel_regularizer": {"config": {"l1": 0.0, "l2": 9.999999747378752e-05}, "class_name": "L1L2"}, "kernel_size": [3, 3], "filters": 22, "kernel_constraint": null, "name": "conv2d_25", "activation": "linear", "dilation_rate": [1, 1], "bias_regularizer": null, "trainable": true, "kernel_initializer": {"config": {"seed": null, "mode": "fan_avg", "scale": 1.0, "distribution": "uniform"}, "class_name": "VarianceScaling"}, "data_format": "channels_last", "bias_initializer": {"config": {}, "class_name": "Zeros"}, "padding": "same", "strides": [1, 1], "activity_regularizer": null, "bias_constraint": null, "use_bias": true}, "inbound_nodes": [[["activation_23", 0, 0, {}]]], "class_name": "Conv2D"}, {"name": "batch_normalization_141", "config": {"momentum": 0.99, "moving_variance_initializer": {"config": {}, "class_name": "Ones"}, "name": "batch_normalization_141", "beta_regularizer": null, "moving_mean_initializer": {"config": {}, "class_name": "Zeros"}, "center": true, "gamma_constraint": null, "scale": true, "axis": -1, "trainable": true, "beta_initializer": {"config": {}, "class_name": "Zeros"}, "beta_constraint": null, "gamma_initializer": {"config": {}, "class_name": "Ones"}, "epsilon": 0.001, "gamma_regularizer": null}, "inbound_nodes": [[["conv2d_25", 0, 0, {}]]], "class_name": "BatchNormalization"}, {"name": "activation_24", "config": {"name": "activation_24", "activation": "relu", "trainable": true}, "inbound_nodes": [[["batch_normalization_141", 0, 0, {}]]], "class_name": "Activation"}, {"name": "conv2d_26", "config": {"kernel_regularizer": {"config": {"l1": 0.0, "l2": 9.999999747378752e-05}, "class_name": "L1L2"}, "kernel_size": [3, 3], "filters": 32, "kernel_constraint": null, "name": "conv2d_26", "activation": "linear", "dilation_rate": [1, 1], "bias_regularizer": null, "trainable": true, "kernel_initializer": {"config": {"seed": null, "mode": "fan_avg", "scale": 1.0, "distribution": "uniform"}, "class_name": "VarianceScaling"}, "data_format": "channels_last", "bias_initializer": {"config": {}, "class_name": "Zeros"}, "padding": "same", "strides": [1, 1], "activity_regularizer": null, "bias_constraint": null, "use_bias": true}, "inbound_nodes": [[["activation_24", 0, 0, {}]]], "class_name": "Conv2D"}, {"name": "batch_normalization_142", "config": {"momentum": 0.99, "moving_variance_initializer": {"config": {}, "class_name": "Ones"}, "name": "batch_normalization_142", "beta_regularizer": null, "moving_mean_initializer": {"config": {}, "class_name": "Zeros"}, "center": true, "gamma_constraint": null, "scale": true, "axis": -1, "trainable": true, "beta_initializer": {"config": {}, "class_name": "Zeros"}, "beta_constraint": null, "gamma_initializer": {"config": {}, "class_name": "Ones"}, "epsilon": 0.001, "gamma_regularizer": null}, "inbound_nodes": [[["conv2d_26", 0, 0, {}]]], "class_name": "BatchNormalization"}, {"name": "add_69", "config": {"name": "add_69", "trainable": true}, "inbound_nodes": [[["activation_23", 0, 0, {}], ["batch_normalization_142", 0, 0, {}]]], "class_name": "Add"}, {"name": "activation_25", "config": {"name": "activation_25", "activation": "relu", "trainable": true}, "inbound_nodes": [[["add_69", 0, 0, {}]]], "class_name": "Activation"}, {"name": "conv2d_27", "config": {"kernel_regularizer": {"config": {"l1": 0.0, "l2": 9.999999747378752e-05}, "class_name": "L1L2"}, "kernel_size": [3, 3], "filters": 21, "kernel_constraint": null, "name": "conv2d_27", "activation": "linear", "dilation_rate": [1, 1], "bias_regularizer": null, "trainable": true, "kernel_initializer": {"config": {"seed": null, "mode": "fan_avg", "scale": 1.0, "distribution": "uniform"}, "class_name": "VarianceScaling"}, "data_format": "channels_last", "bias_initializer": {"config": {}, "class_name": "Zeros"}, "padding": "same", "strides": [1, 1], "activity_regularizer": null, "bias_constraint": null, "use_bias": true}, "inbound_nodes": [[["activation_25", 0, 0, {}]]], "class_name": "Conv2D"}, {"name": "batch_normalization_143", "config": {"momentum": 0.99, "moving_variance_initializer": {"config": {}, "class_name": "Ones"}, "name": "batch_normalization_143", "beta_regularizer": null, "moving_mean_initializer": {"config": {}, "class_name": "Zeros"}, "center": true, "gamma_constraint": null, "scale": true, "axis": -1, "trainable": true, "beta_initializer": {"config": {}, "class_name": "Zeros"}, "beta_constraint": null, "gamma_initializer": {"config": {}, "class_name": "Ones"}, "epsilon": 0.001, "gamma_regularizer": null}, "inbound_nodes": [[["conv2d_27", 0, 0, {}]]], "class_name": "BatchNormalization"}, {"name": "activation_26", "config": {"name": "activation_26", "activation": "relu", "trainable": true}, "inbound_nodes": [[["batch_normalization_143", 0, 0, {}]]], "class_name": "Activation"}, {"name": "conv2d_28", "config": {"kernel_regularizer": {"config": {"l1": 0.0, "l2": 9.999999747378752e-05}, "class_name": "L1L2"}, "kernel_size": [3, 3], "filters": 32, "kernel_constraint": null, "name": "conv2d_28", "activation": "linear", "dilation_rate": [1, 1], "bias_regularizer": null, "trainable": true, "kernel_initializer": {"config": {"seed": null, "mode": "fan_avg", "scale": 1.0, "distribution": "uniform"}, "class_name": "VarianceScaling"}, "data_format": "channels_last", "bias_initializer": {"config": {}, "class_name": "Zeros"}, "padding": "same", "strides": [1, 1], "activity_regularizer": null, "bias_constraint": null, "use_bias": true}, "inbound_nodes": [[["activation_26", 0, 0, {}]]], "class_name": "Conv2D"}, {"name": "batch_normalization_144", "config": {"momentum": 0.99, "moving_variance_initializer": {"config": {}, "class_name": "Ones"}, "name": "batch_normalization_144", "beta_regularizer": null, "moving_mean_initializer": {"config": {}, "class_name": "Zeros"}, "center": true, "gamma_constraint": null, "scale": true, "axis": -1, "trainable": true, "beta_initializer": {"config": {}, "class_name": "Zeros"}, "beta_constraint": null, "gamma_initializer": {"config": {}, "class_name": "Ones"}, "epsilon": 0.001, "gamma_regularizer": null}, "inbound_nodes": [[["conv2d_28", 0, 0, {}]]], "class_name": "BatchNormalization"}, {"name": "add_70", "config": {"name": "add_70", "trainable": true}, "inbound_nodes": [[["activation_25", 0, 0, {}], ["batch_normalization_144", 0, 0, {}]]], "class_name": "Add"}, {"name": "activation_27", "config": {"name": "activation_27", "activation": "relu", "trainable": true}, "inbound_nodes": [[["add_70", 0, 0, {}]]], "class_name": "Activation"}, {"name": "conv2d_29", "config": {"kernel_regularizer": {"config": {"l1": 0.0, "l2": 9.999999747378752e-05}, "class_name": "L1L2"}, "kernel_size": [3, 3], "filters": 17, "kernel_constraint": null, "name": "conv2d_29", "activation": "linear", "dilation_rate": [1, 1], "bias_regularizer": null, "trainable": true, "kernel_initializer": {"config": {"seed": null, "mode": "fan_avg", "scale": 1.0, "distribution": "uniform"}, "class_name": "VarianceScaling"}, "data_format": "channels_last", "bias_initializer": {"config": {}, "class_name": "Zeros"}, "padding": "same", "strides": [1, 1], "activity_regularizer": null, "bias_constraint": null, "use_bias": true}, "inbound_nodes": [[["activation_27", 0, 0, {}]]], "class_name": "Conv2D"}, {"name": "batch_normalization_145", "config": {"momentum": 0.99, "moving_variance_initializer": {"config": {}, "class_name": "Ones"}, "name": "batch_normalization_145", "beta_regularizer": null, "moving_mean_initializer": {"config": {}, "class_name": "Zeros"}, "center": true, "gamma_constraint": null, "scale": true, "axis": -1, "trainable": true, "beta_initializer": {"config": {}, "class_name": "Zeros"}, "beta_constraint": null, "gamma_initializer": {"config": {}, "class_name": "Ones"}, "epsilon": 0.001, "gamma_regularizer": null}, "inbound_nodes": [[["conv2d_29", 0, 0, {}]]], "class_name": "BatchNormalization"}, {"name": "activation_28", "config": {"name": "activation_28", "activation": "relu", "trainable": true}, "inbound_nodes": [[["batch_normalization_145", 0, 0, {}]]], "class_name": "Activation"}, {"name": "conv2d_30", "config": {"kernel_regularizer": {"config": {"l1": 0.0, "l2": 9.999999747378752e-05}, "class_name": "L1L2"}, "kernel_size": [3, 3], "filters": 32, "kernel_constraint": null, "name": "conv2d_30", "activation": "linear", "dilation_rate": [1, 1], "bias_regularizer": null, "trainable": true, "kernel_initializer": {"config": {"seed": null, "mode": "fan_avg", "scale": 1.0, "distribution": "uniform"}, "class_name": "VarianceScaling"}, "data_format": "channels_last", "bias_initializer": {"config": {}, "class_name": "Zeros"}, "padding": "same", "strides": [1, 1], "activity_regularizer": null, "bias_constraint": null, "use_bias": true}, "inbound_nodes": [[["activation_28", 0, 0, {}]]], "class_name": "Conv2D"}, {"name": "batch_normalization_146", "config": {"momentum": 0.99, "moving_variance_initializer": {"config": {}, "class_name": "Ones"}, "name": "batch_normalization_146", "beta_regularizer": null, "moving_mean_initializer": {"config": {}, "class_name": "Zeros"}, "center": true, "gamma_constraint": null, "scale": true, "axis": -1, "trainable": true, "beta_initializer": {"config": {}, "class_name": "Zeros"}, "beta_constraint": null, "gamma_initializer": {"config": {}, "class_name": "Ones"}, "epsilon": 0.001, "gamma_regularizer": null}, "inbound_nodes": [[["conv2d_30", 0, 0, {}]]], "class_name": "BatchNormalization"}, {"name": "add_71", "config": {"name": "add_71", "trainable": true}, "inbound_nodes": [[["activation_27", 0, 0, {}], ["batch_normalization_146", 0, 0, {}]]], "class_name": "Add"}, {"name": "activation_29", "config": {"name": "activation_29", "activation": "relu", "trainable": true}, "inbound_nodes": [[["add_71", 0, 0, {}]]], "class_name": "Activation"}, {"name": "conv2d_31", "config": {"kernel_regularizer": {"config": {"l1": 0.0, "l2": 9.999999747378752e-05}, "class_name": "L1L2"}, "kernel_size": [3, 3], "filters": 18, "kernel_constraint": null, "name": "conv2d_31", "activation": "linear", "dilation_rate": [1, 1], "bias_regularizer": null, "trainable": true, "kernel_initializer": {"config": {"seed": null, "mode": "fan_avg", "scale": 1.0, "distribution": "uniform"}, "class_name": "VarianceScaling"}, "data_format": "channels_last", "bias_initializer": {"config": {}, "class_name": "Zeros"}, "padding": "same", "strides": [1, 1], "activity_regularizer": null, "bias_constraint": null, "use_bias": true}, "inbound_nodes": [[["activation_29", 0, 0, {}]]], "class_name": "Conv2D"}, {"name": "batch_normalization_147", "config": {"momentum": 0.99, "moving_variance_initializer": {"config": {}, "class_name": "Ones"}, "name": "batch_normalization_147", "beta_regularizer": null, "moving_mean_initializer": {"config": {}, "class_name": "Zeros"}, "center": true, "gamma_constraint": null, "scale": true, "axis": -1, "trainable": true, "beta_initializer": {"config": {}, "class_name": "Zeros"}, "beta_constraint": null, "gamma_initializer": {"config": {}, "class_name": "Ones"}, "epsilon": 0.001, "gamma_regularizer": null}, "inbound_nodes": [[["conv2d_31", 0, 0, {}]]], "class_name": "BatchNormalization"}, {"name": "activation_30", "config": {"name": "activation_30", "activation": "relu", "trainable": true}, "inbound_nodes": [[["batch_normalization_147", 0, 0, {}]]], "class_name": "Activation"}, {"name": "conv2d_32", "config": {"kernel_regularizer": {"config": {"l1": 0.0, "l2": 9.999999747378752e-05}, "class_name": "L1L2"}, "kernel_size": [3, 3], "filters": 32, "kernel_constraint": null, "name": "conv2d_32", "activation": "linear", "dilation_rate": [1, 1], "bias_regularizer": null, "trainable": true, "kernel_initializer": {"config": {"seed": null, "mode": "fan_avg", "scale": 1.0, "distribution": "uniform"}, "class_name": "VarianceScaling"}, "data_format": "channels_last", "bias_initializer": {"config": {}, "class_name": "Zeros"}, "padding": "same", "strides": [1, 1], "activity_regularizer": null, "bias_constraint": null, "use_bias": true}, "inbound_nodes": [[["activation_30", 0, 0, {}]]], "class_name": "Conv2D"}, {"name": "batch_normalization_148", "config": {"momentum": 0.99, "moving_variance_initializer": {"config": {}, "class_name": "Ones"}, "name": "batch_normalization_148", "beta_regularizer": null, "moving_mean_initializer": {"config": {}, "class_name": "Zeros"}, "center": true, "gamma_constraint": null, "scale": true, "axis": -1, "trainable": true, "beta_initializer": {"config": {}, "class_name": "Zeros"}, "beta_constraint": null, "gamma_initializer": {"config": {}, "class_name": "Ones"}, "epsilon": 0.001, "gamma_regularizer": null}, "inbound_nodes": [[["conv2d_32", 0, 0, {}]]], "class_name": "BatchNormalization"}, {"name": "add_72", "config": {"name": "add_72", "trainable": true}, "inbound_nodes": [[["activation_29", 0, 0, {}], ["batch_normalization_148", 0, 0, {}]]], "class_name": "Add"}, {"name": "activation_31", "config": {"name": "activation_31", "activation": "relu", "trainable": true}, "inbound_nodes": [[["add_72", 0, 0, {}]]], "class_name": "Activation"}, {"name": "conv2d_33", "config": {"kernel_regularizer": {"config": {"l1": 0.0, "l2": 9.999999747378752e-05}, "class_name": "L1L2"}, "kernel_size": [3, 3], "filters": 15, "kernel_constraint": null, "name": "conv2d_33", "activation": "linear", "dilation_rate": [1, 1], "bias_regularizer": null, "trainable": true, "kernel_initializer": {"config": {"seed": null, "mode": "fan_avg", "scale": 1.0, "distribution": "uniform"}, "class_name": "VarianceScaling"}, "data_format": "channels_last", "bias_initializer": {"config": {}, "class_name": "Zeros"}, "padding": "same", "strides": [1, 1], "activity_regularizer": null, "bias_constraint": null, "use_bias": true}, "inbound_nodes": [[["activation_31", 0, 0, {}]]], "class_name": "Conv2D"}, {"name": "batch_normalization_149", "config": {"momentum": 0.99, "moving_variance_initializer": {"config": {}, "class_name": "Ones"}, "name": "batch_normalization_149", "beta_regularizer": null, "moving_mean_initializer": {"config": {}, "class_name": "Zeros"}, "center": true, "gamma_constraint": null, "scale": true, "axis": -1, "trainable": true, "beta_initializer": {"config": {}, "class_name": "Zeros"}, "beta_constraint": null, "gamma_initializer": {"config": {}, "class_name": "Ones"}, "epsilon": 0.001, "gamma_regularizer": null}, "inbound_nodes": [[["conv2d_33", 0, 0, {}]]], "class_name": "BatchNormalization"}, {"name": "activation_32", "config": {"name": "activation_32", "activation": "relu", "trainable": true}, "inbound_nodes": [[["batch_normalization_149", 0, 0, {}]]], "class_name": "Activation"}, {"name": "conv2d_34", "config": {"kernel_regularizer": {"config": {"l1": 0.0, "l2": 9.999999747378752e-05}, "class_name": "L1L2"}, "kernel_size": [3, 3], "filters": 32, "kernel_constraint": null, "name": "conv2d_34", "activation": "linear", "dilation_rate": [1, 1], "bias_regularizer": null, "trainable": true, "kernel_initializer": {"config": {"seed": null, "mode": "fan_avg", "scale": 1.0, "distribution": "uniform"}, "class_name": "VarianceScaling"}, "data_format": "channels_last", "bias_initializer": {"config": {}, "class_name": "Zeros"}, "padding": "same", "strides": [1, 1], "activity_regularizer": null, "bias_constraint": null, "use_bias": true}, "inbound_nodes": [[["activation_32", 0, 0, {}]]], "class_name": "Conv2D"}, {"name": "batch_normalization_150", "config": {"momentum": 0.99, "moving_variance_initializer": {"config": {}, "class_name": "Ones"}, "name": "batch_normalization_150", "beta_regularizer": null, "moving_mean_initializer": {"config": {}, "class_name": "Zeros"}, "center": true, "gamma_constraint": null, "scale": true, "axis": -1, "trainable": true, "beta_initializer": {"config": {}, "class_name": "Zeros"}, "beta_constraint": null, "gamma_initializer": {"config": {}, "class_name": "Ones"}, "epsilon": 0.001, "gamma_regularizer": null}, "inbound_nodes": [[["conv2d_34", 0, 0, {}]]], "class_name": "BatchNormalization"}, {"name": "add_73", "config": {"name": "add_73", "trainable": true}, "inbound_nodes": [[["activation_31", 0, 0, {}], ["batch_normalization_150", 0, 0, {}]]], "class_name": "Add"}, {"name": "activation_33", "config": {"name": "activation_33", "activation": "relu", "trainable": true}, "inbound_nodes": [[["add_73", 0, 0, {}]]], "class_name": "Activation"}, {"name": "conv2d_35", "config": {"kernel_regularizer": {"config": {"l1": 0.0, "l2": 9.999999747378752e-05}, "class_name": "L1L2"}, "kernel_size": [3, 3], "filters": 22, "kernel_constraint": null, "name": "conv2d_35", "activation": "linear", "dilation_rate": [1, 1], "bias_regularizer": null, "trainable": true, "kernel_initializer": {"config": {"seed": null, "mode": "fan_avg", "scale": 1.0, "distribution": "uniform"}, "class_name": "VarianceScaling"}, "data_format": "channels_last", "bias_initializer": {"config": {}, "class_name": "Zeros"}, "padding": "same", "strides": [1, 1], "activity_regularizer": null, "bias_constraint": null, "use_bias": true}, "inbound_nodes": [[["activation_33", 0, 0, {}]]], "class_name": "Conv2D"}, {"name": "batch_normalization_151", "config": {"momentum": 0.99, "moving_variance_initializer": {"config": {}, "class_name": "Ones"}, "name": "batch_normalization_151", "beta_regularizer": null, "moving_mean_initializer": {"config": {}, "class_name": "Zeros"}, "center": true, "gamma_constraint": null, "scale": true, "axis": -1, "trainable": true, "beta_initializer": {"config": {}, "class_name": "Zeros"}, "beta_constraint": null, "gamma_initializer": {"config": {}, "class_name": "Ones"}, "epsilon": 0.001, "gamma_regularizer": null}, "inbound_nodes": [[["conv2d_35", 0, 0, {}]]], "class_name": "BatchNormalization"}, {"name": "activation_34", "config": {"name": "activation_34", "activation": "relu", "trainable": true}, "inbound_nodes": [[["batch_normalization_151", 0, 0, {}]]], "class_name": "Activation"}, {"name": "conv2d_36", "config": {"kernel_regularizer": {"config": {"l1": 0.0, "l2": 9.999999747378752e-05}, "class_name": "L1L2"}, "kernel_size": [3, 3], "filters": 32, "kernel_constraint": null, "name": "conv2d_36", "activation": "linear", "dilation_rate": [1, 1], "bias_regularizer": null, "trainable": true, "kernel_initializer": {"config": {"seed": null, "mode": "fan_avg", "scale": 1.0, "distribution": "uniform"}, "class_name": "VarianceScaling"}, "data_format": "channels_last", "bias_initializer": {"config": {}, "class_name": "Zeros"}, "padding": "same", "strides": [1, 1], "activity_regularizer": null, "bias_constraint": null, "use_bias": true}, "inbound_nodes": [[["activation_34", 0, 0, {}]]], "class_name": "Conv2D"}, {"name": "batch_normalization_152", "config": {"momentum": 0.99, "moving_variance_initializer": {"config": {}, "class_name": "Ones"}, "name": "batch_normalization_152", "beta_regularizer": null, "moving_mean_initializer": {"config": {}, "class_name": "Zeros"}, "center": true, "gamma_constraint": null, "scale": true, "axis": -1, "trainable": true, "beta_initializer": {"config": {}, "class_name": "Zeros"}, "beta_constraint": null, "gamma_initializer": {"config": {}, "class_name": "Ones"}, "epsilon": 0.001, "gamma_regularizer": null}, "inbound_nodes": [[["conv2d_36", 0, 0, {}]]], "class_name": "BatchNormalization"}, {"name": "add_74", "config": {"name": "add_74", "trainable": true}, "inbound_nodes": [[["activation_33", 0, 0, {}], ["batch_normalization_152", 0, 0, {}]]], "class_name": "Add"}, {"name": "activation_35", "config": {"name": "activation_35", "activation": "relu", "trainable": true}, "inbound_nodes": [[["add_74", 0, 0, {}]]], "class_name": "Activation"}, {"name": "conv2d_37", "config": {"kernel_regularizer": {"config": {"l1": 0.0, "l2": 9.999999747378752e-05}, "class_name": "L1L2"}, "kernel_size": [3, 3], "filters": 20, "kernel_constraint": null, "name": "conv2d_37", "activation": "linear", "dilation_rate": [1, 1], "bias_regularizer": null, "trainable": true, "kernel_initializer": {"config": {"seed": null, "mode": "fan_avg", "scale": 1.0, "distribution": "uniform"}, "class_name": "VarianceScaling"}, "data_format": "channels_last", "bias_initializer": {"config": {}, "class_name": "Zeros"}, "padding": "same", "strides": [1, 1], "activity_regularizer": null, "bias_constraint": null, "use_bias": true}, "inbound_nodes": [[["activation_35", 0, 0, {}]]], "class_name": "Conv2D"}, {"name": "batch_normalization_153", "config": {"momentum": 0.99, "moving_variance_initializer": {"config": {}, "class_name": "Ones"}, "name": "batch_normalization_153", "beta_regularizer": null, "moving_mean_initializer": {"config": {}, "class_name": "Zeros"}, "center": true, "gamma_constraint": null, "scale": true, "axis": -1, "trainable": true, "beta_initializer": {"config": {}, "class_name": "Zeros"}, "beta_constraint": null, "gamma_initializer": {"config": {}, "class_name": "Ones"}, "epsilon": 0.001, "gamma_regularizer": null}, "inbound_nodes": [[["conv2d_37", 0, 0, {}]]], "class_name": "BatchNormalization"}, {"name": "activation_36", "config": {"name": "activation_36", "activation": "relu", "trainable": true}, "inbound_nodes": [[["batch_normalization_153", 0, 0, {}]]], "class_name": "Activation"}, {"name": "conv2d_38", "config": {"kernel_regularizer": {"config": {"l1": 0.0, "l2": 9.999999747378752e-05}, "class_name": "L1L2"}, "kernel_size": [3, 3], "filters": 32, "kernel_constraint": null, "name": "conv2d_38", "activation": "linear", "dilation_rate": [1, 1], "bias_regularizer": null, "trainable": true, "kernel_initializer": {"config": {"seed": null, "mode": "fan_avg", "scale": 1.0, "distribution": "uniform"}, "class_name": "VarianceScaling"}, "data_format": "channels_last", "bias_initializer": {"config": {}, "class_name": "Zeros"}, "padding": "same", "strides": [1, 1], "activity_regularizer": null, "bias_constraint": null, "use_bias": true}, "inbound_nodes": [[["activation_36", 0, 0, {}]]], "class_name": "Conv2D"}, {"name": "batch_normalization_154", "config": {"momentum": 0.99, "moving_variance_initializer": {"config": {}, "class_name": "Ones"}, "name": "batch_normalization_154", "beta_regularizer": null, "moving_mean_initializer": {"config": {}, "class_name": "Zeros"}, "center": true, "gamma_constraint": null, "scale": true, "axis": -1, "trainable": true, "beta_initializer": {"config": {}, "class_name": "Zeros"}, "beta_constraint": null, "gamma_initializer": {"config": {}, "class_name": "Ones"}, "epsilon": 0.001, "gamma_regularizer": null}, "inbound_nodes": [[["conv2d_38", 0, 0, {}]]], "class_name": "BatchNormalization"}, {"name": "add_75", "config": {"name": "add_75", "trainable": true}, "inbound_nodes": [[["activation_35", 0, 0, {}], ["batch_normalization_154", 0, 0, {}]]], "class_name": "Add"}, {"name": "activation_37", "config": {"name": "activation_37", "activation": "relu", "trainable": true}, "inbound_nodes": [[["add_75", 0, 0, {}]]], "class_name": "Activation"}, {"name": "conv2d_39", "config": {"kernel_regularizer": {"config": {"l1": 0.0, "l2": 9.999999747378752e-05}, "class_name": "L1L2"}, "kernel_size": [3, 3], "filters": 38, "kernel_constraint": null, "name": "conv2d_39", "activation": "linear", "dilation_rate": [1, 1], "bias_regularizer": null, "trainable": true, "kernel_initializer": {"config": {"seed": null, "mode": "fan_avg", "scale": 1.0, "distribution": "uniform"}, "class_name": "VarianceScaling"}, "data_format": "channels_last", "bias_initializer": {"config": {}, "class_name": "Zeros"}, "padding": "same", "strides": [2, 2], "activity_regularizer": null, "bias_constraint": null, "use_bias": true}, "inbound_nodes": [[["activation_37", 0, 0, {}]]], "class_name": "Conv2D"}, {"name": "batch_normalization_155", "config": {"momentum": 0.99, "moving_variance_initializer": {"config": {}, "class_name": "Ones"}, "name": "batch_normalization_155", "beta_regularizer": null, "moving_mean_initializer": {"config": {}, "class_name": "Zeros"}, "center": true, "gamma_constraint": null, "scale": true, "axis": -1, "trainable": true, "beta_initializer": {"config": {}, "class_name": "Zeros"}, "beta_constraint": null, "gamma_initializer": {"config": {}, "class_name": "Ones"}, "epsilon": 0.001, "gamma_regularizer": null}, "inbound_nodes": [[["conv2d_39", 0, 0, {}]]], "class_name": "BatchNormalization"}, {"name": "activation_38", "config": {"name": "activation_38", "activation": "relu", "trainable": true}, "inbound_nodes": [[["batch_normalization_155", 0, 0, {}]]], "class_name": "Activation"}, {"name": "conv2d_40", "config": {"kernel_regularizer": {"config": {"l1": 0.0, "l2": 9.999999747378752e-05}, "class_name": "L1L2"}, "kernel_size": [3, 3], "filters": 64, "kernel_constraint": null, "name": "conv2d_40", "activation": "linear", "dilation_rate": [1, 1], "bias_regularizer": null, "trainable": true, "kernel_initializer": {"config": {"seed": null, "mode": "fan_avg", "scale": 1.0, "distribution": "uniform"}, "class_name": "VarianceScaling"}, "data_format": "channels_last", "bias_initializer": {"config": {}, "class_name": "Zeros"}, "padding": "same", "strides": [1, 1], "activity_regularizer": null, "bias_constraint": null, "use_bias": true}, "inbound_nodes": [[["activation_38", 0, 0, {}]]], "class_name": "Conv2D"}, {"name": "conv2d_41", "config": {"kernel_regularizer": {"config": {"l1": 0.0, "l2": 9.999999747378752e-05}, "class_name": "L1L2"}, "kernel_size": [1, 1], "filters": 64, "kernel_constraint": null, "name": "conv2d_41", "activation": "linear", "dilation_rate": [1, 1], "bias_regularizer": null, "trainable": true, "kernel_initializer": {"config": {"seed": null, "mode": "fan_avg", "scale": 1.0, "distribution": "uniform"}, "class_name": "VarianceScaling"}, "data_format": "channels_last", "bias_initializer": {"config": {}, "class_name": "Zeros"}, "padding": "same", "strides": [2, 2], "activity_regularizer": null, "bias_constraint": null, "use_bias": true}, "inbound_nodes": [[["activation_37", 0, 0, {}]]], "class_name": "Conv2D"}, {"name": "batch_normalization_156", "config": {"momentum": 0.99, "moving_variance_initializer": {"config": {}, "class_name": "Ones"}, "name": "batch_normalization_156", "beta_regularizer": null, "moving_mean_initializer": {"config": {}, "class_name": "Zeros"}, "center": true, "gamma_constraint": null, "scale": true, "axis": -1, "trainable": true, "beta_initializer": {"config": {}, "class_name": "Zeros"}, "beta_constraint": null, "gamma_initializer": {"config": {}, "class_name": "Ones"}, "epsilon": 0.001, "gamma_regularizer": null}, "inbound_nodes": [[["conv2d_40", 0, 0, {}]]], "class_name": "BatchNormalization"}, {"name": "add_76", "config": {"name": "add_76", "trainable": true}, "inbound_nodes": [[["conv2d_41", 0, 0, {}], ["batch_normalization_156", 0, 0, {}]]], "class_name": "Add"}, {"name": "LastAct", "config": {"name": "LastAct", "activation": "relu", "trainable": true}, "inbound_nodes": [[["add_76", 0, 0, {}]]], "class_name": "Activation"}, {"name": "average_pooling2d_4", "config": {"data_format": "channels_last", "strides": [8, 8], "name": "average_pooling2d_4", "trainable": true, "padding": "valid", "pool_size": [8, 8]}, "inbound_nodes": [[["LastAct", 0, 0, {}]]], "class_name": "AveragePooling2D"}, {"name": "flatten_4", "config": {"name": "flatten_4", "trainable": true}, "inbound_nodes": [[["average_pooling2d_4", 0, 0, {}]]], "class_name": "Flatten"}, {"name": "dense_4", "config": {"kernel_regularizer": null, "bias_regularizer": null, "bias_constraint": null, "name": "dense_4", "activation": "softmax", "trainable": true, "kernel_initializer": {"config": {"seed": null, "mode": "fan_in", "scale": 2.0, "distribution": "normal"}, "class_name": "VarianceScaling"}, "kernel_constraint": null, "bias_initializer": {"config": {}, "class_name": "Zeros"}, "use_bias": true, "activity_regularizer": null, "units": 10}, "inbound_nodes": [[["flatten_4", 0, 0, {}]]], "class_name": "Dense"}], "output_layers": [["dense_4", 0, 0]], "input_layers": [["input_8", 0, 0]]}, "keras_version": "2.1.2", "class_name": "Model"}